…
INFO:root:EPOCH 50 finished with training loss: 36.412296295166016 | validation loss: 34.79245376586914 | lr: 0.01 | K: -0.026140356680334553 

INFO:root:EPOCH 75 finished with training loss: 31.317703247070312 | validation loss: 30.18456268310547 | lr: 0.01 | K: -0.07462902102688006 

INFO:root:EPOCH 100 finished with training loss: 26.525150299072266 | validation loss: 25.460033416748047 | lr: 0.01 | K: -0.004594081701614405 

INFO:root:
 ----------------------- Starting of new script ----------------------- 

INFO:root:Shape of d_train: (16, 1001, 3)
INFO:root:Net(
  (acti): LeakyReLU(negative_slope=0.01)
  (layer1): Linear(in_features=3, out_features=100, bias=True)
  (layer3): Linear(in_features=100, out_features=3, bias=True)
)
INFO:root:0-1 test of | real x: 0.9927794822635287 | learnt x: 0.20705103798852692
INFO:root:            | real y: 0.9959888620025632 | learnt y: 0.15845441629558477
INFO:root:            | real z: 0.9531700546982069 | learnt z: 0.18283494880925777
INFO:root:
 REACHED END OF MAIN
INFO:root:
 ----------------------- Starting of new script ----------------------- 

INFO:root:Shape of d_train: (16, 1001, 3)
INFO:root:Net(
  (acti): LeakyReLU(negative_slope=0.01)
  (layer1): Linear(in_features=3, out_features=100, bias=True)
  (layer3): Linear(in_features=100, out_features=3, bias=True)
)
WARNING:root:Warning: data is probably oversampled.
WARNING:root:Use coarser sampling or reduce the maximum value of c.
INFO:root:0-1 test of | real x: None | learnt x: 0.1425490442351738
WARNING:root:Warning: data is probably oversampled.
WARNING:root:Use coarser sampling or reduce the maximum value of c.
INFO:root:            | real y: None | learnt y: 0.1770466475554888
INFO:root:            | real z: 0.9826895969206841 | learnt z: 0.17069021596047923
INFO:root:
 REACHED END OF MAIN
INFO:root:
 ----------------------- Starting of new script ----------------------- 

INFO:root:Shape of d_train: (16, 1001, 3)
INFO:root:Net(
  (acti): LeakyReLU(negative_slope=0.01)
  (layer1): Linear(in_features=3, out_features=100, bias=True)
  (layer3): Linear(in_features=100, out_features=3, bias=True)
)
INFO:root:0-1 test of | real x: 0.7459372648587511 | learnt x: 0.9710811402864975
INFO:root:            | real y: 0.9696045125208496 | learnt y: 0.9594254445533391
INFO:root:            | real z: 0.8949609737513682 | learnt z: 0.8622209172379489
INFO:root:
 REACHED END OF MAIN
2021-04-02 20:15:25,032:<module>:INFO
2021-04-02 20:15:25,045:<module>:INFO
2021-04-02 20:15:25,070:<module>:INFO
2021-04-02 20:15:25,072:<module>:INFO
2021-04-02 20:15:25,745:<module>:INFO
2021-04-02 20:15:25,748:save_models:INFO
2021-04-02 20:16:13,971:<module>:INFO:
 ----------------------- Starting of new script ----------------------- 

2021-04-02 20:16:13,983:<module>:INFO:Shape of d_train: (16, 1001, 3)
2021-04-02 20:16:14,003:<module>:INFO:Net(
  (acti): LeakyReLU(negative_slope=0.01)
  (layer1): Linear(in_features=3, out_features=100, bias=True)
  (layer3): Linear(in_features=100, out_features=3, bias=True)
)
2021-04-02 20:16:14,006:<module>:INFO:
STARTING TO TRAIN MODEL | EPOCHS : 500 | lr: 0.01 | n_of_batches: 1 | lookahead: 2
2021-04-02 20:16:14,800:<module>:INFO:EPOCH 0 finished with training loss: 46.74005889892578 | validation loss: 43.8679084777832 | lr: 0.01 | K: -0.15528313033534968 

2021-04-02 20:16:14,803:save_models:INFO:Stored ckpt at /Users/jan-philippvonbassewitz/Documents/Studium/Semester_6/Bachelor_Thesis/LatentODELorentz/MyNeuralODE/3D_lorenz_prediction/models/3DLorenzmodelmodel0.pth
2021-04-02 20:16:53,554:<module>:INFO:
 ----------------------- Starting of new script ----------------------- 
 

2021-04-02 20:16:53,565:<module>:INFO:Shape of d_train: (16, 1001, 3) 

2021-04-02 20:16:53,584:<module>:INFO:Net(
  (acti): LeakyReLU(negative_slope=0.01)
  (layer1): Linear(in_features=3, out_features=100, bias=True)
  (layer3): Linear(in_features=100, out_features=3, bias=True)
) 

2021-04-02 20:16:53,587:<module>:INFO:
STARTING TO TRAIN MODEL | EPOCHS : 500 | lr: 0.01 | n_of_batches: 1 | lookahead: 2 

2021-04-02 20:16:54,239:<module>:INFO:EPOCH 0 finished with training loss: 46.98923873901367 | validation loss: 44.05282974243164 | lr: 0.01 | K: -0.18942823813801227 
 

2021-04-02 20:16:54,241:save_models:INFO:Stored ckpt at /Users/jan-philippvonbassewitz/Documents/Studium/Semester_6/Bachelor_Thesis/LatentODELorentz/MyNeuralODE/3D_lorenz_prediction/models/3DLorenzmodelmodel0.pth 
…
2021-04-02 20:19:26,268:<module>:INFO:EPOCH 50 finished with training loss: 35.822967529296875 | validation loss: 34.271976470947266 | lr: 0.01 | K: -0.09599702319482584 
 

2021-04-02 20:19:26,269:save_models:INFO:Stored ckpt at /Users/jan-philippvonbassewitz/Documents/Studium/Semester_6/Bachelor_Thesis/LatentODELorentz/MyNeuralODE/3D_lorenz_prediction/models/3DLorenzmodelmodel0.pth 

2021-04-03 09:32:02,593:<module>:INFO:
 ----------------------- Starting of new script ----------------------- 

2021-04-03 09:32:02,610:<module>:INFO:Shape of d_train: (16, 1001, 3)
2021-04-03 09:32:02,639:<module>:INFO:Net(
  (acti): LeakyReLU(negative_slope=0.01)
  (layer1): Linear(in_features=3, out_features=100, bias=True)
  (layer3): Linear(in_features=100, out_features=3, bias=True)
)
2021-04-03 09:32:14,853:<module>:INFO:
 ----------------------- Starting of new script ----------------------- 

2021-04-03 09:32:14,867:<module>:INFO:Shape of d_train: (16, 1001, 3)
2021-04-03 09:32:14,887:<module>:INFO:Net(
  (acti): LeakyReLU(negative_slope=0.01)
  (layer1): Linear(in_features=3, out_features=256, bias=True)
  (layer3): Linear(in_features=256, out_features=3, bias=True)
)
2021-04-03 09:32:19,874:<module>:INFO:0-1 test of | real x: 0.7510391362095672 | learnt x: 0.9614442910071108
2021-04-03 09:32:19,949:<module>:INFO:            | real y: 0.9615556298690733 | learnt y: 0.9429851492093733
2021-04-03 09:32:20,025:<module>:INFO:            | real z: 0.8969342214873421 | learnt z: 0.8988286943402866
2021-04-03 09:32:20,025:<module>:INFO:
 REACHED END OF MAIN
2021-04-03 09:33:20,432:<module>:INFO:
 ----------------------- Starting of new script ----------------------- 

2021-04-03 09:33:20,442:<module>:INFO:Shape of d_train: (16, 1001, 3)
2021-04-03 09:33:20,461:<module>:INFO:Net(
  (acti): LeakyReLU(negative_slope=0.01)
  (layer1): Linear(in_features=3, out_features=256, bias=True)
  (layer3): Linear(in_features=256, out_features=3, bias=True)
)
2021-04-03 09:33:25,033:<module>:INFO:0-1 test of | real x: 0.7878354764652435 | learnt x: 0.9606912947200674
2021-04-03 09:33:25,107:<module>:INFO:            | real y: 0.9810911788986956 | learnt y: 0.9763094961683989
2021-04-03 09:33:25,180:<module>:INFO:            | real z: 0.9010675304730069 | learnt z: 0.8929945916812277
2021-04-03 09:33:25,180:<module>:INFO:
 REACHED END OF MAIN
2021-04-03 09:33:41,629:<module>:INFO:
 ----------------------- Starting of new script ----------------------- 

2021-04-03 09:33:41,641:<module>:INFO:Shape of d_train: (16, 1001, 3)
2021-04-03 09:33:41,662:<module>:INFO:Net(
  (acti): LeakyReLU(negative_slope=0.01)
  (layer1): Linear(in_features=3, out_features=256, bias=True)
  (layer3): Linear(in_features=256, out_features=3, bias=True)
)
2021-04-03 09:33:46,059:<module>:INFO:0-1 test of | real x: 0.7758327688358777 | learnt x: 0.9555550827658521
2021-04-03 09:33:46,136:<module>:INFO:            | real y: 0.9395004311671293 | learnt y: 0.9668669063317754
2021-04-03 09:33:46,213:<module>:INFO:            | real z: 0.8576680216504617 | learnt z: 0.8722623811824382
2021-04-03 09:33:46,213:<module>:INFO:
 REACHED END OF MAIN
2021-04-03 09:34:19,990:<module>:INFO:
 ----------------------- Starting of new script ----------------------- 

2021-04-03 09:34:20,004:<module>:INFO:Shape of d_train: (16, 1001, 3)
2021-04-03 09:34:20,029:<module>:INFO:Net(
  (acti): LeakyReLU(negative_slope=0.01)
  (layer1): Linear(in_features=3, out_features=256, bias=True)
  (layer3): Linear(in_features=256, out_features=3, bias=True)
)
2021-04-03 09:34:24,376:z1test:WARNING:Warning: data is probably oversampled.
2021-04-03 09:34:24,376:z1test:WARNING:Use coarser sampling or reduce the maximum value of c.
2021-04-03 09:34:24,421:<module>:INFO:0-1 test of | real x: None | learnt x: 0.9367261056322518
2021-04-03 09:34:24,506:<module>:INFO:            | real y: 0.9733929316769943 | learnt y: 0.9609146217073468
2021-04-03 09:34:24,588:<module>:INFO:            | real z: 0.8219596390755032 | learnt z: 0.8431056644704523
2021-04-03 09:34:24,588:<module>:INFO:
 REACHED END OF MAIN
2021-04-03 19:54:02,947:<module>:INFO:
 ----------------------- Starting of new script ----------------------- 

2021-04-03 19:54:02,963:<module>:INFO:Shape of d_train: (16, 1001, 3)
2021-04-03 19:54:02,988:<module>:INFO:Net(
  (acti): LeakyReLU(negative_slope=0.01)
  (layer1): Linear(in_features=3, out_features=256, bias=True)
  (layer3): Linear(in_features=256, out_features=3, bias=True)
)
2021-04-03 19:54:08,020:z1test:WARNING:Warning: data is probably oversampled.
2021-04-03 19:54:08,020:z1test:WARNING:Use coarser sampling or reduce the maximum value of c.
2021-04-03 19:54:08,068:<module>:INFO:0-1 test of | real x: None | learnt x: 0.9061507837715725
2021-04-03 19:54:08,157:<module>:INFO:            | real y: 0.9882440493840003 | learnt y: 0.9647487139404984
2021-04-03 19:54:08,259:<module>:INFO:            | real z: 0.8243243106042619 | learnt z: 0.8676752139564228
2021-04-03 19:54:08,259:<module>:INFO:
 REACHED END OF MAIN
2021-04-03 19:59:47,606:<module>:INFO:
 ----------------------- Starting of new script ----------------------- 

2021-04-03 19:59:47,623:<module>:INFO:Shape of d_train: (16, 1001, 3)
2021-04-03 19:59:47,653:<module>:INFO:Net(
  (acti): LeakyReLU(negative_slope=0.01)
  (layer1): Linear(in_features=3, out_features=256, bias=True)
  (layer3): Linear(in_features=256, out_features=3, bias=True)
)
2021-04-03 19:59:58,700:z1test:WARNING:Warning: data is probably oversampled.
2021-04-03 19:59:58,701:z1test:WARNING:Use coarser sampling or reduce the maximum value of c.
2021-04-03 19:59:58,835:<module>:INFO:0-1 test of | real x: None | learnt x: 0.9407719193068961
2021-04-03 19:59:59,038:<module>:INFO:            | real y: 0.994501284818112 | learnt y: 0.9703264378402786
2021-04-03 19:59:59,243:<module>:INFO:            | real z: 0.9238074297474377 | learnt z: 0.9076382703488028
2021-04-03 19:59:59,244:<module>:INFO:
 REACHED END OF MAIN
2021-04-04 16:34:58,337:<module>:INFO:
 ----------------------- Starting of new script ----------------------- 

2021-04-04 16:34:58,353:<module>:INFO:Shape of d_train: (16, 1001, 3)
2021-04-04 16:34:58,383:<module>:INFO:Net(
  (acti): LeakyReLU(negative_slope=0.01)
  (layer1): Linear(in_features=3, out_features=256, bias=True)
  (layer3): Linear(in_features=256, out_features=3, bias=True)
)
2021-04-04 16:35:10,842:z1test:WARNING:Warning: data is probably oversampled.
2021-04-04 16:35:10,842:z1test:WARNING:Use coarser sampling or reduce the maximum value of c.
2021-04-04 16:35:10,969:<module>:INFO:0-1 test of | real x: None | learnt x: 0.9806126563684632
2021-04-04 16:35:11,198:<module>:INFO:            | real y: 0.9890667531980268 | learnt y: 0.9813962803942697
2021-04-04 16:35:11,423:<module>:INFO:            | real z: 0.9010963903645568 | learnt z: 0.9738851304244956
2021-04-04 16:35:11,423:<module>:INFO:
 REACHED END OF MAIN
2021-04-04 17:41:39,568:<module>:INFO:
 ----------------------- Starting of new script ----------------------- 

2021-04-04 17:41:39,577:<module>:INFO:Shape of d_train: (16, 1001, 3)
2021-04-04 17:41:39,595:<module>:INFO:Net(
  (acti): LeakyReLU(negative_slope=0.01)
  (layer1): Linear(in_features=3, out_features=256, bias=True)
  (layer3): Linear(in_features=256, out_features=3, bias=True)
)
2021-04-04 17:41:51,984:z1test:WARNING:Warning: data is probably oversampled.
2021-04-04 17:41:51,984:z1test:WARNING:Use coarser sampling or reduce the maximum value of c.
2021-04-04 17:41:52,102:<module>:INFO:0-1 test of | real x: None | learnt x: 0.9796212419973347
2021-04-04 17:41:52,300:<module>:INFO:            | real y: 0.9944404034569385 | learnt y: 0.9819054085522012
2021-04-04 17:41:52,518:<module>:INFO:            | real z: 0.9292542773587613 | learnt z: 0.9507001897987079
2021-04-04 17:41:52,518:<module>:INFO:
 REACHED END OF MAIN
2021-04-04 17:43:38,053:<module>:INFO:
 ----------------------- Starting of new script ----------------------- 

2021-04-04 17:43:38,065:<module>:INFO:Shape of d_train: (16, 1001, 3)
2021-04-04 17:43:38,085:<module>:INFO:Net(
  (acti): LeakyReLU(negative_slope=0.01)
  (layer1): Linear(in_features=3, out_features=256, bias=True)
  (layer3): Linear(in_features=256, out_features=3, bias=True)
)
2021-04-04 17:43:43,670:z1test:WARNING:Warning: data is probably oversampled.
2021-04-04 17:43:43,670:z1test:WARNING:Use coarser sampling or reduce the maximum value of c.
2021-04-04 17:43:43,671:<module>:INFO:0-1 test of | real x: 0.9948981851114712 | learnt x: None
2021-04-04 17:43:44,094:z1test:WARNING:Warning: data is probably oversampled.
2021-04-04 17:43:44,094:z1test:WARNING:Use coarser sampling or reduce the maximum value of c.
…
2021-04-04 17:47:14,754:z1test:WARNING:Warning: data is probably oversampled.
2021-04-04 17:47:14,754:z1test:WARNING:Use coarser sampling or reduce the maximum value of c.
2021-04-04 17:47:14,754:<module>:INFO:            | real z: 0.8156760763633932 | learnt z: None
2021-04-04 17:47:14,754:<module>:INFO:
 REACHED END OF MAIN
2021-04-05 15:10:45,588:<module>:INFO:
 ----------------------- Starting of new script ----------------------- 

2021-04-05 15:10:45,603:<module>:INFO:Shape of d_train: (16, 1001, 3)
2021-04-05 15:10:45,629:<module>:INFO:Net(
  (acti): LeakyReLU(negative_slope=0.01)
  (layer1): Linear(in_features=3, out_features=256, bias=True)
  (layer2): Linear(in_features=256, out_features=256, bias=True)
  (layer3): Linear(in_features=256, out_features=3, bias=True)
)
2021-04-05 15:10:51,361:z1test:WARNING:Warning: data is probably oversampled.
2021-04-05 15:10:51,361:z1test:WARNING:Use coarser sampling or reduce the maximum value of c.
2021-04-05 15:10:51,417:<module>:INFO:0-1 test of | real x: None | learnt x: 0.8907610908229293
2021-04-05 15:10:51,506:<module>:INFO:            | real y: 0.9671896544329288 | learnt y: 0.9712052899467719
2021-04-05 15:10:51,583:<module>:INFO:            | real z: 0.8256516774275943 | learnt z: 0.8115613525337763
2021-04-05 15:10:51,583:<module>:INFO:
 REACHED END OF MAIN
2021-04-05 15:11:22,702:<module>:INFO:
 ----------------------- Starting of new script ----------------------- 

2021-04-05 15:11:22,711:<module>:INFO:Shape of d_train: (16, 1001, 3)
2021-04-05 15:11:22,728:<module>:INFO:Net(
  (acti): LeakyReLU(negative_slope=0.01)
  (layer1): Linear(in_features=3, out_features=256, bias=True)
  (layer2): Linear(in_features=256, out_features=256, bias=True)
  (layer3): Linear(in_features=256, out_features=3, bias=True)
)
2021-04-05 15:11:32,435:z1test:WARNING:Warning: data is probably oversampled.
2021-04-05 15:11:32,435:z1test:WARNING:Use coarser sampling or reduce the maximum value of c.
2021-04-05 15:11:32,509:<module>:INFO:0-1 test of | real x: None | learnt x: 0.9680689689126735
2021-04-05 15:11:32,648:<module>:INFO:            | real y: 0.9870257836670043 | learnt y: 0.9872051345770656
2021-04-05 15:11:32,783:<module>:INFO:            | real z: 0.9088324243069257 | learnt z: 0.88771270410105
2021-04-05 15:11:32,783:<module>:INFO:
 REACHED END OF MAIN
2021-04-05 15:12:00,813:<module>:INFO:
 ----------------------- Starting of new script ----------------------- 

2021-04-05 15:12:00,823:<module>:INFO:Shape of d_train: (16, 1001, 3)
2021-04-05 15:12:00,840:<module>:INFO:Net(
  (acti): LeakyReLU(negative_slope=0.01)
  (layer1): Linear(in_features=3, out_features=256, bias=True)
  (layer2): Linear(in_features=256, out_features=256, bias=True)
  (layer3): Linear(in_features=256, out_features=3, bias=True)
)
2021-04-05 15:12:06,394:<module>:INFO:0-1 test of | real x: 0.7994403868589739 | learnt x: 0.8974276710818914
2021-04-05 15:12:06,480:<module>:INFO:            | real y: 0.9806332706381942 | learnt y: 0.9902333665858026
2021-04-05 15:12:06,557:<module>:INFO:            | real z: 0.8444804673679791 | learnt z: 0.8678596531046417
2021-04-05 15:12:06,558:<module>:INFO:
 REACHED END OF MAIN
2021-04-05 15:12:21,824:<module>:INFO:
 ----------------------- Starting of new script ----------------------- 

2021-04-05 15:12:21,833:<module>:INFO:Shape of d_train: (16, 1001, 3)
2021-04-05 15:12:21,850:<module>:INFO:Net(
  (acti): LeakyReLU(negative_slope=0.01)
  (layer1): Linear(in_features=3, out_features=256, bias=True)
  (layer2): Linear(in_features=256, out_features=256, bias=True)
  (layer3): Linear(in_features=256, out_features=3, bias=True)
)
2021-04-05 15:12:27,232:z1test:WARNING:Warning: data is probably oversampled.
2021-04-05 15:12:27,232:z1test:WARNING:Use coarser sampling or reduce the maximum value of c.
2021-04-05 15:12:27,232:<module>:INFO:0-1 test of | real x: 0.8720234252489114 | learnt x: None
2021-04-05 15:12:27,308:<module>:INFO:            | real y: 0.9866460891763785 | learnt y: 0.9595493311320512
2021-04-05 15:12:27,386:<module>:INFO:            | real z: 0.8657385959784136 | learnt z: 0.8563969706732579
2021-04-05 15:12:27,386:<module>:INFO:
 REACHED END OF MAIN
2021-04-05 15:12:52,694:<module>:INFO:
 ----------------------- Starting of new script ----------------------- 

2021-04-05 15:12:52,703:<module>:INFO:Shape of d_train: (16, 1001, 3)
2021-04-05 15:12:52,719:<module>:INFO:Net(
  (acti): LeakyReLU(negative_slope=0.01)
  (layer1): Linear(in_features=3, out_features=256, bias=True)
  (layer2): Linear(in_features=256, out_features=256, bias=True)
  (layer3): Linear(in_features=256, out_features=3, bias=True)
)
2021-04-05 15:12:58,069:z1test:WARNING:Warning: data is probably oversampled.
2021-04-05 15:12:58,069:z1test:WARNING:Use coarser sampling or reduce the maximum value of c.
2021-04-05 15:12:58,247:z1test:WARNING:Warning: data is probably oversampled.
2021-04-05 15:12:58,247:z1test:WARNING:Use coarser sampling or reduce the maximum value of c.
2021-04-05 15:12:58,247:<module>:INFO:0-1 test of | real x: None | learnt x: None
…
2021-04-05 15:12:58,888:z1test:WARNING:Warning: data is probably oversampled.
2021-04-05 15:12:58,888:z1test:WARNING:Use coarser sampling or reduce the maximum value of c.
2021-04-05 15:12:58,888:<module>:INFO:            | real z: 0.9694803006689637 | learnt z: None
2021-04-05 15:12:58,888:<module>:INFO:
 REACHED END OF MAIN
2021-04-05 15:13:17,960:<module>:INFO:
 ----------------------- Starting of new script ----------------------- 

2021-04-05 15:13:17,969:<module>:INFO:Shape of d_train: (16, 1001, 3)
2021-04-05 15:13:17,986:<module>:INFO:Net(
  (acti): LeakyReLU(negative_slope=0.01)
  (layer1): Linear(in_features=3, out_features=256, bias=True)
  (layer2): Linear(in_features=256, out_features=256, bias=True)
  (layer3): Linear(in_features=256, out_features=3, bias=True)
)
2021-04-05 15:13:23,303:<module>:INFO:0-1 test of | real x: 0.8758545145176524 | learnt x: 0.8338491389553708
2021-04-05 15:13:23,382:<module>:INFO:            | real y: 0.9764463397394816 | learnt y: 0.9700354629279448
2021-04-05 15:13:23,460:<module>:INFO:            | real z: 0.8527516340748148 | learnt z: 0.8314303692038387
2021-04-05 15:13:23,460:<module>:INFO:
 REACHED END OF MAIN
2021-04-05 15:13:43,760:<module>:INFO:
 ----------------------- Starting of new script ----------------------- 

2021-04-05 15:13:43,769:<module>:INFO:Shape of d_train: (16, 1001, 3)
2021-04-05 15:13:43,787:<module>:INFO:Net(
  (acti): LeakyReLU(negative_slope=0.01)
  (layer1): Linear(in_features=3, out_features=256, bias=True)
  (layer2): Linear(in_features=256, out_features=256, bias=True)
  (layer3): Linear(in_features=256, out_features=3, bias=True)
)
2021-04-05 15:13:49,027:z1test:WARNING:Warning: data is probably oversampled.
2021-04-05 15:13:49,027:z1test:WARNING:Use coarser sampling or reduce the maximum value of c.
2021-04-05 15:13:49,076:<module>:INFO:0-1 test of | real x: None | learnt x: 0.9384111438732745
2021-04-05 15:13:49,154:<module>:INFO:            | real y: 0.9385934737502467 | learnt y: 0.9876421537901225
2021-04-05 15:13:49,228:<module>:INFO:            | real z: 0.8505931671103032 | learnt z: 0.8359925286886907
2021-04-05 15:13:49,229:<module>:INFO:
 REACHED END OF MAIN
2021-04-05 15:14:05,457:<module>:INFO:
 ----------------------- Starting of new script ----------------------- 

2021-04-05 15:14:05,466:<module>:INFO:Shape of d_train: (16, 1001, 3)
2021-04-05 15:14:05,483:<module>:INFO:Net(
  (acti): LeakyReLU(negative_slope=0.01)
  (layer1): Linear(in_features=3, out_features=256, bias=True)
  (layer2): Linear(in_features=256, out_features=256, bias=True)
  (layer3): Linear(in_features=256, out_features=3, bias=True)
)
2021-04-05 15:14:10,917:<module>:INFO:0-1 test of | real x: 0.8940492113116054 | learnt x: 0.9299061564935168
2021-04-05 15:14:10,994:<module>:INFO:            | real y: 0.9733679918111249 | learnt y: 0.9854359556112946
2021-04-05 15:14:11,073:<module>:INFO:            | real z: 0.9036785612455787 | learnt z: 0.8559264387069746
2021-04-05 15:14:11,073:<module>:INFO:
 REACHED END OF MAIN
2021-04-06 10:56:16,082:<module>:INFO:
 ----------------------- Starting of new script ----------------------- 

2021-04-06 10:56:16,092:<module>:INFO:Shape of d_train: (16, 1001, 3)
2021-04-06 10:56:16,109:<module>:INFO:Net(
  (acti): LeakyReLU(negative_slope=0.01)
  (layer1): Linear(in_features=3, out_features=256, bias=True)
  (layer2): Linear(in_features=256, out_features=256, bias=True)
  (layer3): Linear(in_features=256, out_features=3, bias=True)
)
2021-04-06 10:56:22,001:<module>:INFO:0-1 test of | real x: 0.8679811850081491 | learnt x: 0.9079067519743436
2021-04-06 10:56:22,074:<module>:INFO:            | real y: 0.9786860107191232 | learnt y: 0.9919152300477305
2021-04-06 10:56:22,158:<module>:INFO:            | real z: 0.9042421018488878 | learnt z: 0.8397232707937634
2021-04-06 10:56:22,159:<module>:INFO:
 REACHED END OF MAIN
2021-04-06 10:56:37,651:<module>:INFO:
 ----------------------- Starting of new script ----------------------- 

2021-04-06 10:56:37,661:<module>:INFO:Shape of d_train: (16, 1001, 3)
2021-04-06 10:56:37,680:<module>:INFO:Net(
  (acti): LeakyReLU(negative_slope=0.01)
  (layer1): Linear(in_features=3, out_features=256, bias=True)
  (layer2): Linear(in_features=256, out_features=256, bias=True)
  (layer3): Linear(in_features=256, out_features=3, bias=True)
)
2021-04-06 10:56:42,822:<module>:INFO:0-1 test of | real x: 0.6482558213387686 | learnt x: 0.84539100922983
2021-04-06 10:56:42,899:<module>:INFO:            | real y: 0.9425473706091811 | learnt y: 0.9689126619366992
2021-04-06 10:56:42,973:<module>:INFO:            | real z: 0.831059869316946 | learnt z: 0.8493865358289631
2021-04-06 10:56:42,973:<module>:INFO:
 REACHED END OF MAIN
2021-04-06 10:56:54,532:<module>:INFO:
 ----------------------- Starting of new script ----------------------- 

2021-04-06 10:56:54,542:<module>:INFO:Shape of d_train: (16, 1001, 3)
2021-04-06 10:56:54,560:<module>:INFO:Net(
  (acti): LeakyReLU(negative_slope=0.01)
  (layer1): Linear(in_features=3, out_features=256, bias=True)
  (layer2): Linear(in_features=256, out_features=256, bias=True)
  (layer3): Linear(in_features=256, out_features=3, bias=True)
)
2021-04-06 10:56:59,714:<module>:INFO:0-1 test of | real x: 0.7595355819778989 | learnt x: 0.8850647204276133
2021-04-06 10:56:59,795:<module>:INFO:            | real y: 0.9546952214808384 | learnt y: 0.9728759402569476
2021-04-06 10:56:59,878:<module>:INFO:            | real z: 0.8756878826079779 | learnt z: 0.8438894385377622
2021-04-06 10:56:59,879:<module>:INFO:
 REACHED END OF MAIN
2021-04-06 10:57:22,451:<module>:INFO:
 ----------------------- Starting of new script ----------------------- 

2021-04-06 10:57:22,462:<module>:INFO:Shape of d_train: (16, 1001, 3)
2021-04-06 10:57:22,483:<module>:INFO:Net(
  (acti): LeakyReLU(negative_slope=0.01)
  (layer1): Linear(in_features=3, out_features=256, bias=True)
  (layer2): Linear(in_features=256, out_features=256, bias=True)
  (layer3): Linear(in_features=256, out_features=3, bias=True)
)
2021-04-06 10:57:27,828:z1test:WARNING:Warning: data is probably oversampled.
2021-04-06 10:57:27,828:z1test:WARNING:Use coarser sampling or reduce the maximum value of c.
2021-04-06 10:57:27,828:<module>:INFO:0-1 test of | real x: 0.8448944874060963 | learnt x: None
2021-04-06 10:57:27,911:<module>:INFO:            | real y: 0.9846865454254002 | learnt y: 0.9814953095097847
2021-04-06 10:57:27,992:<module>:INFO:            | real z: 0.8555911331663058 | learnt z: 0.8560934097858204
2021-04-06 10:57:27,992:<module>:INFO:
 REACHED END OF MAIN
2021-04-06 10:57:48,632:<module>:INFO:
 ----------------------- Starting of new script ----------------------- 

2021-04-06 10:57:48,642:<module>:INFO:Shape of d_train: (16, 1001, 3)
2021-04-06 10:57:48,660:<module>:INFO:Net(
  (acti): LeakyReLU(negative_slope=0.01)
  (layer1): Linear(in_features=3, out_features=256, bias=True)
  (layer2): Linear(in_features=256, out_features=256, bias=True)
  (layer3): Linear(in_features=256, out_features=3, bias=True)
)
2021-04-06 10:57:53,906:<module>:INFO:0-1 test of | real x: 0.8211723042969302 | learnt x: 0.850168686214313
2021-04-06 10:57:53,981:<module>:INFO:            | real y: 0.9834847070771984 | learnt y: 0.973476859783264
2021-04-06 10:57:54,055:<module>:INFO:            | real z: 0.8592650758790589 | learnt z: 0.861349021696586
2021-04-06 10:57:54,055:<module>:INFO:
 REACHED END OF MAIN
2021-04-06 12:34:27,277:<module>:INFO:
 ----------------------- Starting of new script ----------------------- 

2021-04-06 12:34:27,298:<module>:INFO:Shape of d_train: (16, 1001, 3)
2021-04-06 12:34:27,339:<module>:INFO:Net(
  (acti): LeakyReLU(negative_slope=0.01)
  (layer1): Linear(in_features=3, out_features=256, bias=True)
  (layer2): Linear(in_features=256, out_features=256, bias=True)
  (layer3): Linear(in_features=256, out_features=3, bias=True)
)
2021-04-06 12:34:31,075:<module>:INFO:0-1 test of | real x: 0.9189516590421853 | learnt x: 0.877930818838368
2021-04-06 12:34:31,126:<module>:INFO:            | real y: 0.9711872589949389 | learnt y: 0.9274639393233488
2021-04-06 12:34:31,173:<module>:INFO:            | real z: 0.9928839883757447 | learnt z: 0.9888018714907513
2021-04-06 12:34:31,173:<module>:INFO:
 REACHED END OF MAIN
2021-04-06 12:35:37,225:<module>:INFO:
 ----------------------- Starting of new script ----------------------- 

2021-04-06 12:35:37,238:<module>:INFO:Shape of d_train: (16, 1001, 3)
2021-04-06 12:35:37,260:<module>:INFO:Net(
  (acti): LeakyReLU(negative_slope=0.01)
  (layer1): Linear(in_features=3, out_features=256, bias=True)
  (layer2): Linear(in_features=256, out_features=256, bias=True)
  (layer3): Linear(in_features=256, out_features=3, bias=True)
)
2021-04-06 12:35:40,758:z1test:WARNING:Warning: data is probably oversampled.
2021-04-06 12:35:40,759:z1test:WARNING:Use coarser sampling or reduce the maximum value of c.
2021-04-06 12:35:40,759:<module>:INFO:0-1 test of | real x: 0.9534413346350716 | learnt x: None
2021-04-06 12:35:40,949:z1test:WARNING:Warning: data is probably oversampled.
2021-04-06 12:35:40,949:z1test:WARNING:Use coarser sampling or reduce the maximum value of c.
…
2021-04-06 12:36:30,773:z1test:WARNING:Warning: data is probably oversampled.
2021-04-06 12:36:30,773:z1test:WARNING:Use coarser sampling or reduce the maximum value of c.
2021-04-06 12:36:30,773:<module>:INFO:            | real z: 0.979191955318411 | learnt z: None
2021-04-06 12:36:30,773:<module>:INFO:
 REACHED END OF MAIN
2021-04-06 12:37:12,322:<module>:INFO:
 ----------------------- Starting of new script ----------------------- 

2021-04-06 12:37:12,332:<module>:INFO:Shape of d_train: (16, 1001, 3)
2021-04-06 12:37:12,350:<module>:INFO:Net(
  (acti): LeakyReLU(negative_slope=0.01)
  (layer1): Linear(in_features=3, out_features=256, bias=True)
  (layer2): Linear(in_features=256, out_features=256, bias=True)
  (layer3): Linear(in_features=256, out_features=3, bias=True)
)
2021-04-06 12:37:17,688:z1test:WARNING:Warning: data is probably oversampled.
2021-04-06 12:37:17,688:z1test:WARNING:Use coarser sampling or reduce the maximum value of c.
2021-04-06 12:37:17,689:<module>:INFO:0-1 test of | real x: 0.8983563118817333 | learnt x: None
2021-04-06 12:37:17,767:<module>:INFO:            | real y: 0.9856314354681017 | learnt y: 0.9867656666534839
2021-04-06 12:37:17,848:<module>:INFO:            | real z: 0.8665259790392004 | learnt z: 0.8747976911313642
2021-04-06 12:37:17,849:<module>:INFO:
 REACHED END OF MAIN
2021-04-06 12:37:27,586:<module>:INFO:
 ----------------------- Starting of new script ----------------------- 

2021-04-06 12:37:27,596:<module>:INFO:Shape of d_train: (16, 1001, 3)
2021-04-06 12:37:27,614:<module>:INFO:Net(
  (acti): LeakyReLU(negative_slope=0.01)
  (layer1): Linear(in_features=3, out_features=256, bias=True)
  (layer2): Linear(in_features=256, out_features=256, bias=True)
  (layer3): Linear(in_features=256, out_features=3, bias=True)
)
2021-04-06 12:37:30,783:<module>:INFO:0-1 test of | real x: 0.8084998267765116 | learnt x: 0.9144088478883408
2021-04-06 12:37:30,833:<module>:INFO:            | real y: 0.9805902214536306 | learnt y: 0.9661769641368814
2021-04-06 12:37:30,881:<module>:INFO:            | real z: 0.9905206943569678 | learnt z: 0.9893099606018299
2021-04-06 12:37:30,881:<module>:INFO:
 REACHED END OF MAIN
2021-04-06 12:55:39,185:<module>:INFO:
 ----------------------- Starting of new script ----------------------- 

2021-04-06 12:55:39,194:<module>:INFO:Shape of d_train: (16, 1001, 3)
2021-04-06 12:55:39,212:<module>:INFO:Net(
  (acti): LeakyReLU(negative_slope=0.01)
  (layer1): Linear(in_features=3, out_features=256, bias=True)
  (layer2): Linear(in_features=256, out_features=256, bias=True)
  (layer3): Linear(in_features=256, out_features=3, bias=True)
)
2021-04-06 12:55:44,915:z1test:WARNING:Warning: data is probably oversampled.
2021-04-06 12:55:44,915:z1test:WARNING:Use coarser sampling or reduce the maximum value of c.
2021-04-06 12:55:45,116:z1test:WARNING:Warning: data is probably oversampled.
2021-04-06 12:55:45,116:z1test:WARNING:Use coarser sampling or reduce the maximum value of c.
2021-04-06 12:55:45,116:<module>:INFO:0-1 test of | real x: None | learnt x: None
…
2021-04-06 12:55:45,913:z1test:WARNING:Warning: data is probably oversampled.
2021-04-06 12:55:45,913:z1test:WARNING:Use coarser sampling or reduce the maximum value of c.
2021-04-06 12:55:45,913:<module>:INFO:            | real z: 0.955144739707321 | learnt z: None
2021-04-06 12:55:45,913:<module>:INFO:
 REACHED END OF MAIN
2021-04-06 18:23:33,897:<module>:INFO:
 ----------------------- Starting of new script ----------------------- 

2021-04-06 18:23:33,906:<module>:INFO:Shape of d_train: (16, 1001, 1)
2021-04-06 18:23:33,923:<module>:INFO:Net(
  (acti): LeakyReLU(negative_slope=0.01)
  (layer1): Linear(in_features=3, out_features=256, bias=True)
  (layer2): Linear(in_features=256, out_features=256, bias=True)
  (layer3): Linear(in_features=256, out_features=3, bias=True)
)
2021-04-06 18:25:53,280:<module>:INFO:
 ----------------------- Starting of new script ----------------------- 

2021-04-06 18:25:53,298:<module>:INFO:Shape of d_train: (16, 2001, 3)
2021-04-06 18:25:53,328:<module>:INFO:Net(
  (acti): LeakyReLU(negative_slope=0.01)
  (layer1): Linear(in_features=3, out_features=256, bias=True)
  (layer2): Linear(in_features=256, out_features=256, bias=True)
  (layer3): Linear(in_features=256, out_features=3, bias=True)
)
2021-04-06 18:25:59,265:z1test:WARNING:Warning: data is probably oversampled.
2021-04-06 18:25:59,265:z1test:WARNING:Use coarser sampling or reduce the maximum value of c.
2021-04-06 18:25:59,427:z1test:WARNING:Warning: data is probably oversampled.
2021-04-06 18:25:59,427:z1test:WARNING:Use coarser sampling or reduce the maximum value of c.
2021-04-06 18:25:59,427:<module>:INFO:0-1 test of | real x: None | learnt x: None
…
 ----------------------- Starting of new script ----------------------- 

2021-04-06 19:04:27,840:<module>:INFO:Shape of d_train: (16, 2001, 1)
2021-04-06 19:04:46,057:<module>:INFO:
 ----------------------- Starting of new script ----------------------- 

2021-04-06 19:04:46,067:<module>:INFO:Shape of d_train: (16, 2001, 1)
2021-04-06 19:15:59,592:<module>:INFO:
 ----------------------- Starting of new script ----------------------- 

2021-04-06 19:15:59,604:<module>:INFO:Shape of d_train: (16, 2001, 1)
2021-04-06 19:15:59,623:<module>:INFO:Net(
  (acti): LeakyReLU(negative_slope=0.01)
  (layer1): Linear(in_features=3, out_features=256, bias=True)
  (layer3): Linear(in_features=256, out_features=3, bias=True)
)
2021-04-06 19:16:14,226:<module>:INFO:
 ----------------------- Starting of new script ----------------------- 

2021-04-06 19:16:14,235:<module>:INFO:Shape of d_train: (16, 2001, 1)
2021-04-06 19:16:14,253:<module>:INFO:Net(
  (acti): LeakyReLU(negative_slope=0.01)
  (layer1): Linear(in_features=3, out_features=256, bias=True)
  (layer3): Linear(in_features=256, out_features=3, bias=True)
)
2021-04-06 19:16:50,756:<module>:INFO:
 ----------------------- Starting of new script ----------------------- 

2021-04-06 19:16:50,765:<module>:INFO:Shape of d_train: (16, 2001, 1)
2021-04-06 19:16:50,782:<module>:INFO:CreationRNN(
  (rnn): GRU(1, 6, batch_first=True)
  (o2o): Linear(in_features=6, out_features=3, bias=True)
)
2021-04-06 19:16:50,782:<module>:INFO:Net(
  (acti): LeakyReLU(negative_slope=0.01)
  (layer1): Linear(in_features=3, out_features=256, bias=True)
  (layer3): Linear(in_features=256, out_features=3, bias=True)
)
2021-04-06 19:16:50,782:<module>:INFO:(2001, 1)
2021-04-06 19:17:09,831:<module>:INFO:
 ----------------------- Starting of new script ----------------------- 

2021-04-06 19:17:09,840:<module>:INFO:Shape of d_train: (16, 2001, 1)
2021-04-06 19:17:09,858:<module>:INFO:CreationRNN(
  (rnn): GRU(1, 6, batch_first=True)
  (o2o): Linear(in_features=6, out_features=3, bias=True)
)
2021-04-06 19:17:09,858:<module>:INFO:Net(
  (acti): LeakyReLU(negative_slope=0.01)
  (layer1): Linear(in_features=3, out_features=256, bias=True)
  (layer3): Linear(in_features=256, out_features=3, bias=True)
)
2021-04-06 19:17:09,858:<module>:INFO:(2001, 1)
2021-04-06 19:17:35,958:<module>:INFO:
 ----------------------- Starting of new script ----------------------- 

2021-04-06 19:17:35,968:<module>:INFO:Shape of d_train: (16, 2001, 1)
2021-04-06 19:17:35,987:<module>:INFO:CreationRNN(
  (rnn): GRU(1, 6, batch_first=True)
  (o2o): Linear(in_features=6, out_features=3, bias=True)
)
2021-04-06 19:17:35,987:<module>:INFO:Net(
  (acti): LeakyReLU(negative_slope=0.01)
  (layer1): Linear(in_features=3, out_features=256, bias=True)
  (layer3): Linear(in_features=256, out_features=3, bias=True)
)
2021-04-06 19:17:35,987:<module>:INFO:(2001, 1)
2021-04-06 19:17:58,803:<module>:INFO:
 ----------------------- Starting of new script ----------------------- 

2021-04-06 19:17:58,817:<module>:INFO:Shape of d_train: (16, 2001, 1)
2021-04-06 19:17:58,835:<module>:INFO:CreationRNN(
  (rnn): GRU(1, 6, batch_first=True)
  (o2o): Linear(in_features=6, out_features=3, bias=True)
)
2021-04-06 19:17:58,836:<module>:INFO:Net(
  (acti): LeakyReLU(negative_slope=0.01)
  (layer1): Linear(in_features=3, out_features=256, bias=True)
  (layer3): Linear(in_features=256, out_features=3, bias=True)
)
2021-04-06 19:17:58,836:<module>:INFO:(2001, 1)
2021-04-07 08:36:48,040:<module>:INFO:
 ----------------------- Starting of new script ----------------------- 

2021-04-07 08:36:48,061:<module>:INFO:Shape of d_train: (16, 2001, 1)
2021-04-07 08:36:48,085:<module>:INFO:CreationRNN(
  (rnn): GRU(1, 6, batch_first=True)
  (o2o): Linear(in_features=6, out_features=3, bias=True)
)
2021-04-07 08:36:48,086:<module>:INFO:Net(
  (acti): LeakyReLU(negative_slope=0.01)
  (layer1): Linear(in_features=3, out_features=256, bias=True)
  (layer3): Linear(in_features=256, out_features=3, bias=True)
)
2021-04-07 08:36:48,086:<module>:INFO:(2001, 1)
2021-04-07 08:36:57,956:<module>:INFO:
 ----------------------- Starting of new script ----------------------- 

2021-04-07 08:36:57,972:<module>:INFO:Shape of d_train: (16, 2001, 3)
2021-04-07 08:36:58,001:<module>:INFO:Net(
  (acti): LeakyReLU(negative_slope=0.01)
  (layer1): Linear(in_features=3, out_features=256, bias=True)
  (layer2): Linear(in_features=256, out_features=256, bias=True)
  (layer3): Linear(in_features=256, out_features=3, bias=True)
)
2021-04-07 08:37:01,649:z1test:WARNING:Warning: data is probably oversampled.
2021-04-07 08:37:01,649:z1test:WARNING:Use coarser sampling or reduce the maximum value of c.
2021-04-07 08:37:01,724:z1test:WARNING:Warning: data is probably oversampled.
2021-04-07 08:37:01,724:z1test:WARNING:Use coarser sampling or reduce the maximum value of c.
2021-04-07 08:37:01,724:<module>:INFO:0-1 test of | real x: None | learnt x: None
…
2021-04-07 10:40:33,857:z1test:WARNING:Use coarser sampling or reduce the maximum value of c.
2021-04-07 10:40:34,157:z1test:WARNING:Warning: data is probably oversampled.
2021-04-07 10:40:34,157:z1test:WARNING:Use coarser sampling or reduce the maximum value of c.
2021-04-07 10:40:34,157:<module>:INFO:            | real z: None | learnt z: None
2021-04-07 10:40:34,157:<module>:INFO:
 REACHED END OF MAIN
2021-04-07 14:20:23,774:<module>:INFO:
 ----------------------- Starting of new script ----------------------- 

2021-04-07 14:20:23,783:<module>:INFO:Shape of d_train: (16, 2001, 1)
2021-04-07 14:20:23,800:<module>:INFO:CreationRNN(
  (rnn): GRU(1, 6, batch_first=True)
  (o2o): Linear(in_features=6, out_features=3, bias=True)
)
2021-04-07 14:20:23,800:<module>:INFO:Net(
  (acti): LeakyReLU(negative_slope=0.01)
  (layer1): Linear(in_features=3, out_features=256, bias=True)
  (layer3): Linear(in_features=256, out_features=3, bias=True)
)
2021-04-07 14:20:23,801:<module>:INFO:(2001, 1)
2021-04-07 14:21:07,682:<module>:INFO:
 ----------------------- Starting of new script ----------------------- 

2021-04-07 14:21:07,691:<module>:INFO:Shape of d_train: (16, 2001, 1)
2021-04-07 14:21:07,708:<module>:INFO:CreationRNN(
  (rnn): GRU(1, 6, batch_first=True)
  (o2o): Linear(in_features=6, out_features=3, bias=True)
)
2021-04-07 14:21:07,708:<module>:INFO:Net(
  (acti): LeakyReLU(negative_slope=0.01)
  (layer1): Linear(in_features=3, out_features=256, bias=True)
  (layer3): Linear(in_features=256, out_features=3, bias=True)
)
2021-04-07 14:21:07,709:<module>:INFO:(2001, 1)
2021-04-07 14:22:07,562:<module>:INFO:
 ----------------------- Starting of new script ----------------------- 

2021-04-07 14:22:07,571:<module>:INFO:Shape of d_train: (16, 2001, 1)
2021-04-07 14:22:07,587:<module>:INFO:CreationRNN(
  (rnn): GRU(1, 6, batch_first=True)
  (o2o): Linear(in_features=6, out_features=3, bias=True)
)
2021-04-07 14:22:07,587:<module>:INFO:Net(
  (acti): LeakyReLU(negative_slope=0.01)
  (layer1): Linear(in_features=3, out_features=256, bias=True)
  (layer3): Linear(in_features=256, out_features=3, bias=True)
)
2021-04-07 14:22:07,587:<module>:INFO:(2001, 1)
2021-04-07 14:32:28,416:<module>:INFO:
 ----------------------- Starting of new script ----------------------- 

2021-04-07 14:32:28,426:<module>:INFO:Shape of d_train: (16, 2001, 3)
2021-04-07 14:32:28,447:<module>:INFO:Net(
  (acti): LeakyReLU(negative_slope=0.01)
  (layer1): Linear(in_features=3, out_features=256, bias=True)
  (layer2): Linear(in_features=256, out_features=256, bias=True)
  (layer3): Linear(in_features=256, out_features=3, bias=True)
)
2021-04-07 14:32:39,834:z1test:WARNING:Warning: data is probably oversampled.
2021-04-07 14:32:39,835:z1test:WARNING:Use coarser sampling or reduce the maximum value of c.
2021-04-07 14:32:40,157:z1test:WARNING:Warning: data is probably oversampled.
2021-04-07 14:32:40,157:z1test:WARNING:Use coarser sampling or reduce the maximum value of c.
2021-04-07 14:32:40,157:<module>:INFO:0-1 test of | real x: None | learnt x: None
…
2021-04-07 14:34:50,547:z1test:WARNING:Use coarser sampling or reduce the maximum value of c.
2021-04-07 14:34:50,622:z1test:WARNING:Warning: data is probably oversampled.
2021-04-07 14:34:50,622:z1test:WARNING:Use coarser sampling or reduce the maximum value of c.
2021-04-07 14:34:50,622:<module>:INFO:            | real z: None | learnt z: None
2021-04-07 14:34:50,622:<module>:INFO:
 REACHED END OF MAIN
2021-04-07 14:35:19,007:<module>:INFO:
 ----------------------- Starting of new script ----------------------- 

2021-04-07 14:35:19,018:<module>:INFO:Shape of d_train: (16, 2001, 3)
2021-04-07 14:35:19,038:<module>:INFO:Net(
  (acti): LeakyReLU(negative_slope=0.01)
  (layer1): Linear(in_features=3, out_features=256, bias=True)
  (layer2): Linear(in_features=256, out_features=256, bias=True)
  (layer3): Linear(in_features=256, out_features=3, bias=True)
)
2021-04-07 14:35:38,296:<module>:INFO:
 ----------------------- Starting of new script ----------------------- 

2021-04-07 14:35:38,307:<module>:INFO:Shape of d_train: (16, 2001, 3)
2021-04-07 14:35:38,329:<module>:INFO:Net(
  (acti): LeakyReLU(negative_slope=0.01)
  (layer1): Linear(in_features=3, out_features=256, bias=True)
  (layer2): Linear(in_features=256, out_features=256, bias=True)
  (layer3): Linear(in_features=256, out_features=3, bias=True)
)
2021-04-07 14:35:38,384:<module>:INFO:
STARTING TO TRAIN MODEL | EPOCHS : 100 | lr: 0.01 | n_of_batches: 8 | lookahead: 2
2021-04-07 14:36:29,033:<module>:INFO:
 ----------------------- Starting of new script ----------------------- 

2021-04-07 14:36:29,044:<module>:INFO:Shape of d_train: (16, 2001, 3)
2021-04-07 14:36:29,065:<module>:INFO:Net(
  (acti): LeakyReLU(negative_slope=0.01)
  (layer1): Linear(in_features=3, out_features=256, bias=True)
  (layer2): Linear(in_features=256, out_features=256, bias=True)
  (layer3): Linear(in_features=256, out_features=3, bias=True)
)
2021-04-07 14:36:29,118:<module>:INFO:
STARTING TO TRAIN MODEL | EPOCHS : 100 | lr: 0.01 | n_of_batches: 8 | lookahead: 2
2021-04-07 14:37:48,706:<module>:INFO:
 ----------------------- Starting of new script ----------------------- 

2021-04-07 14:37:48,716:<module>:INFO:Shape of d_train: (16, 2001, 3)
2021-04-07 14:37:48,735:<module>:INFO:Net(
  (acti): LeakyReLU(negative_slope=0.01)
  (layer1): Linear(in_features=3, out_features=256, bias=True)
  (layer2): Linear(in_features=256, out_features=256, bias=True)
  (layer3): Linear(in_features=256, out_features=3, bias=True)
)
2021-04-07 14:37:48,785:<module>:INFO:
STARTING TO TRAIN MODEL | EPOCHS : 100 | lr: 0.01 | n_of_batches: 8 | lookahead: 2
2021-04-07 14:39:32,743:<module>:INFO:
 ----------------------- Starting of new script ----------------------- 

2021-04-07 14:39:32,754:<module>:INFO:Shape of d_train: (16, 2001, 3)
2021-04-07 14:39:32,773:<module>:INFO:Net(
  (acti): LeakyReLU(negative_slope=0.01)
  (layer1): Linear(in_features=3, out_features=256, bias=True)
  (layer2): Linear(in_features=256, out_features=256, bias=True)
  (layer3): Linear(in_features=256, out_features=3, bias=True)
)
2021-04-07 14:39:32,823:<module>:INFO:
STARTING TO TRAIN MODEL | EPOCHS : 100 | lr: 0.01 | n_of_batches: 8 | lookahead: 2
2021-04-07 14:39:53,963:<module>:INFO:
 ----------------------- Starting of new script ----------------------- 

2021-04-07 14:39:53,975:<module>:INFO:Shape of d_train: (16, 2001, 3)
2021-04-07 14:39:53,996:<module>:INFO:Net(
  (acti): LeakyReLU(negative_slope=0.01)
  (layer1): Linear(in_features=3, out_features=256, bias=True)
  (layer2): Linear(in_features=256, out_features=256, bias=True)
  (layer3): Linear(in_features=256, out_features=3, bias=True)
)
2021-04-07 14:39:54,050:<module>:INFO:
STARTING TO TRAIN MODEL | EPOCHS : 100 | lr: 0.01 | n_of_batches: 8 | lookahead: 2
2021-04-07 14:41:24,051:<module>:INFO:
 ----------------------- Starting of new script ----------------------- 

2021-04-07 14:41:24,063:<module>:INFO:Shape of d_train: (16, 2001, 3)
2021-04-07 14:41:24,087:<module>:INFO:Net(
  (acti): LeakyReLU(negative_slope=0.01)
  (layer1): Linear(in_features=3, out_features=256, bias=True)
  (layer2): Linear(in_features=256, out_features=256, bias=True)
  (layer3): Linear(in_features=256, out_features=3, bias=True)
)
2021-04-07 14:41:24,143:<module>:INFO:
STARTING TO TRAIN MODEL | EPOCHS : 100 | lr: 0.01 | n_of_batches: 8 | lookahead: 2
2021-04-07 14:43:59,042:<module>:INFO:
 ----------------------- Starting of new script ----------------------- 

2021-04-07 14:43:59,055:<module>:INFO:Shape of d_train: (16, 2001, 3)
2021-04-07 14:43:59,077:<module>:INFO:Net(
  (acti): LeakyReLU(negative_slope=0.01)
  (layer1): Linear(in_features=3, out_features=256, bias=True)
  (layer2): Linear(in_features=256, out_features=256, bias=True)
  (layer3): Linear(in_features=256, out_features=3, bias=True)
)
2021-04-07 14:44:22,836:<module>:INFO:
 ----------------------- Starting of new script ----------------------- 

2021-04-07 14:44:22,848:<module>:INFO:Shape of d_train: (16, 2001, 3)
2021-04-07 14:44:22,868:<module>:INFO:Net(
  (acti): LeakyReLU(negative_slope=0.01)
  (layer1): Linear(in_features=3, out_features=256, bias=True)
  (layer2): Linear(in_features=256, out_features=256, bias=True)
  (layer3): Linear(in_features=256, out_features=3, bias=True)
)
2021-04-07 14:44:22,893:<module>:INFO:
STARTING TO TRAIN MODEL | EPOCHS : 100 | lr: 0.01 | n_of_batches: 8 | lookahead: 2
2021-04-07 14:45:38,762:<module>:INFO:
 ----------------------- Starting of new script ----------------------- 

2021-04-07 14:45:38,773:<module>:INFO:Shape of d_train: (16, 2001, 3)
2021-04-07 14:45:38,796:<module>:INFO:Net(
  (acti): LeakyReLU(negative_slope=0.01)
  (layer1): Linear(in_features=3, out_features=256, bias=True)
  (layer2): Linear(in_features=256, out_features=256, bias=True)
  (layer3): Linear(in_features=256, out_features=3, bias=True)
)
2021-04-07 14:45:38,823:<module>:INFO:
STARTING TO TRAIN MODEL | EPOCHS : 100 | lr: 0.01 | n_of_batches: 8 | lookahead: 2
2021-04-07 14:46:42,098:<module>:INFO:
 ----------------------- Starting of new script ----------------------- 

2021-04-07 14:46:42,111:<module>:INFO:Shape of d_train: (16, 2001, 3)
2021-04-07 14:46:42,132:<module>:INFO:Net(
  (acti): LeakyReLU(negative_slope=0.01)
  (layer1): Linear(in_features=3, out_features=256, bias=True)
  (layer2): Linear(in_features=256, out_features=256, bias=True)
  (layer3): Linear(in_features=256, out_features=3, bias=True)
)
2021-04-07 14:46:42,185:<module>:INFO:
STARTING TO TRAIN MODEL | EPOCHS : 100 | lr: 0.01 | n_of_batches: 8 | lookahead: 2
2021-04-07 14:47:22,183:<module>:INFO:
 ----------------------- Starting of new script ----------------------- 

2021-04-07 14:47:22,194:<module>:INFO:Shape of d_train: (16, 2001, 3)
2021-04-07 14:47:22,219:<module>:INFO:Net(
  (acti): LeakyReLU(negative_slope=0.01)
  (layer1): Linear(in_features=3, out_features=256, bias=True)
  (layer2): Linear(in_features=256, out_features=256, bias=True)
  (layer3): Linear(in_features=256, out_features=3, bias=True)
)
2021-04-07 14:47:22,275:<module>:INFO:
STARTING TO TRAIN MODEL | EPOCHS : 100 | lr: 0.01 | n_of_batches: 8 | lookahead: 2
2021-04-07 14:51:42,485:<module>:INFO:
 ----------------------- Starting of new script ----------------------- 

2021-04-07 14:51:42,496:<module>:INFO:Shape of d_train: (16, 2001, 3)
2021-04-07 14:51:42,518:<module>:INFO:Net(
  (acti): LeakyReLU(negative_slope=0.01)
  (layer1): Linear(in_features=3, out_features=256, bias=True)
  (layer2): Linear(in_features=256, out_features=256, bias=True)
  (layer3): Linear(in_features=256, out_features=3, bias=True)
)
2021-04-07 14:51:42,573:<module>:INFO:
STARTING TO TRAIN MODEL | EPOCHS : 100 | lr: 0.01 | n_of_batches: 8 | lookahead: 3
2021-04-07 14:52:13,163:<module>:INFO:
 ----------------------- Starting of new script ----------------------- 

2021-04-07 14:52:13,175:<module>:INFO:Shape of d_train: (16, 2001, 3)
2021-04-07 14:52:13,199:<module>:INFO:Net(
  (acti): LeakyReLU(negative_slope=0.01)
  (layer1): Linear(in_features=3, out_features=256, bias=True)
  (layer2): Linear(in_features=256, out_features=256, bias=True)
  (layer3): Linear(in_features=256, out_features=3, bias=True)
)
2021-04-07 14:52:13,260:<module>:INFO:
STARTING TO TRAIN MODEL | EPOCHS : 100 | lr: 0.01 | n_of_batches: 8 | lookahead: 2
2021-04-07 14:52:48,273:<module>:INFO:
 ----------------------- Starting of new script ----------------------- 

2021-04-07 14:52:48,284:<module>:INFO:Shape of d_train: (16, 2001, 3)
2021-04-07 14:52:48,305:<module>:INFO:Net(
  (acti): LeakyReLU(negative_slope=0.01)
  (layer1): Linear(in_features=3, out_features=256, bias=True)
  (layer2): Linear(in_features=256, out_features=256, bias=True)
  (layer3): Linear(in_features=256, out_features=3, bias=True)
)
2021-04-07 14:52:48,361:<module>:INFO:
STARTING TO TRAIN MODEL | EPOCHS : 100 | lr: 0.01 | n_of_batches: 8 | lookahead: 2
2021-04-07 14:55:44,062:<module>:INFO:
 ----------------------- Starting of new script ----------------------- 

2021-04-07 14:55:44,072:<module>:INFO:Shape of d_train: (16, 2001, 3)
2021-04-07 14:55:44,094:<module>:INFO:Net(
  (acti): LeakyReLU(negative_slope=0.01)
  (layer1): Linear(in_features=3, out_features=256, bias=True)
  (layer2): Linear(in_features=256, out_features=256, bias=True)
  (layer3): Linear(in_features=256, out_features=3, bias=True)
)
2021-04-07 14:55:44,149:<module>:INFO:
STARTING TO TRAIN MODEL | EPOCHS : 100 | lr: 0.01 | n_of_batches: 8 | lookahead: 2
2021-04-07 14:56:49,707:<module>:INFO:
 ----------------------- Starting of new script ----------------------- 

2021-04-07 14:56:49,718:<module>:INFO:Shape of d_train: (16, 2001, 3)
2021-04-07 14:56:49,738:<module>:INFO:Net(
  (acti): LeakyReLU(negative_slope=0.01)
  (layer1): Linear(in_features=3, out_features=256, bias=True)
  (layer2): Linear(in_features=256, out_features=256, bias=True)
  (layer3): Linear(in_features=256, out_features=3, bias=True)
)
2021-04-07 14:56:49,750:<module>:INFO:
STARTING TO TRAIN MODEL | EPOCHS : 100 | lr: 0.01 | n_of_batches: 1 | lookahead: 2
2021-04-07 14:57:10,095:<module>:INFO:
 ----------------------- Starting of new script ----------------------- 

2021-04-07 14:57:10,106:<module>:INFO:Shape of d_train: (16, 2001, 3)
2021-04-07 14:57:10,128:<module>:INFO:Net(
  (acti): LeakyReLU(negative_slope=0.01)
  (layer1): Linear(in_features=3, out_features=256, bias=True)
  (layer2): Linear(in_features=256, out_features=256, bias=True)
  (layer3): Linear(in_features=256, out_features=3, bias=True)
)
2021-04-07 14:57:10,141:<module>:INFO:
STARTING TO TRAIN MODEL | EPOCHS : 100 | lr: 0.01 | n_of_batches: 1 | lookahead: 2
2021-04-07 14:57:34,109:<module>:INFO:
 ----------------------- Starting of new script ----------------------- 

2021-04-07 14:57:34,119:<module>:INFO:Shape of d_train: (16, 2001, 3)
2021-04-07 14:57:34,140:<module>:INFO:Net(
  (acti): LeakyReLU(negative_slope=0.01)
  (layer1): Linear(in_features=3, out_features=256, bias=True)
  (layer2): Linear(in_features=256, out_features=256, bias=True)
  (layer3): Linear(in_features=256, out_features=3, bias=True)
)
2021-04-07 14:57:34,152:<module>:INFO:
STARTING TO TRAIN MODEL | EPOCHS : 100 | lr: 0.01 | n_of_batches: 1 | lookahead: 2
2021-04-07 14:57:35,528:<module>:INFO:EPOCH 0 finished with training loss: 4.993934154510498 | validation loss: 5.197381973266602 | lr: 0.01 | K: -0.08633359366314809 

2021-04-07 14:57:35,533:save_models:INFO:Stored ckpt at /Users/jan-philippvonbassewitz/Documents/Studium/Semester_6/Bachelor_Thesis/LatentODELorentz/MyNeuralODE/3D_lorenz_prediction/models/3DLorenzmodelmodel0.pth
…
2021-04-07 15:08:06,371:<module>:INFO:EPOCH 30 finished with training loss: 1.9694820642471313 | validation loss: 1.9971336126327515 | lr: 0.01 | K: -0.14941248539561033 

2021-04-07 15:08:06,373:save_models:INFO:Stored ckpt at /Users/jan-philippvonbassewitz/Documents/Studium/Semester_6/Bachelor_Thesis/LatentODELorentz/MyNeuralODE/3D_lorenz_prediction/models/3DLorenzmodelmodel0.pth
2021-04-07 15:09:57,615:<module>:INFO:
 ----------------------- Starting of new script ----------------------- 

2021-04-07 15:09:57,626:<module>:INFO:Shape of d_train: (16, 2001, 1)
2021-04-07 15:09:57,646:<module>:INFO:CreationRNN(
  (rnn): GRU(1, 6, batch_first=True)
  (o2o): Linear(in_features=6, out_features=3, bias=True)
)
2021-04-07 15:09:57,646:<module>:INFO:Net(
  (acti): LeakyReLU(negative_slope=0.01)
  (layer1): Linear(in_features=3, out_features=256, bias=True)
  (layer3): Linear(in_features=256, out_features=3, bias=True)
)
2021-04-07 15:09:57,647:<module>:INFO:(2001, 1)
2021-04-07 15:13:52,112:<module>:INFO:EPOCH 40 finished with training loss: 1.8078229427337646 | validation loss: 1.8633232116699219 | lr: 0.01 | K: 0.0888054893705401 

2021-04-07 15:13:52,115:save_models:INFO:Stored ckpt at /Users/jan-philippvonbassewitz/Documents/Studium/Semester_6/Bachelor_Thesis/LatentODELorentz/MyNeuralODE/3D_lorenz_prediction/models/3DLorenzmodelmodel0.pth
2021-04-07 15:16:53,191:<module>:INFO:
 ----------------------- Starting of new script ----------------------- 

2021-04-07 15:16:53,201:<module>:INFO:Shape of d_train: (16, 2001, 1)
2021-04-07 15:16:53,220:<module>:INFO:CreationRNN(
  (rnn): GRU(1, 6, batch_first=True)
  (o2o): Linear(in_features=6, out_features=3, bias=True)
)
2021-04-07 15:16:53,221:<module>:INFO:Net(
  (acti): LeakyReLU(negative_slope=0.01)
  (layer1): Linear(in_features=3, out_features=256, bias=True)
  (layer3): Linear(in_features=256, out_features=3, bias=True)
)
2021-04-07 15:16:53,221:<module>:INFO:(2001, 1)
2021-04-07 15:18:21,569:<module>:INFO:
 ----------------------- Starting of new script ----------------------- 

2021-04-07 15:18:21,581:<module>:INFO:Shape of d_train: (16, 2001, 1)
2021-04-07 15:18:21,606:<module>:INFO:CreationRNN(
  (rnn): GRU(1, 6, batch_first=True)
  (o2o): Linear(in_features=6, out_features=3, bias=True)
)
2021-04-07 15:18:21,607:<module>:INFO:Net(
  (acti): LeakyReLU(negative_slope=0.01)
  (layer1): Linear(in_features=3, out_features=256, bias=True)
  (layer3): Linear(in_features=256, out_features=3, bias=True)
)
2021-04-07 15:18:21,607:<module>:INFO:(2001, 1)
2021-04-07 15:20:20,223:<module>:INFO:EPOCH 50 finished with training loss: 1.7077674865722656 | validation loss: 1.7690813541412354 | lr: 0.01 | K: 0.4782517983436893 

2021-04-07 15:20:20,225:save_models:INFO:Stored ckpt at /Users/jan-philippvonbassewitz/Documents/Studium/Semester_6/Bachelor_Thesis/LatentODELorentz/MyNeuralODE/3D_lorenz_prediction/models/3DLorenzmodelmodel0.pth
2021-04-07 15:20:51,861:<module>:INFO:
 ----------------------- Starting of new script ----------------------- 

2021-04-07 15:20:51,872:<module>:INFO:Shape of d_train: (16, 2001, 1)
2021-04-07 15:20:51,894:<module>:INFO:CreationRNN(
  (rnn): GRU(1, 6, batch_first=True)
  (o2o): Linear(in_features=6, out_features=3, bias=True)
)
2021-04-07 15:20:51,895:<module>:INFO:Net(
  (acti): LeakyReLU(negative_slope=0.01)
  (layer1): Linear(in_features=3, out_features=256, bias=True)
  (layer3): Linear(in_features=256, out_features=3, bias=True)
)
2021-04-07 15:20:51,895:<module>:INFO:(2001, 1)
2021-04-07 15:21:56,077:<module>:INFO:
 ----------------------- Starting of new script ----------------------- 

2021-04-07 15:21:56,088:<module>:INFO:Shape of d_train: (16, 2001, 1)
2021-04-07 15:21:56,110:<module>:INFO:CreationRNN(
  (rnn): GRU(1, 6, batch_first=True)
  (o2o): Linear(in_features=6, out_features=3, bias=True)
)
2021-04-07 15:21:56,110:<module>:INFO:Net(
  (acti): LeakyReLU(negative_slope=0.01)
  (layer1): Linear(in_features=3, out_features=256, bias=True)
  (layer3): Linear(in_features=256, out_features=3, bias=True)
)
2021-04-07 15:21:56,110:<module>:INFO:(2001, 1)
2021-04-07 15:23:24,717:<module>:INFO:
 ----------------------- Starting of new script ----------------------- 

2021-04-07 15:23:24,727:<module>:INFO:Shape of d_train: (16, 2001, 1)
2021-04-07 15:23:24,746:<module>:INFO:CreationRNN(
  (rnn): GRU(1, 6, batch_first=True)
  (o2o): Linear(in_features=6, out_features=3, bias=True)
)
2021-04-07 15:23:24,746:<module>:INFO:Net(
  (acti): LeakyReLU(negative_slope=0.01)
  (layer1): Linear(in_features=3, out_features=256, bias=True)
  (layer3): Linear(in_features=256, out_features=3, bias=True)
)
2021-04-07 15:23:24,747:<module>:INFO:(2001, 1)
2021-04-07 15:24:47,894:<module>:INFO:
 ----------------------- Starting of new script ----------------------- 

2021-04-07 15:24:47,905:<module>:INFO:Shape of d_train: (16, 2001, 1)
2021-04-07 15:24:47,924:<module>:INFO:CreationRNN(
  (rnn): GRU(1, 6, batch_first=True)
  (o2o): Linear(in_features=6, out_features=3, bias=True)
)
2021-04-07 15:24:47,925:<module>:INFO:Net(
  (acti): LeakyReLU(negative_slope=0.01)
  (layer1): Linear(in_features=3, out_features=256, bias=True)
  (layer3): Linear(in_features=256, out_features=3, bias=True)
)
2021-04-07 15:24:47,925:<module>:INFO:(2001, 1)
2021-04-07 15:24:47,926:split_sequence:WARNING:histories.shape: (506, 7, 1), max_blocks: 512
2021-04-07 15:25:54,577:<module>:INFO:
 ----------------------- Starting of new script ----------------------- 

2021-04-07 15:25:54,588:<module>:INFO:Shape of d_train: (16, 2001, 1)
2021-04-07 15:25:54,608:<module>:INFO:CreationRNN(
  (rnn): GRU(1, 6, batch_first=True)
  (o2o): Linear(in_features=6, out_features=3, bias=True)
)
2021-04-07 15:25:54,608:<module>:INFO:Net(
  (acti): LeakyReLU(negative_slope=0.01)
  (layer1): Linear(in_features=3, out_features=256, bias=True)
  (layer3): Linear(in_features=256, out_features=3, bias=True)
)
2021-04-07 15:25:54,608:<module>:INFO:(2001, 1)
2021-04-07 15:27:19,593:<module>:INFO:EPOCH 60 finished with training loss: 1.6008615493774414 | validation loss: 1.6519020795822144 | lr: 0.01 | K: 0.6325203502485377 

2021-04-07 15:27:19,595:save_models:INFO:Stored ckpt at /Users/jan-philippvonbassewitz/Documents/Studium/Semester_6/Bachelor_Thesis/LatentODELorentz/MyNeuralODE/3D_lorenz_prediction/models/3DLorenzmodelmodel0.pth
2021-04-07 15:27:53,944:<module>:INFO:
 ----------------------- Starting of new script ----------------------- 

2021-04-07 15:27:53,954:<module>:INFO:Shape of d_train: (16, 2001, 1)
2021-04-07 15:27:53,973:<module>:INFO:CreationRNN(
  (rnn): GRU(1, 6, batch_first=True)
  (o2o): Linear(in_features=6, out_features=3, bias=True)
)
2021-04-07 15:27:53,974:<module>:INFO:Net(
  (acti): LeakyReLU(negative_slope=0.01)
  (layer1): Linear(in_features=3, out_features=256, bias=True)
  (layer3): Linear(in_features=256, out_features=3, bias=True)
)
2021-04-07 15:27:53,974:<module>:INFO:(2001, 1)
2021-04-07 15:28:11,351:<module>:INFO:
 ----------------------- Starting of new script ----------------------- 

2021-04-07 15:28:11,363:<module>:INFO:Shape of d_train: (16, 2001, 1)
2021-04-07 15:28:11,384:<module>:INFO:CreationRNN(
  (rnn): GRU(1, 6, batch_first=True)
  (o2o): Linear(in_features=6, out_features=3, bias=True)
)
2021-04-07 15:28:11,384:<module>:INFO:Net(
  (acti): LeakyReLU(negative_slope=0.01)
  (layer1): Linear(in_features=3, out_features=256, bias=True)
  (layer3): Linear(in_features=256, out_features=3, bias=True)
)
2021-04-07 15:28:11,384:<module>:INFO:(2001, 1)
2021-04-07 15:29:40,629:<module>:INFO:
 ----------------------- Starting of new script ----------------------- 

2021-04-07 15:29:40,640:<module>:INFO:Shape of d_train: (16, 2001, 1)
2021-04-07 15:29:40,659:<module>:INFO:CreationRNN(
  (rnn): GRU(1, 6, batch_first=True)
  (o2o): Linear(in_features=6, out_features=3, bias=True)
)
2021-04-07 15:29:40,659:<module>:INFO:Net(
  (acti): LeakyReLU(negative_slope=0.01)
  (layer1): Linear(in_features=3, out_features=256, bias=True)
  (layer3): Linear(in_features=256, out_features=3, bias=True)
)
2021-04-07 15:29:40,660:<module>:INFO:(2001, 1)
2021-04-07 15:34:20,506:<module>:INFO:EPOCH 70 finished with training loss: 1.5057406425476074 | validation loss: 1.553117275238037 | lr: 0.01 | K: -0.14203120615652717 

2021-04-07 15:34:20,509:save_models:INFO:Stored ckpt at /Users/jan-philippvonbassewitz/Documents/Studium/Semester_6/Bachelor_Thesis/LatentODELorentz/MyNeuralODE/3D_lorenz_prediction/models/3DLorenzmodelmodel0.pth
2021-04-07 15:40:53,224:<module>:INFO:EPOCH 80 finished with training loss: 1.437859296798706 | validation loss: 1.5204553604125977 | lr: 0.01 | K: 0.33209130017816635 

2021-04-07 15:40:53,227:save_models:INFO:Stored ckpt at /Users/jan-philippvonbassewitz/Documents/Studium/Semester_6/Bachelor_Thesis/LatentODELorentz/MyNeuralODE/3D_lorenz_prediction/models/3DLorenzmodelmodel0.pth
2021-04-07 15:41:00,592:<module>:INFO:
 ----------------------- Starting of new script ----------------------- 

2021-04-07 15:41:00,603:<module>:INFO:Shape of d_train: (16, 2001, 1)
2021-04-07 15:41:00,623:<module>:INFO:CreationRNN(
  (rnn): GRU(1, 6, batch_first=True)
  (o2o): Linear(in_features=6, out_features=3, bias=True)
)
2021-04-07 15:41:00,623:<module>:INFO:Net(
  (acti): LeakyReLU(negative_slope=0.01)
  (layer1): Linear(in_features=3, out_features=256, bias=True)
  (layer3): Linear(in_features=256, out_features=3, bias=True)
)
2021-04-07 15:41:00,623:<module>:INFO:(2001, 1)
2021-04-07 15:45:49,888:<module>:INFO:
 ----------------------- Starting of new script ----------------------- 

2021-04-07 15:45:49,901:<module>:INFO:Shape of d_train: (16, 2001, 1)
2021-04-07 15:45:49,925:<module>:INFO:CreationRNN(
  (rnn): GRU(1, 6, batch_first=True)
  (o2o): Linear(in_features=6, out_features=3, bias=True)
)
2021-04-07 15:45:49,926:<module>:INFO:Net(
  (acti): LeakyReLU(negative_slope=0.01)
  (layer1): Linear(in_features=3, out_features=256, bias=True)
  (layer3): Linear(in_features=256, out_features=3, bias=True)
)
2021-04-07 15:45:49,926:<module>:INFO:(2001, 1)
2021-04-07 15:46:28,763:<module>:INFO:
 ----------------------- Starting of new script ----------------------- 

2021-04-07 15:46:28,775:<module>:INFO:Shape of d_train: (16, 2001, 1)
2021-04-07 15:46:28,795:<module>:INFO:CreationRNN(
  (rnn): GRU(1, 6, batch_first=True)
  (o2o): Linear(in_features=6, out_features=3, bias=True)
)
2021-04-07 15:46:28,795:<module>:INFO:Net(
  (acti): LeakyReLU(negative_slope=0.01)
  (layer1): Linear(in_features=3, out_features=256, bias=True)
  (layer3): Linear(in_features=256, out_features=3, bias=True)
)
2021-04-07 15:46:28,795:<module>:INFO:(2001, 1)
2021-04-07 15:47:22,998:<module>:INFO:EPOCH 90 finished with training loss: 1.3558121919631958 | validation loss: 1.4082211256027222 | lr: 0.01 | K: 0.24758336164992825 

2021-04-07 15:47:23,000:save_models:INFO:Stored ckpt at /Users/jan-philippvonbassewitz/Documents/Studium/Semester_6/Bachelor_Thesis/LatentODELorentz/MyNeuralODE/3D_lorenz_prediction/models/3DLorenzmodelmodel0.pth
…
2021-04-07 15:53:41,262:z1test:WARNING:Use coarser sampling or reduce the maximum value of c.
2021-04-07 15:53:41,335:z1test:WARNING:Warning: data is probably oversampled.
2021-04-07 15:53:41,335:z1test:WARNING:Use coarser sampling or reduce the maximum value of c.
2021-04-07 15:53:41,335:<module>:INFO:            | real z: None | learnt z: None
2021-04-07 15:53:41,335:<module>:INFO:
 REACHED END OF MAIN
2021-04-07 16:27:10,183:<module>:INFO:
 ----------------------- Starting of new script ----------------------- 

2021-04-07 16:27:10,193:<module>:INFO:Shape of d_train: (16, 2001, 1)
2021-04-07 16:27:10,210:<module>:INFO:CreationRNN(
  (rnn): GRU(1, 6, batch_first=True)
  (o2o): Linear(in_features=6, out_features=3, bias=True)
)
2021-04-07 16:27:10,210:<module>:INFO:Net(
  (acti): LeakyReLU(negative_slope=0.01)
  (layer1): Linear(in_features=3, out_features=256, bias=True)
  (layer3): Linear(in_features=256, out_features=3, bias=True)
)
2021-04-07 16:27:10,210:<module>:INFO:(2001, 1)
2021-04-07 16:32:15,299:<module>:INFO:
 ----------------------- Starting of new script ----------------------- 

2021-04-07 16:32:15,308:<module>:INFO:Shape of d_train: (16, 2001, 1)
2021-04-07 16:32:15,324:<module>:INFO:CreationRNN(
  (rnn): GRU(1, 6, batch_first=True)
  (o2o): Linear(in_features=6, out_features=3, bias=True)
)
2021-04-07 16:32:15,325:<module>:INFO:Net(
  (acti): LeakyReLU(negative_slope=0.01)
  (layer1): Linear(in_features=3, out_features=256, bias=True)
  (layer3): Linear(in_features=256, out_features=3, bias=True)
)
2021-04-07 16:32:15,325:<module>:INFO:(2001, 1)
2021-04-07 16:32:37,068:<module>:INFO:
 ----------------------- Starting of new script ----------------------- 

2021-04-07 16:32:37,077:<module>:INFO:Shape of d_train: (16, 2001, 1)
2021-04-07 16:32:37,095:<module>:INFO:CreationRNN(
  (rnn): GRU(1, 6, batch_first=True)
  (o2o): Linear(in_features=6, out_features=3, bias=True)
)
2021-04-07 16:32:37,096:<module>:INFO:Net(
  (acti): LeakyReLU(negative_slope=0.01)
  (layer1): Linear(in_features=3, out_features=256, bias=True)
  (layer3): Linear(in_features=256, out_features=3, bias=True)
)
2021-04-07 16:32:37,096:<module>:INFO:(2001, 1)
2021-04-07 16:32:43,042:<module>:INFO:
 ----------------------- Starting of new script ----------------------- 

2021-04-07 16:32:43,052:<module>:INFO:Shape of d_train: (16, 2001, 1)
2021-04-07 16:32:43,073:<module>:INFO:CreationRNN(
  (rnn): GRU(1, 6, batch_first=True)
  (o2o): Linear(in_features=6, out_features=3, bias=True)
)
2021-04-07 16:32:43,073:<module>:INFO:Net(
  (acti): LeakyReLU(negative_slope=0.01)
  (layer1): Linear(in_features=3, out_features=256, bias=True)
  (layer3): Linear(in_features=256, out_features=3, bias=True)
)
2021-04-07 16:32:43,073:<module>:INFO:(2001, 1)
2021-04-07 16:38:47,777:<module>:INFO:
 ----------------------- Starting of new script ----------------------- 

2021-04-07 16:38:47,786:<module>:INFO:Shape of d_train: (16, 2001, 1)
2021-04-07 16:38:47,806:<module>:INFO:CreationRNN(
  (rnn): GRU(1, 6, batch_first=True)
  (o2o): Linear(in_features=6, out_features=3, bias=True)
)
2021-04-07 16:38:47,806:<module>:INFO:Net(
  (acti): LeakyReLU(negative_slope=0.01)
  (layer1): Linear(in_features=3, out_features=256, bias=True)
  (layer3): Linear(in_features=256, out_features=3, bias=True)
)
2021-04-07 16:38:47,806:<module>:INFO:(2001, 1)
2021-04-07 16:39:39,875:<module>:INFO:
 ----------------------- Starting of new script ----------------------- 

2021-04-07 16:39:39,885:<module>:INFO:Shape of d_train: (16, 2001, 1)
2021-04-07 16:39:39,902:<module>:INFO:CreationRNN(
  (rnn): GRU(1, 6, batch_first=True)
  (o2o): Linear(in_features=6, out_features=3, bias=True)
)
2021-04-07 16:39:39,902:<module>:INFO:Net(
  (acti): LeakyReLU(negative_slope=0.01)
  (layer1): Linear(in_features=3, out_features=256, bias=True)
  (layer3): Linear(in_features=256, out_features=3, bias=True)
)
2021-04-07 16:39:39,902:<module>:INFO:(2001, 1)
2021-04-07 16:40:21,919:<module>:INFO:
 ----------------------- Starting of new script ----------------------- 

2021-04-07 16:40:21,929:<module>:INFO:Shape of d_train: (16, 2001, 1)
2021-04-07 16:40:21,946:<module>:INFO:CreationRNN(
  (rnn): GRU(1, 6, batch_first=True)
  (o2o): Linear(in_features=6, out_features=3, bias=True)
)
2021-04-07 16:40:21,946:<module>:INFO:Net(
  (acti): LeakyReLU(negative_slope=0.01)
  (layer1): Linear(in_features=3, out_features=256, bias=True)
  (layer3): Linear(in_features=256, out_features=3, bias=True)
)
2021-04-07 16:40:21,946:<module>:INFO:(2001, 1)
2021-04-07 16:44:08,353:<module>:INFO:
 ----------------------- Starting of new script ----------------------- 

2021-04-07 16:44:08,362:<module>:INFO:Shape of d_train: (16, 2001, 1)
2021-04-07 16:44:08,380:<module>:INFO:CreationRNN(
  (rnn): GRU(1, 6, batch_first=True)
  (o2o): Linear(in_features=6, out_features=3, bias=True)
)
2021-04-07 16:44:08,380:<module>:INFO:Net(
  (acti): LeakyReLU(negative_slope=0.01)
  (layer1): Linear(in_features=3, out_features=256, bias=True)
  (layer3): Linear(in_features=256, out_features=3, bias=True)
)
2021-04-07 16:44:08,381:<module>:INFO:(2001, 1)
2021-04-07 16:44:08,487:<module>:INFO:EPOCH 0 finished with training loss: 1.1779561042785645 | lr: 0.01 

2021-04-07 16:44:09,636:<module>:INFO:EPOCH 10 finished with training loss: 1.178005337715149 | lr: 0.01 

2021-04-07 16:44:10,779:<module>:INFO:EPOCH 20 finished with training loss: 1.1779510974884033 | lr: 0.01 
…
2021-04-07 16:45:24,515:<module>:INFO:EPOCH 460 finished with training loss: 1.1783779859542847 | lr: 0.01 

2021-04-07 16:45:25,472:<module>:INFO:EPOCH 470 finished with training loss: 1.1783784627914429 | lr: 0.01 

2021-04-07 16:45:26,473:<module>:INFO:EPOCH 480 finished with training loss: 1.1783778667449951 | lr: 0.01 

2021-04-07 16:45:39,439:<module>:INFO:
 ----------------------- Starting of new script ----------------------- 

2021-04-07 16:45:39,449:<module>:INFO:Shape of d_train: (16, 2001, 1)
2021-04-07 16:45:39,467:<module>:INFO:CreationRNN(
  (rnn): GRU(1, 6, batch_first=True)
  (o2o): Linear(in_features=6, out_features=3, bias=True)
)
2021-04-07 16:45:39,468:<module>:INFO:Net(
  (acti): LeakyReLU(negative_slope=0.01)
  (layer1): Linear(in_features=3, out_features=256, bias=True)
  (layer3): Linear(in_features=256, out_features=3, bias=True)
)
2021-04-07 16:45:39,468:<module>:INFO:(2001, 1)
2021-04-07 16:45:58,404:<module>:INFO:
 ----------------------- Starting of new script ----------------------- 

2021-04-07 16:45:58,413:<module>:INFO:Shape of d_train: (16, 2001, 1)
2021-04-07 16:45:58,429:<module>:INFO:CreationRNN(
  (rnn): GRU(1, 6, batch_first=True)
  (o2o): Linear(in_features=6, out_features=3, bias=True)
)
2021-04-07 16:45:58,429:<module>:INFO:Net(
  (acti): LeakyReLU(negative_slope=0.01)
  (layer1): Linear(in_features=3, out_features=256, bias=True)
  (layer3): Linear(in_features=256, out_features=3, bias=True)
)
2021-04-07 16:45:58,429:<module>:INFO:(2001, 1)
2021-04-07 16:45:58,447:<module>:INFO:EPOCH 0 finished with training loss: 1.1634474992752075 | lr: 0.01 

2021-04-07 16:45:58,610:<module>:INFO:EPOCH 10 finished with training loss: 1.1563459634780884 | lr: 0.01 

2021-04-07 16:45:58,759:<module>:INFO:EPOCH 20 finished with training loss: 1.1402322053909302 | lr: 0.01 
…
2021-04-07 17:04:24,329:<module>:INFO:EPOCH 990 finished with training loss: 0.6854804158210754 | lr: 0.001 

2021-04-07 17:04:26,197:save_models:INFO:Stored ckpt at /Users/jan-philippvonbassewitz/Documents/Studium/Semester_6/Bachelor_Thesis/LatentODELorentz/MyNeuralODE/1D_lorenz_prediction/models/3DLorenzmodelmodel1.pth
2021-04-07 17:08:38,320:<module>:INFO:
 ----------------------- Starting of new script ----------------------- 

2021-04-07 17:08:38,334:<module>:INFO:Shape of d_train: (16, 2001, 1)
2021-04-07 17:08:38,360:<module>:INFO:CreationRNN(
  (rnn): GRU(1, 6, batch_first=True)
  (o2o): Linear(in_features=6, out_features=3, bias=True)
)
2021-04-07 17:08:38,360:<module>:INFO:Net(
  (acti): LeakyReLU(negative_slope=0.01)
  (layer1): Linear(in_features=3, out_features=256, bias=True)
  (layer3): Linear(in_features=256, out_features=3, bias=True)
)
2021-04-07 17:09:07,586:<module>:INFO:
 ----------------------- Starting of new script ----------------------- 

2021-04-07 17:09:07,595:<module>:INFO:Shape of d_train: (16, 2001, 1)
2021-04-07 17:09:07,612:<module>:INFO:CreationRNN(
  (rnn): GRU(1, 6, batch_first=True)
  (o2o): Linear(in_features=6, out_features=3, bias=True)
)
2021-04-07 17:09:07,612:<module>:INFO:Net(
  (acti): LeakyReLU(negative_slope=0.01)
  (layer1): Linear(in_features=3, out_features=256, bias=True)
  (layer3): Linear(in_features=256, out_features=3, bias=True)
)
2021-04-07 17:09:45,236:<module>:INFO:
 ----------------------- Starting of new script ----------------------- 

2021-04-07 17:09:45,245:<module>:INFO:Shape of d_train: (16, 2001, 1)
2021-04-07 17:09:45,261:<module>:INFO:CreationRNN(
  (rnn): GRU(1, 6, batch_first=True)
  (o2o): Linear(in_features=6, out_features=3, bias=True)
)
2021-04-07 17:09:45,262:<module>:INFO:Net(
  (acti): LeakyReLU(negative_slope=0.01)
  (layer1): Linear(in_features=3, out_features=256, bias=True)
  (layer3): Linear(in_features=256, out_features=3, bias=True)
)
2021-04-07 17:11:55,851:<module>:INFO:
 ----------------------- Starting of new script ----------------------- 

2021-04-07 17:11:55,862:<module>:INFO:Shape of d_train: (16, 2001, 1)
2021-04-07 17:11:55,880:<module>:INFO:CreationRNN(
  (rnn): GRU(1, 6, batch_first=True)
  (o2o): Linear(in_features=6, out_features=3, bias=True)
)
2021-04-07 17:11:55,880:<module>:INFO:Net(
  (acti): LeakyReLU(negative_slope=0.01)
  (layer1): Linear(in_features=3, out_features=256, bias=True)
  (layer3): Linear(in_features=256, out_features=3, bias=True)
)
2021-04-07 17:12:02,494:<module>:INFO:
 ----------------------- Starting of new script ----------------------- 

2021-04-07 17:12:02,504:<module>:INFO:Shape of d_train: (16, 2001, 1)
2021-04-07 17:12:02,521:<module>:INFO:CreationRNN(
  (rnn): GRU(1, 6, batch_first=True)
  (o2o): Linear(in_features=6, out_features=3, bias=True)
)
2021-04-07 17:12:02,521:<module>:INFO:Net(
  (acti): LeakyReLU(negative_slope=0.01)
  (layer1): Linear(in_features=3, out_features=256, bias=True)
  (layer3): Linear(in_features=256, out_features=3, bias=True)
)
2021-04-07 17:12:02,522:<module>:INFO:(2001, 1)
2021-04-07 17:12:02,684:<module>:INFO:EPOCH 0 finished with training loss: 1.1560337543487549 | lr: 0.001 

2021-04-07 17:12:04,258:<module>:INFO:EPOCH 10 finished with training loss: 1.137876272201538 | lr: 0.001 

2021-04-07 17:12:05,930:<module>:INFO:EPOCH 20 finished with training loss: 1.1320117712020874 | lr: 0.001 
…
