2021-04-08 20:28:03,894:<module>:INFO:
 ----------------------- Starting of new script ----------------------- 

2021-04-08 20:28:03,906:<module>:INFO:Shape of d_train: (16, 1001, 3)
2021-04-08 20:28:03,928:<module>:INFO:ANODE(
  (acti): LeakyReLU(negative_slope=0.01)
  (layer1): Linear(in_features=5, out_features=256, bias=True)
  (layer3): Linear(in_features=256, out_features=5, bias=True)
)
2021-04-08 20:28:43,971:<module>:INFO:
 ----------------------- Starting of new script ----------------------- 

2021-04-08 20:28:43,981:<module>:INFO:Shape of d_train: (16, 1001, 3)
2021-04-08 20:28:43,999:<module>:INFO:ANODE(
  (acti): LeakyReLU(negative_slope=0.01)
  (layer1): Linear(in_features=5, out_features=256, bias=True)
  (layer3): Linear(in_features=256, out_features=5, bias=True)
)
2021-04-08 20:29:01,097:<module>:INFO:
 ----------------------- Starting of new script ----------------------- 

2021-04-08 20:29:01,106:<module>:INFO:Shape of d_train: (16, 1001, 3)
2021-04-08 20:29:01,123:<module>:INFO:ANODE(
  (acti): LeakyReLU(negative_slope=0.01)
  (layer1): Linear(in_features=5, out_features=256, bias=True)
  (layer3): Linear(in_features=256, out_features=5, bias=True)
)
2021-04-08 20:29:03,175:z1test:WARNING:Warning: data is probably oversampled.
2021-04-08 20:29:03,175:z1test:WARNING:Use coarser sampling or reduce the maximum value of c.
2021-04-08 20:29:03,217:z1test:WARNING:Warning: data is probably oversampled.
2021-04-08 20:29:03,217:z1test:WARNING:Use coarser sampling or reduce the maximum value of c.
2021-04-08 20:29:03,217:<module>:INFO:0-1 test of | real x: None | learnt x: None
…
2021-04-08 20:29:03,371:z1test:WARNING:Warning: data is probably oversampled.
2021-04-08 20:29:03,371:z1test:WARNING:Use coarser sampling or reduce the maximum value of c.
2021-04-08 20:29:03,371:<module>:INFO:            | real z: 0.8278511482767194 | learnt z: None
2021-04-08 20:29:03,372:<module>:INFO:
 REACHED END OF MAIN
2021-04-09 10:17:15,352:<module>:INFO:
 ----------------------- Starting of new script ----------------------- 

2021-04-09 10:17:15,362:<module>:INFO:Shape of d_train: (16, 1001, 3)
2021-04-09 10:17:15,380:<module>:INFO:Net(
  (acti): LeakyReLU(negative_slope=0.01)
  (layer1): Linear(in_features=3, out_features=256, bias=True)
  (layer2): Linear(in_features=256, out_features=256, bias=True)
  (layer3): Linear(in_features=256, out_features=3, bias=True)
)
2021-04-09 10:17:35,107:<module>:INFO:
 ----------------------- Starting of new script ----------------------- 

2021-04-09 10:17:35,118:<module>:INFO:Shape of d_train: (16, 1001, 3)
2021-04-09 10:17:35,147:<module>:INFO:Net(
  (acti): LeakyReLU(negative_slope=0.01)
  (layer1): Linear(in_features=3, out_features=256, bias=True)
  (layer2): Linear(in_features=256, out_features=256, bias=True)
  (layer3): Linear(in_features=256, out_features=3, bias=True)
)
2021-04-09 10:18:12,428:<module>:INFO:
 ----------------------- Starting of new script ----------------------- 

2021-04-09 10:18:12,438:<module>:INFO:Shape of d_train: (16, 1001, 3)
2021-04-09 10:18:12,456:<module>:INFO:Net(
  (acti): LeakyReLU(negative_slope=0.01)
  (layer1): Linear(in_features=3, out_features=256, bias=True)
  (layer2): Linear(in_features=256, out_features=256, bias=True)
  (layer3): Linear(in_features=256, out_features=3, bias=True)
)
2021-04-09 10:18:36,781:<module>:INFO:
 ----------------------- Starting of new script ----------------------- 

2021-04-09 10:18:36,791:<module>:INFO:Shape of d_train: (16, 1001, 3)
2021-04-09 10:18:36,808:<module>:INFO:Net(
  (acti): LeakyReLU(negative_slope=0.01)
  (layer1): Linear(in_features=3, out_features=256, bias=True)
  (layer2): Linear(in_features=256, out_features=256, bias=True)
  (layer3): Linear(in_features=256, out_features=3, bias=True)
)
2021-04-09 10:18:57,811:<module>:INFO:
 ----------------------- Starting of new script ----------------------- 

2021-04-09 10:18:57,820:<module>:INFO:Shape of d_train: (16, 1001, 3)
2021-04-09 10:18:57,838:<module>:INFO:Net(
  (acti): LeakyReLU(negative_slope=0.01)
  (layer1): Linear(in_features=3, out_features=256, bias=True)
  (layer2): Linear(in_features=256, out_features=256, bias=True)
  (layer3): Linear(in_features=256, out_features=3, bias=True)
)
2021-04-09 10:18:59,954:z1test:WARNING:Warning: data is probably oversampled.
2021-04-09 10:18:59,954:z1test:WARNING:Use coarser sampling or reduce the maximum value of c.
2021-04-09 10:18:59,996:z1test:WARNING:Warning: data is probably oversampled.
2021-04-09 10:18:59,996:z1test:WARNING:Use coarser sampling or reduce the maximum value of c.
2021-04-09 10:18:59,996:<module>:INFO:0-1 test of | real x: None | learnt x: None
…
2021-04-09 10:25:44,347:z1test:WARNING:Warning: data is probably oversampled.
2021-04-09 10:25:44,348:z1test:WARNING:Use coarser sampling or reduce the maximum value of c.
2021-04-09 10:25:44,349:<module>:INFO:            | real z: 0.8334413167699714 | learnt z: None
2021-04-09 10:25:44,349:<module>:INFO:
 REACHED END OF MAIN
2021-04-09 10:27:39,768:<module>:INFO:
 ----------------------- Starting of new script ----------------------- 

2021-04-09 10:27:39,777:<module>:INFO:Shape of d_train: (16, 1001, 3)
2021-04-09 10:27:39,795:<module>:INFO:Net(
  (acti): LeakyReLU(negative_slope=0.01)
  (layer1): Linear(in_features=3, out_features=256, bias=True)
  (layer2): Linear(in_features=256, out_features=256, bias=True)
  (layer3): Linear(in_features=256, out_features=3, bias=True)
)
2021-04-09 10:27:50,096:<module>:INFO:
 ----------------------- Starting of new script ----------------------- 

2021-04-09 10:27:50,106:<module>:INFO:Shape of d_train: (16, 1001, 3)
2021-04-09 10:27:50,125:<module>:INFO:Net(
  (acti): LeakyReLU(negative_slope=0.01)
  (layer1): Linear(in_features=3, out_features=256, bias=True)
  (layer2): Linear(in_features=256, out_features=256, bias=True)
  (layer3): Linear(in_features=256, out_features=3, bias=True)
)
2021-04-09 10:27:55,367:z1test:WARNING:Warning: data is probably oversampled.
2021-04-09 10:27:55,368:z1test:WARNING:Use coarser sampling or reduce the maximum value of c.
2021-04-09 10:27:55,413:z1test:WARNING:Warning: data is probably oversampled.
2021-04-09 10:27:55,414:z1test:WARNING:Use coarser sampling or reduce the maximum value of c.
2021-04-09 10:27:55,414:<module>:INFO:0-1 test of | real x: None | learnt x: None
…
2021-04-09 10:29:57,180:z1test:WARNING:Warning: data is probably oversampled.
2021-04-09 10:29:57,180:z1test:WARNING:Use coarser sampling or reduce the maximum value of c.
2021-04-09 10:29:57,180:<module>:INFO:            | real z: 0.9390617976412676 | learnt z: None
2021-04-09 10:29:57,180:<module>:INFO:
 REACHED END OF MAIN
2021-04-09 10:32:12,611:<module>:INFO:
 ----------------------- Starting of new script ----------------------- 

2021-04-09 10:32:12,622:<module>:INFO:Shape of d_train: (16, 1001, 3)
2021-04-09 10:32:12,641:<module>:INFO:ANODE(
  (acti): LeakyReLU(negative_slope=0.01)
  (layer1): Linear(in_features=3, out_features=256, bias=True)
  (layer3): Linear(in_features=256, out_features=3, bias=True)
)
2021-04-09 10:32:12,642:<module>:INFO:
STARTING TO TRAIN MODEL | EPOCHS : 1000 | lr: 0.01 | n_of_batches: 1 | lookahead: 2
2021-04-09 10:33:16,951:<module>:INFO:
 ----------------------- Starting of new script ----------------------- 

2021-04-09 10:33:16,960:<module>:INFO:Shape of d_train: (16, 1001, 3)
2021-04-09 10:33:16,979:<module>:INFO:ANODE(
  (acti): LeakyReLU(negative_slope=0.01)
  (layer1): Linear(in_features=3, out_features=256, bias=True)
  (layer3): Linear(in_features=256, out_features=3, bias=True)
)
2021-04-09 10:33:16,981:<module>:INFO:
STARTING TO TRAIN MODEL | EPOCHS : 1000 | lr: 0.01 | n_of_batches: 1 | lookahead: 2
2021-04-09 10:33:38,961:<module>:INFO:
 ----------------------- Starting of new script ----------------------- 

2021-04-09 10:33:38,974:<module>:INFO:Shape of d_train: (16, 1001, 3)
2021-04-09 10:33:38,997:<module>:INFO:ANODE(
  (acti): LeakyReLU(negative_slope=0.01)
  (layer1): Linear(in_features=5, out_features=256, bias=True)
  (layer3): Linear(in_features=256, out_features=5, bias=True)
)
2021-04-09 10:33:38,998:<module>:INFO:
STARTING TO TRAIN MODEL | EPOCHS : 1000 | lr: 0.01 | n_of_batches: 1 | lookahead: 2
2021-04-09 10:33:39,553:<module>:INFO:EPOCH 0 finished with training loss: 39.70917892456055 | validation loss: 54.37276077270508 | lr: 0.01 

2021-04-09 10:33:39,554:save_models:INFO:Stored ckpt at /Users/jan-philippvonbassewitz/Documents/Studium/Semester_6/Bachelor_Thesis/LatentODELorentz/MyNeuralODE/3D_lorenz_prediction/models/ANODEmodel0.pth
2021-04-09 10:37:37,981:<module>:INFO:
 ----------------------- Starting of new script ----------------------- 

2021-04-09 10:37:37,995:<module>:INFO:Shape of d_train: (16, 1001, 3)
2021-04-09 10:37:38,018:<module>:INFO:ANODE(
  (acti): LeakyReLU(negative_slope=0.01)
  (layer1): Linear(in_features=5, out_features=256, bias=True)
  (layer3): Linear(in_features=256, out_features=5, bias=True)
)
2021-04-09 10:37:38,018:<module>:INFO:
STARTING TO TRAIN MODEL | EPOCHS : 1000 | lr: 0.01 | n_of_batches: 1 | lookahead: 2
2021-04-09 10:37:38,086:<module>:INFO:EPOCH 0 finished with training loss: 39.798099517822266 | validation loss: 54.46764373779297 | lr: 0.01 

2021-04-09 10:37:38,087:save_models:INFO:Stored ckpt at /Users/jan-philippvonbassewitz/Documents/Studium/Semester_6/Bachelor_Thesis/LatentODELorentz/MyNeuralODE/3D_lorenz_prediction/models/ANODEmodel0.pth
2021-04-09 10:37:58,830:<module>:INFO:
 ----------------------- Starting of new script ----------------------- 

2021-04-09 10:37:58,841:<module>:INFO:Shape of d_train: (16, 1001, 3)
2021-04-09 10:37:58,859:<module>:INFO:ANODE(
  (acti): LeakyReLU(negative_slope=0.01)
  (layer1): Linear(in_features=5, out_features=256, bias=True)
  (layer3): Linear(in_features=256, out_features=5, bias=True)
)
2021-04-09 10:37:58,860:<module>:INFO:
STARTING TO TRAIN MODEL | EPOCHS : 1000 | lr: 0.01 | n_of_batches: 1 | lookahead: 2
2021-04-09 10:37:59,433:<module>:INFO:EPOCH 0 finished with training loss: 39.787593841552734 | validation loss: 54.49753189086914 | lr: 0.01 

2021-04-09 10:37:59,434:save_models:INFO:Stored ckpt at /Users/jan-philippvonbassewitz/Documents/Studium/Semester_6/Bachelor_Thesis/LatentODELorentz/MyNeuralODE/3D_lorenz_prediction/models/ANODEmodel0.pth
2021-04-09 10:38:09,949:<module>:INFO:
 ----------------------- Starting of new script ----------------------- 

2021-04-09 10:38:09,958:<module>:INFO:Shape of d_train: (16, 1001, 3)
2021-04-09 10:38:09,976:<module>:INFO:ANODE(
  (acti): LeakyReLU(negative_slope=0.01)
  (layer1): Linear(in_features=5, out_features=256, bias=True)
  (layer3): Linear(in_features=256, out_features=5, bias=True)
)
2021-04-09 10:38:09,976:<module>:INFO:
STARTING TO TRAIN MODEL | EPOCHS : 1000 | lr: 0.01 | n_of_batches: 1 | lookahead: 2
2021-04-09 10:38:10,152:<module>:INFO:EPOCH 0 finished with training loss: 39.7407341003418 | validation loss: 54.424659729003906 | lr: 0.01 

2021-04-09 10:38:10,153:save_models:INFO:Stored ckpt at /Users/jan-philippvonbassewitz/Documents/Studium/Semester_6/Bachelor_Thesis/LatentODELorentz/MyNeuralODE/3D_lorenz_prediction/models/ANODEmodel0.pth
2021-04-09 10:38:20,655:<module>:INFO:
 ----------------------- Starting of new script ----------------------- 

2021-04-09 10:38:20,665:<module>:INFO:Shape of d_train: (16, 1001, 3)
2021-04-09 10:38:20,682:<module>:INFO:ANODE(
  (acti): LeakyReLU(negative_slope=0.01)
  (layer1): Linear(in_features=5, out_features=256, bias=True)
  (layer3): Linear(in_features=256, out_features=5, bias=True)
)
2021-04-09 10:38:20,683:<module>:INFO:
STARTING TO TRAIN MODEL | EPOCHS : 1000 | lr: 0.01 | n_of_batches: 1 | lookahead: 2
2021-04-09 10:38:21,149:<module>:INFO:EPOCH 0 finished with training loss: 39.67762756347656 | validation loss: 54.364601135253906 | lr: 0.01 

2021-04-09 10:38:21,152:save_models:INFO:Stored ckpt at /Users/jan-philippvonbassewitz/Documents/Studium/Semester_6/Bachelor_Thesis/LatentODELorentz/MyNeuralODE/3D_lorenz_prediction/models/ANODEmodel0.pth
2021-04-09 10:39:00,277:<module>:INFO:
 ----------------------- Starting of new script ----------------------- 

2021-04-09 10:39:00,286:<module>:INFO:Shape of d_train: (16, 1001, 3)
2021-04-09 10:39:00,305:<module>:INFO:ANODE(
  (acti): LeakyReLU(negative_slope=0.01)
  (layer1): Linear(in_features=5, out_features=256, bias=True)
  (layer3): Linear(in_features=256, out_features=5, bias=True)
)
2021-04-09 10:39:00,305:<module>:INFO:
STARTING TO TRAIN MODEL | EPOCHS : 1000 | lr: 0.01 | n_of_batches: 1 | lookahead: 2
2021-04-09 10:39:00,481:<module>:INFO:EPOCH 0 finished with training loss: 39.714962005615234 | validation loss: 54.518287658691406 | lr: 0.01 

2021-04-09 10:39:00,482:save_models:INFO:Stored ckpt at /Users/jan-philippvonbassewitz/Documents/Studium/Semester_6/Bachelor_Thesis/LatentODELorentz/MyNeuralODE/3D_lorenz_prediction/models/ANODEmodel0.pth
2021-04-09 10:41:24,194:<module>:INFO:
 ----------------------- Starting of new script ----------------------- 

2021-04-09 10:41:24,204:<module>:INFO:Shape of d_train: (16, 1001, 3)
2021-04-09 10:41:24,223:<module>:INFO:ANODE(
  (acti): LeakyReLU(negative_slope=0.01)
  (layer1): Linear(in_features=5, out_features=256, bias=True)
  (layer3): Linear(in_features=256, out_features=5, bias=True)
)
2021-04-09 10:41:24,224:<module>:INFO:
STARTING TO TRAIN MODEL | EPOCHS : 100 | lr: 0.01 | n_of_batches: 1 | lookahead: 2
2021-04-09 10:41:24,724:<module>:INFO:EPOCH 0 finished with training loss: 40.93317413330078 | validation loss: 29.619142532348633 | lr: 0.01 

2021-04-09 10:41:24,725:save_models:INFO:Stored ckpt at /Users/jan-philippvonbassewitz/Documents/Studium/Semester_6/Bachelor_Thesis/LatentODELorentz/MyNeuralODE/3D_lorenz_prediction/models/ANODEmodel0.pth
…
2021-04-09 11:02:18,936:<module>:INFO:            | real y: 0.9748482032584294 | learnt y: None
2021-04-09 11:02:19,016:z1test:WARNING:Warning: data is probably oversampled.
2021-04-09 11:02:19,016:z1test:WARNING:Use coarser sampling or reduce the maximum value of c.
2021-04-09 11:02:19,016:<module>:INFO:            | real z: 0.8087258267434372 | learnt z: None
2021-04-09 11:02:19,016:<module>:INFO:
 REACHED END OF MAIN
2021-04-09 11:26:37,400:<module>:INFO:
 ----------------------- Starting of new script ----------------------- 

2021-04-09 11:26:37,415:<module>:INFO:Shape of d_train: (16, 1001, 3)
2021-04-09 11:26:37,437:<module>:INFO:ANODE(
  (acti): Tanh()
  (layer1): Linear(in_features=5, out_features=256, bias=True)
  (layer3): Linear(in_features=256, out_features=5, bias=True)
)
2021-04-09 11:26:37,438:<module>:INFO:DeAugmenter(
  (layer1): Linear(in_features=5, out_features=3, bias=True)
)
2021-04-09 11:26:37,439:<module>:INFO:
STARTING TO TRAIN MODEL | EPOCHS : 2000 | lr: 0.002 | n_of_batches: 1 | lookahead: 2
2021-04-09 11:27:06,355:<module>:INFO:
 ----------------------- Starting of new script ----------------------- 

2021-04-09 11:27:06,366:<module>:INFO:Shape of d_train: (16, 1001, 3)
2021-04-09 11:27:06,390:<module>:INFO:ANODE(
  (acti): Tanh()
  (layer1): Linear(in_features=5, out_features=256, bias=True)
  (layer3): Linear(in_features=256, out_features=5, bias=True)
)
2021-04-09 11:27:06,390:<module>:INFO:DeAugmenter(
  (layer1): Linear(in_features=5, out_features=3, bias=True)
)
2021-04-09 11:27:06,391:<module>:INFO:
STARTING TO TRAIN MODEL | EPOCHS : 2000 | lr: 0.002 | n_of_batches: 1 | lookahead: 2
2021-04-09 11:27:06,443:<module>:INFO:EPOCH 0 finished with training loss: 176.74034118652344 | validation loss: 30.54918670654297 | lr: 0.002 

2021-04-09 11:27:06,444:save_models:INFO:Stored ckpt at /Users/jan-philippvonbassewitz/Documents/Studium/Semester_6/Bachelor_Thesis/LatentODELorentz/MyNeuralODE/3D_lorenz_prediction/models/ANODEmodel0.pth
…
2021-04-09 14:15:22,375:<module>:INFO:EPOCH 230 finished with training loss: 3.1432101726531982 | validation loss: 3.5632266998291016 | lr: 0.01 

2021-04-09 14:15:22,379:save_models:INFO:Stored ckpt at /Users/jan-philippvonbassewitz/Documents/Studium/Semester_6/Bachelor_Thesis/LatentODELorentz/MyNeuralODE/3D_lorenz_prediction/models/ANODEmodel0.pth
2021-04-09 14:20:21,410:<module>:INFO:
 ----------------------- Starting of new script ----------------------- 

2021-04-09 14:20:21,423:<module>:INFO:Shape of d_train: (16, 1001, 3)
2021-04-09 14:20:21,446:<module>:INFO:ANODE(
  (acti): LeakyReLU(negative_slope=0.01)
  (layer1): Linear(in_features=3, out_features=256, bias=True)
  (layer3): Linear(in_features=256, out_features=3, bias=True)
)
2021-04-09 14:20:38,230:<module>:INFO:
 ----------------------- Starting of new script ----------------------- 

2021-04-09 14:20:38,239:<module>:INFO:Shape of d_train: (16, 1001, 3)
2021-04-09 14:20:38,256:<module>:INFO:ANODE(
  (acti): LeakyReLU(negative_slope=0.01)
  (layer1): Linear(in_features=5, out_features=256, bias=True)
  (layer3): Linear(in_features=256, out_features=5, bias=True)
)
2021-04-09 14:21:34,014:<module>:INFO:
 ----------------------- Starting of new script ----------------------- 

2021-04-09 14:21:34,023:<module>:INFO:Shape of d_train: (16, 1001, 3)
2021-04-09 14:21:34,041:<module>:INFO:ANODE(
  (acti): LeakyReLU(negative_slope=0.01)
  (layer1): Linear(in_features=5, out_features=256, bias=True)
  (layer3): Linear(in_features=256, out_features=5, bias=True)
)
2021-04-09 14:21:36,099:z1test:WARNING:Warning: data is probably oversampled.
2021-04-09 14:21:36,099:z1test:WARNING:Use coarser sampling or reduce the maximum value of c.
2021-04-09 14:21:36,099:<module>:INFO:0-1 test of | real x: 0.9061555220248644 | learnt x: None
2021-04-09 14:21:36,183:z1test:WARNING:Warning: data is probably oversampled.
2021-04-09 14:21:36,183:z1test:WARNING:Use coarser sampling or reduce the maximum value of c.
…
2021-04-09 14:24:20,824:z1test:WARNING:Warning: data is probably oversampled.
2021-04-09 14:24:20,824:z1test:WARNING:Use coarser sampling or reduce the maximum value of c.
2021-04-09 14:24:20,824:<module>:INFO:            | real z: 0.9782365906420059 | learnt z: None
2021-04-09 14:24:20,824:<module>:INFO:
 REACHED END OF MAIN
2021-04-09 14:24:36,675:<module>:INFO:
 ----------------------- Starting of new script ----------------------- 

2021-04-09 14:24:36,685:<module>:INFO:Shape of d_train: (16, 1001, 3)
2021-04-09 14:24:36,705:<module>:INFO:ANODE(
  (acti): LeakyReLU(negative_slope=0.01)
  (layer1): Linear(in_features=5, out_features=256, bias=True)
  (layer3): Linear(in_features=256, out_features=5, bias=True)
)
2021-04-09 14:24:50,969:<module>:INFO:
 ----------------------- Starting of new script ----------------------- 

2021-04-09 14:24:50,978:<module>:INFO:Shape of d_train: (16, 1001, 3)
2021-04-09 14:24:50,995:<module>:INFO:ANODE(
  (acti): LeakyReLU(negative_slope=0.01)
  (layer1): Linear(in_features=5, out_features=256, bias=True)
  (layer3): Linear(in_features=256, out_features=5, bias=True)
)
2021-04-09 14:25:57,281:<module>:INFO:
 ----------------------- Starting of new script ----------------------- 

2021-04-09 14:25:57,296:<module>:INFO:Shape of d_train: (16, 1001, 3)
2021-04-09 14:25:57,321:<module>:INFO:ANODE(
  (acti): LeakyReLU(negative_slope=0.01)
  (layer1): Linear(in_features=5, out_features=256, bias=True)
  (layer3): Linear(in_features=256, out_features=5, bias=True)
)
2021-04-09 14:26:17,054:<module>:INFO:
 ----------------------- Starting of new script ----------------------- 

2021-04-09 14:26:17,068:<module>:INFO:Shape of d_train: (16, 1001, 3)
2021-04-09 14:26:17,094:<module>:INFO:ANODE(
  (acti): LeakyReLU(negative_slope=0.01)
  (layer1): Linear(in_features=5, out_features=256, bias=True)
  (layer3): Linear(in_features=256, out_features=5, bias=True)
)
2021-04-09 14:26:35,982:<module>:INFO:
 ----------------------- Starting of new script ----------------------- 

2021-04-09 14:26:35,993:<module>:INFO:Shape of d_train: (16, 1001, 3)
2021-04-09 14:26:36,013:<module>:INFO:ANODE(
  (acti): LeakyReLU(negative_slope=0.01)
  (layer1): Linear(in_features=5, out_features=256, bias=True)
  (layer3): Linear(in_features=256, out_features=5, bias=True)
)
2021-04-09 14:37:24,078:<module>:INFO:
 ----------------------- Starting of new script ----------------------- 

2021-04-09 14:37:24,078:<module>:INFO:ANODE(
  (acti): LeakyReLU(negative_slope=0.01)
  (layer1): Linear(in_features=5, out_features=256, bias=True)
  (layer3): Linear(in_features=256, out_features=5, bias=True)
)
2021-04-09 14:37:24,090:__init__:INFO:
 Constructed 3D Lorenz dataset with: 
2021-04-09 14:37:24,091:__init__:INFO:   lookahead: 2 | tau: 1 | k: 1
2021-04-09 14:37:24,091:__init__:INFO:size of histories: torch.Size([988, 1, 3]) | size of futures: torch.Size([988, 3, 3])

2021-04-09 14:37:24,103:__init__:INFO:
 Constructed 3D Lorenz dataset with: 
2021-04-09 14:37:24,104:__init__:INFO:   lookahead: 2 | tau: 1 | k: 1
…
2021-04-09 15:21:28,019:save_models:INFO:Stored ckpt at /Users/jan-philippvonbassewitz/Documents/Studium/Semester_6/Bachelor_Thesis/LatentODELorentz/MyNeuralODE/3D_lorenz_prediction/models/ANODEmodel0.pth
2021-04-09 15:42:46,445:<module>:INFO:EPOCH 40 finished with training loss: 6.806760787963867 | validation loss: 6.725622177124023 | lr: 0.01 

2021-04-09 15:42:46,448:save_models:INFO:Stored ckpt at /Users/jan-philippvonbassewitz/Documents/Studium/Semester_6/Bachelor_Thesis/LatentODELorentz/MyNeuralODE/3D_lorenz_prediction/models/ANODEmodel0.pth
2021-04-09 15:44:08,627:<module>:INFO:
 ----------------------- Starting of new script ----------------------- 

2021-04-09 15:44:08,628:<module>:INFO:ANODE(
  (acti): LeakyReLU(negative_slope=0.01)
  (layer1): Linear(in_features=3, out_features=256, bias=True)
  (layer3): Linear(in_features=256, out_features=3, bias=True)
)
2021-04-09 15:44:20,815:<module>:INFO:
 ----------------------- Starting of new script ----------------------- 

2021-04-09 15:44:20,816:<module>:INFO:ANODE(
  (acti): LeakyReLU(negative_slope=0.01)
  (layer1): Linear(in_features=5, out_features=256, bias=True)
  (layer3): Linear(in_features=256, out_features=5, bias=True)
)
2021-04-09 15:44:20,831:__init__:INFO:
 Constructed 3D Lorenz dataset with: 
2021-04-09 15:44:20,831:__init__:INFO:   lookahead: 5 | tau: 1 | k: 1
2021-04-09 15:44:20,831:__init__:INFO:size of histories: torch.Size([985, 1, 3]) | size of futures: torch.Size([985, 6, 3])

2021-04-09 15:45:07,415:<module>:INFO:
 ----------------------- Starting of new script ----------------------- 

2021-04-09 15:45:07,416:<module>:INFO:ANODE(
  (acti): LeakyReLU(negative_slope=0.01)
  (layer1): Linear(in_features=5, out_features=256, bias=True)
  (layer3): Linear(in_features=256, out_features=5, bias=True)
)
2021-04-09 15:45:07,432:__init__:INFO:
 Constructed 3D Lorenz dataset with: 
2021-04-09 15:45:07,432:__init__:INFO:   lookahead: 5 | tau: 1 | k: 1
2021-04-09 15:45:07,432:__init__:INFO:size of histories: torch.Size([985, 1, 3]) | size of futures: torch.Size([985, 6, 3])

2021-04-09 15:46:30,778:<module>:INFO:
 ----------------------- Starting of new script ----------------------- 

2021-04-09 15:46:30,779:<module>:INFO:ANODE(
  (acti): LeakyReLU(negative_slope=0.01)
  (layer1): Linear(in_features=5, out_features=256, bias=True)
  (layer3): Linear(in_features=256, out_features=5, bias=True)
)
2021-04-09 15:46:30,799:__init__:INFO:
 Constructed 3D Lorenz dataset with: 
2021-04-09 15:46:30,799:__init__:INFO:   lookahead: 5 | tau: 1 | k: 1
2021-04-09 15:46:30,799:__init__:INFO:size of histories: torch.Size([985, 1, 3]) | size of futures: torch.Size([985, 6, 3])

2021-04-09 15:47:16,937:<module>:INFO:
 ----------------------- Starting of new script ----------------------- 

2021-04-09 15:47:16,938:<module>:INFO:ANODE(
  (acti): LeakyReLU(negative_slope=0.01)
  (layer1): Linear(in_features=5, out_features=256, bias=True)
  (layer3): Linear(in_features=256, out_features=5, bias=True)
)
2021-04-09 15:47:16,953:__init__:INFO:
 Constructed 3D Lorenz dataset with: 
2021-04-09 15:47:16,953:__init__:INFO:   lookahead: 5 | tau: 1 | k: 1
2021-04-09 15:47:16,953:__init__:INFO:size of histories: torch.Size([985, 1, 3]) | size of futures: torch.Size([985, 6, 3])

2021-04-09 15:47:52,543:<module>:INFO:
 ----------------------- Starting of new script ----------------------- 

2021-04-09 15:47:52,544:<module>:INFO:ANODE(
  (acti): LeakyReLU(negative_slope=0.01)
  (layer1): Linear(in_features=5, out_features=256, bias=True)
  (layer3): Linear(in_features=256, out_features=5, bias=True)
)
2021-04-09 15:47:52,560:__init__:INFO:
 Constructed 3D Lorenz dataset with: 
2021-04-09 15:47:52,560:__init__:INFO:   lookahead: 5 | tau: 1 | k: 1
2021-04-09 15:47:52,560:__init__:INFO:size of histories: torch.Size([985, 1, 3]) | size of futures: torch.Size([985, 6, 3])

2021-04-09 15:48:03,585:<module>:INFO:
 ----------------------- Starting of new script ----------------------- 

2021-04-09 15:48:03,586:<module>:INFO:ANODE(
  (acti): LeakyReLU(negative_slope=0.01)
  (layer1): Linear(in_features=5, out_features=256, bias=True)
  (layer3): Linear(in_features=256, out_features=5, bias=True)
)
2021-04-09 15:48:03,601:__init__:INFO:
 Constructed 3D Lorenz dataset with: 
2021-04-09 15:48:03,601:__init__:INFO:   lookahead: 5 | tau: 1 | k: 1
2021-04-09 15:48:03,601:__init__:INFO:size of histories: torch.Size([985, 1, 3]) | size of futures: torch.Size([985, 6, 3])

2021-04-09 15:49:37,645:<module>:INFO:
 ----------------------- Starting of new script ----------------------- 

2021-04-09 15:49:37,646:<module>:INFO:Net(
  (acti): LeakyReLU(negative_slope=0.01)
  (layer1): Linear(in_features=3, out_features=256, bias=True)
  (layer2): Linear(in_features=256, out_features=256, bias=True)
  (layer3): Linear(in_features=256, out_features=3, bias=True)
)
2021-04-09 15:49:37,664:__init__:INFO:
 Constructed 3D Lorenz dataset with: 
2021-04-09 15:49:37,664:__init__:INFO:   lookahead: 5 | tau: 1 | k: 1
2021-04-09 15:49:37,664:__init__:INFO:size of histories: torch.Size([985, 1, 3]) | size of futures: torch.Size([985, 6, 3])

2021-04-09 15:50:26,201:<module>:INFO:
 ----------------------- Starting of new script ----------------------- 

2021-04-09 15:50:26,202:<module>:INFO:Net(
  (acti): LeakyReLU(negative_slope=0.01)
  (layer1): Linear(in_features=3, out_features=256, bias=True)
  (layer2): Linear(in_features=256, out_features=256, bias=True)
  (layer3): Linear(in_features=256, out_features=3, bias=True)
)
2021-04-09 15:50:26,218:__init__:INFO:
 Constructed 3D Lorenz dataset with: 
2021-04-09 15:50:26,218:__init__:INFO:   lookahead: 5 | tau: 1 | k: 1
2021-04-09 15:50:26,218:__init__:INFO:size of histories: torch.Size([985, 1, 3]) | size of futures: torch.Size([985, 6, 3])

2021-04-09 15:51:21,943:<module>:INFO:
 ----------------------- Starting of new script ----------------------- 

2021-04-09 15:51:21,944:<module>:INFO:Net(
  (acti): LeakyReLU(negative_slope=0.01)
  (layer1): Linear(in_features=3, out_features=256, bias=True)
  (layer2): Linear(in_features=256, out_features=256, bias=True)
  (layer3): Linear(in_features=256, out_features=3, bias=True)
)
2021-04-09 15:51:21,964:__init__:INFO:
 Constructed 3D Lorenz dataset with: 
2021-04-09 15:51:21,965:__init__:INFO:   lookahead: 5 | tau: 1 | k: 1
2021-04-09 15:51:21,965:__init__:INFO:size of histories: torch.Size([985, 1, 3]) | size of futures: torch.Size([985, 6, 3])

2021-04-09 15:51:39,105:<module>:INFO:
 ----------------------- Starting of new script ----------------------- 

2021-04-09 15:51:39,106:<module>:INFO:Net(
  (acti): LeakyReLU(negative_slope=0.01)
  (layer1): Linear(in_features=3, out_features=256, bias=True)
  (layer2): Linear(in_features=256, out_features=256, bias=True)
  (layer3): Linear(in_features=256, out_features=3, bias=True)
)
2021-04-09 15:51:39,121:__init__:INFO:
 Constructed 3D Lorenz dataset with: 
2021-04-09 15:51:39,121:__init__:INFO:   lookahead: 5 | tau: 1 | k: 1
2021-04-09 15:51:39,121:__init__:INFO:size of histories: torch.Size([985, 1, 3]) | size of futures: torch.Size([985, 6, 3])

2021-04-09 15:52:13,053:<module>:INFO:
 ----------------------- Starting of new script ----------------------- 

2021-04-09 15:52:13,054:<module>:INFO:Net(
  (acti): LeakyReLU(negative_slope=0.01)
  (layer1): Linear(in_features=3, out_features=256, bias=True)
  (layer2): Linear(in_features=256, out_features=256, bias=True)
  (layer3): Linear(in_features=256, out_features=3, bias=True)
)
2021-04-09 15:52:13,072:__init__:INFO:
 Constructed 3D Lorenz dataset with: 
2021-04-09 15:52:13,072:__init__:INFO:   lookahead: 5 | tau: 1 | k: 1
2021-04-09 15:52:13,072:__init__:INFO:size of histories: torch.Size([985, 1, 3]) | size of futures: torch.Size([985, 6, 3])

2021-04-09 15:52:40,707:<module>:INFO:
 ----------------------- Starting of new script ----------------------- 

2021-04-09 15:52:40,709:<module>:INFO:Net(
  (acti): LeakyReLU(negative_slope=0.01)
  (layer1): Linear(in_features=3, out_features=256, bias=True)
  (layer2): Linear(in_features=256, out_features=256, bias=True)
  (layer3): Linear(in_features=256, out_features=3, bias=True)
)
2021-04-09 15:52:40,725:__init__:INFO:
 Constructed 3D Lorenz dataset with: 
2021-04-09 15:52:40,725:__init__:INFO:   lookahead: 5 | tau: 1 | k: 1
2021-04-09 15:52:40,725:__init__:INFO:size of histories: torch.Size([985, 1, 3]) | size of futures: torch.Size([985, 6, 3])

2021-04-09 15:53:03,775:<module>:INFO:
 ----------------------- Starting of new script ----------------------- 

2021-04-09 15:53:03,777:<module>:INFO:Net(
  (acti): LeakyReLU(negative_slope=0.01)
  (layer1): Linear(in_features=3, out_features=256, bias=True)
  (layer2): Linear(in_features=256, out_features=256, bias=True)
  (layer3): Linear(in_features=256, out_features=3, bias=True)
)
2021-04-09 15:53:03,803:__init__:INFO:
 Constructed 3D Lorenz dataset with: 
2021-04-09 15:53:03,804:__init__:INFO:   lookahead: 50 | tau: 1 | k: 1
2021-04-09 15:53:03,804:__init__:INFO:size of histories: torch.Size([940, 1, 3]) | size of futures: torch.Size([940, 51, 3])

2021-04-09 15:53:36,687:<module>:INFO:
 ----------------------- Starting of new script ----------------------- 

2021-04-09 15:53:36,688:<module>:INFO:Net(
  (acti): LeakyReLU(negative_slope=0.01)
  (layer1): Linear(in_features=3, out_features=256, bias=True)
  (layer2): Linear(in_features=256, out_features=256, bias=True)
  (layer3): Linear(in_features=256, out_features=3, bias=True)
)
2021-04-09 15:53:36,705:__init__:INFO:
 Constructed 3D Lorenz dataset with: 
2021-04-09 15:53:36,705:__init__:INFO:   lookahead: 50 | tau: 1 | k: 1
2021-04-09 15:53:36,705:__init__:INFO:size of histories: torch.Size([940, 1, 3]) | size of futures: torch.Size([940, 51, 3])

2021-04-09 15:54:21,170:<module>:INFO:
 ----------------------- Starting of new script ----------------------- 

2021-04-09 15:54:21,172:<module>:INFO:Net(
  (acti): LeakyReLU(negative_slope=0.01)
  (layer1): Linear(in_features=3, out_features=256, bias=True)
  (layer2): Linear(in_features=256, out_features=256, bias=True)
  (layer3): Linear(in_features=256, out_features=3, bias=True)
)
2021-04-09 15:54:21,188:__init__:INFO:
 Constructed 3D Lorenz dataset with: 
2021-04-09 15:54:21,188:__init__:INFO:   lookahead: 50 | tau: 1 | k: 1
2021-04-09 15:54:21,188:__init__:INFO:size of histories: torch.Size([940, 1, 3]) | size of futures: torch.Size([940, 51, 3])

2021-04-09 15:54:35,252:<module>:INFO:
 ----------------------- Starting of new script ----------------------- 

2021-04-09 15:54:35,254:<module>:INFO:Net(
  (acti): LeakyReLU(negative_slope=0.01)
  (layer1): Linear(in_features=3, out_features=256, bias=True)
  (layer2): Linear(in_features=256, out_features=256, bias=True)
  (layer3): Linear(in_features=256, out_features=3, bias=True)
)
2021-04-09 15:54:35,269:__init__:INFO:
 Constructed 3D Lorenz dataset with: 
2021-04-09 15:54:35,270:__init__:INFO:   lookahead: 50 | tau: 1 | k: 1
2021-04-09 15:54:35,270:__init__:INFO:size of histories: torch.Size([940, 1, 3]) | size of futures: torch.Size([940, 51, 3])

2021-04-09 15:55:27,679:<module>:INFO:
 ----------------------- Starting of new script ----------------------- 

2021-04-09 15:55:27,680:<module>:INFO:Net(
  (acti): LeakyReLU(negative_slope=0.01)
  (layer1): Linear(in_features=3, out_features=256, bias=True)
  (layer2): Linear(in_features=256, out_features=256, bias=True)
  (layer3): Linear(in_features=256, out_features=3, bias=True)
)
2021-04-09 15:55:27,700:__init__:INFO:
 Constructed 3D Lorenz dataset with: 
2021-04-09 15:55:27,701:__init__:INFO:   lookahead: 50 | tau: 1 | k: 1
2021-04-09 15:55:27,701:__init__:INFO:size of histories: torch.Size([940, 1, 3]) | size of futures: torch.Size([940, 51, 3])

2021-04-09 15:55:30,951:<module>:INFO:0-1 test of | real x: 0.8326235415955258 | learnt x: 0.8873809390391884
…
2021-04-09 16:18:44,170:<module>:INFO:            | real y: 0.9752229150401499 | learnt y: None
2021-04-09 16:18:44,218:z1test:WARNING:Warning: data is probably oversampled.
2021-04-09 16:18:44,218:z1test:WARNING:Use coarser sampling or reduce the maximum value of c.
2021-04-09 16:18:44,219:<module>:INFO:            | real z: 0.9875368204715852 | learnt z: None
2021-04-09 16:18:44,219:<module>:INFO:
 REACHED END OF MAIN
2021-04-09 16:20:40,037:<module>:INFO:
 ----------------------- Starting of new script ----------------------- 

2021-04-09 16:20:40,039:<module>:INFO:ANODE(
  (acti): LeakyReLU(negative_slope=0.01)
  (layer1): Linear(in_features=5, out_features=256, bias=True)
  (layer2): Linear(in_features=256, out_features=256, bias=True)
  (layer3): Linear(in_features=256, out_features=5, bias=True)
)
2021-04-09 16:20:51,526:<module>:INFO:
 ----------------------- Starting of new script ----------------------- 

2021-04-09 16:20:51,527:<module>:INFO:ANODE(
  (acti): LeakyReLU(negative_slope=0.01)
  (layer1): Linear(in_features=5, out_features=256, bias=True)
  (layer3): Linear(in_features=256, out_features=5, bias=True)
)
2021-04-09 16:20:51,542:__init__:INFO:
Constructed 3D Lorenz dataset with: 
2021-04-09 16:20:51,543:__init__:INFO:     lookahead: 2 | tau: 1 | k: 1
2021-04-09 16:20:51,545:__init__:INFO:     size of histories: torch.Size([988, 1, 3]) | size of futures: torch.Size([988, 3, 3])

2021-04-09 16:20:51,559:__init__:INFO:
Constructed 3D Lorenz dataset with: 
2021-04-09 16:20:51,559:__init__:INFO:     lookahead: 2 | tau: 1 | k: 1
…
2021-04-09 16:34:30,783:<module>:INFO:EPOCH 25 finished with training loss: 24.845598220825195 | validation loss: 25.691680908203125 | lr: 0.0005 
2021-04-09 16:37:53,661:<module>:INFO:EPOCH 30 finished with training loss: 22.15883445739746 | validation loss: 24.288841247558594 | lr: 0.00025 
2021-04-09 19:02:10,361:<module>:INFO:EPOCH 35 finished with training loss: 24.77251434326172 | validation loss: 24.027456283569336 | lr: 0.00025 
2021-04-09 23:24:23,768:<module>:INFO:
 ----------------------- Starting of new script ----------------------- 

2021-04-09 23:24:23,769:<module>:INFO:ANODE(
  (acti): LeakyReLU(negative_slope=0.01)
  (layer1): Linear(in_features=5, out_features=256, bias=True)
  (layer3): Linear(in_features=256, out_features=5, bias=True)
)
2021-04-09 23:24:35,388:<module>:INFO:
 ----------------------- Starting of new script ----------------------- 

2021-04-09 23:24:35,389:<module>:INFO:ANODE(
  (acti): LeakyReLU(negative_slope=0.01)
  (layer1): Linear(in_features=5, out_features=256, bias=True)
  (layer2): Linear(in_features=256, out_features=256, bias=True)
  (layer3): Linear(in_features=256, out_features=5, bias=True)
)
2021-04-09 23:24:35,413:__init__:INFO:
Constructed 3D Lorenz dataset with: 
2021-04-09 23:24:35,413:__init__:INFO:     lookahead: 50 | tau: 1 | k: 1
2021-04-09 23:24:35,413:__init__:INFO:     size of histories: torch.Size([940, 1, 3]) | size of futures: torch.Size([940, 51, 3])

2021-04-09 23:24:39,279:<module>:INFO:0-1 test of | real x: 0.8504516558275867 | learnt x: 0.9664864096404129
…
2021-04-10 11:05:54,195:<module>:INFO:            | real y: 0.9836410989936784 | learnt y: 0.9413371376919287
2021-04-10 11:05:54,280:z1test:WARNING:Warning: data is probably oversampled.
2021-04-10 11:05:54,281:z1test:WARNING:Use coarser sampling or reduce the maximum value of c.
2021-04-10 11:05:54,281:<module>:INFO:            | real z: 0.8336491402493642 | learnt z: None
2021-04-10 11:05:54,281:<module>:INFO:
 REACHED END OF MAIN
2021-04-10 11:06:27,477:<module>:INFO:
 ----------------------- Starting of new script ----------------------- 

2021-04-10 11:06:27,478:<module>:INFO:ANODE(
  (acti): LeakyReLU(negative_slope=0.01)
  (layer1): Linear(in_features=5, out_features=256, bias=True)
  (layer2): Linear(in_features=256, out_features=256, bias=True)
  (layer3): Linear(in_features=256, out_features=5, bias=True)
)
2021-04-10 11:06:27,495:__init__:INFO:
Constructed 3D Lorenz dataset with: 
2021-04-10 11:06:27,495:__init__:INFO:     lookahead: 10 | tau: 1 | k: 1
2021-04-10 11:06:27,495:__init__:INFO:     size of histories: torch.Size([980, 1, 3]) | size of futures: torch.Size([980, 11, 3])

2021-04-10 11:20:31,698:<module>:INFO:
 ----------------------- Starting of new script ----------------------- 

2021-04-10 11:20:31,703:<module>:INFO:ANODE(
  (acti): LeakyReLU(negative_slope=0.01)
  (layer1): Linear(in_features=3, out_features=256, bias=True)
  (layer2): Linear(in_features=256, out_features=256, bias=True)
  (layer3): Linear(in_features=256, out_features=3, bias=True)
)
2021-04-10 11:20:45,450:<module>:INFO:
 ----------------------- Starting of new script ----------------------- 

2021-04-10 11:20:45,452:<module>:INFO:ANODE(
  (acti): LeakyReLU(negative_slope=0.01)
  (layer1): Linear(in_features=5, out_features=256, bias=True)
  (layer2): Linear(in_features=256, out_features=256, bias=True)
  (layer3): Linear(in_features=256, out_features=5, bias=True)
)
2021-04-10 11:20:45,472:__init__:INFO:
Constructed 3D Lorenz dataset with: 
2021-04-10 11:20:45,472:__init__:INFO:     lookahead: 10 | tau: 1 | k: 1
2021-04-10 11:20:45,472:__init__:INFO:     size of histories: torch.Size([980, 1, 3]) | size of futures: torch.Size([980, 11, 3])

2021-04-10 11:21:25,313:<module>:INFO:
 ----------------------- Starting of new script ----------------------- 

2021-04-10 11:21:25,318:<module>:INFO:ANODE(
  (acti): LeakyReLU(negative_slope=0.01)
  (layer1): Linear(in_features=5, out_features=256, bias=True)
  (layer2): Linear(in_features=256, out_features=256, bias=True)
  (layer3): Linear(in_features=256, out_features=5, bias=True)
)
2021-04-10 11:21:25,343:__init__:INFO:
Constructed 3D Lorenz dataset with: 
2021-04-10 11:21:25,343:__init__:INFO:     lookahead: 10 | tau: 1 | k: 1
2021-04-10 11:21:25,343:__init__:INFO:     size of histories: torch.Size([1960, 1, 3]) | size of futures: torch.Size([1960, 11, 3])

2021-04-10 11:27:12,263:<module>:INFO:
 ----------------------- Starting of new script ----------------------- 

2021-04-10 11:27:12,265:<module>:INFO:ANODE(
  (acti): LeakyReLU(negative_slope=0.01)
  (layer1): Linear(in_features=5, out_features=256, bias=True)
  (layer2): Linear(in_features=256, out_features=256, bias=True)
  (layer3): Linear(in_features=256, out_features=5, bias=True)
)
2021-04-10 11:27:12,281:__init__:INFO:
Constructed 3D Lorenz dataset with: 
2021-04-10 11:27:12,282:__init__:INFO:     lookahead: 10 | tau: 1 | k: 1
2021-04-10 11:27:12,282:__init__:INFO:     size of histories: torch.Size([980, 1, 3]) | size of futures: torch.Size([980, 11, 3])

2021-04-10 11:27:24,634:<module>:INFO:
 ----------------------- Starting of new script ----------------------- 

2021-04-10 11:27:24,636:<module>:INFO:ANODE(
  (acti): LeakyReLU(negative_slope=0.01)
  (layer1): Linear(in_features=5, out_features=256, bias=True)
  (layer2): Linear(in_features=256, out_features=256, bias=True)
  (layer3): Linear(in_features=256, out_features=5, bias=True)
)
2021-04-10 11:27:24,652:__init__:INFO:
Constructed 3D Lorenz dataset with: 
2021-04-10 11:27:24,652:__init__:INFO:     lookahead: 100 | tau: 1 | k: 1
2021-04-10 11:27:24,652:__init__:INFO:     size of histories: torch.Size([890, 1, 3]) | size of futures: torch.Size([890, 101, 3])

2021-04-10 11:27:29,821:z1test:WARNING:Warning: data is probably oversampled.
…
2021-04-10 11:45:34,526:<module>:INFO:            | real y: 0.9375918963012126 | learnt y: None
2021-04-10 11:45:34,648:z1test:WARNING:Warning: data is probably oversampled.
2021-04-10 11:45:34,648:z1test:WARNING:Use coarser sampling or reduce the maximum value of c.
2021-04-10 11:45:34,648:<module>:INFO:            | real z: 0.9788607085997427 | learnt z: None
2021-04-10 11:45:34,648:<module>:INFO:
 REACHED END OF MAIN
2021-04-10 12:10:06,315:<module>:INFO:
 ----------------------- Starting of new script ----------------------- 

2021-04-10 12:10:06,317:<module>:INFO:Net(
  (acti): LeakyReLU(negative_slope=0.01)
  (layer1): Linear(in_features=3, out_features=500, bias=True)
  (layer2): Linear(in_features=500, out_features=500, bias=True)
  (layer3): Linear(in_features=500, out_features=3, bias=True)
)
2021-04-10 12:10:21,354:<module>:INFO:
 ----------------------- Starting of new script ----------------------- 

2021-04-10 12:10:21,356:<module>:INFO:Net(
  (acti): LeakyReLU(negative_slope=0.01)
  (layer1): Linear(in_features=3, out_features=500, bias=True)
  (layer2): Linear(in_features=500, out_features=500, bias=True)
  (layer3): Linear(in_features=500, out_features=3, bias=True)
)
2021-04-10 12:10:58,222:<module>:INFO:
 ----------------------- Starting of new script ----------------------- 

2021-04-10 12:10:58,228:<module>:INFO:Net(
  (acti): LeakyReLU(negative_slope=0.01)
  (layer1): Linear(in_features=3, out_features=256, bias=True)
  (layer2): Linear(in_features=256, out_features=256, bias=True)
  (layer3): Linear(in_features=256, out_features=3, bias=True)
)
2021-04-10 12:10:58,254:__init__:INFO:
Constructed 3D Lorenz dataset with: 
2021-04-10 12:10:58,254:__init__:INFO:     lookahead: 50 | tau: 1 | k: 1
2021-04-10 12:10:58,255:__init__:INFO:     size of histories: torch.Size([940, 1, 3]) | size of futures: torch.Size([940, 51, 3])

2021-04-10 12:11:01,570:z1test:WARNING:Warning: data is probably oversampled.
…
2021-04-10 12:11:01,693:<module>:INFO:            | real y: 0.9147781336982879 | learnt y: None
2021-04-10 12:11:01,826:z1test:WARNING:Warning: data is probably oversampled.
2021-04-10 12:11:01,826:z1test:WARNING:Use coarser sampling or reduce the maximum value of c.
2021-04-10 12:11:01,826:<module>:INFO:            | real z: 0.989185935966308 | learnt z: None
2021-04-10 12:11:01,826:<module>:INFO:
 REACHED END OF MAIN
2021-04-10 14:27:43,818:<module>:INFO:
 ----------------------- Starting of new script ----------------------- 

2021-04-10 14:27:43,822:<module>:INFO:Net(
  (acti): LeakyReLU(negative_slope=0.01)
  (layer1): Linear(in_features=3, out_features=256, bias=True)
  (layer2): Linear(in_features=256, out_features=256, bias=True)
  (layer3): Linear(in_features=256, out_features=3, bias=True)
)
2021-04-10 14:27:52,676:<module>:INFO:
 ----------------------- Starting of new script ----------------------- 

2021-04-10 14:27:52,678:<module>:INFO:Net(
  (acti): LeakyReLU(negative_slope=0.01)
  (layer1): Linear(in_features=3, out_features=500, bias=True)
  (layer2): Linear(in_features=500, out_features=500, bias=True)
  (layer3): Linear(in_features=500, out_features=3, bias=True)
)
2021-04-10 14:27:52,710:__init__:INFO:
Constructed 3D Lorenz dataset with: 
2021-04-10 14:27:52,711:__init__:INFO:     lookahead: 50 | tau: 1 | k: 1
2021-04-10 14:27:52,711:__init__:INFO:     size of histories: torch.Size([940, 1, 3]) | size of futures: torch.Size([940, 51, 3])

2021-04-10 14:27:54,380:z1test:WARNING:Warning: data is probably oversampled.
…
2021-04-10 19:50:09,261:<module>:INFO:            | real y: 0.9858532931007264 | learnt y: None
2021-04-10 19:50:09,518:z1test:WARNING:Warning: data is probably oversampled.
2021-04-10 19:50:09,518:z1test:WARNING:Use coarser sampling or reduce the maximum value of c.
2021-04-10 19:50:09,518:<module>:INFO:            | real z: 0.8411956550784828 | learnt z: None
2021-04-10 19:50:09,518:<module>:INFO:
 REACHED END OF MAIN
2021-04-10 19:50:35,293:<module>:INFO:
 ----------------------- Starting of new script ----------------------- 

2021-04-10 19:50:35,296:<module>:INFO:Net(
  (acti): LeakyReLU(negative_slope=0.01)
  (layer1): Linear(in_features=3, out_features=500, bias=True)
  (layer2): Linear(in_features=500, out_features=500, bias=True)
  (layer3): Linear(in_features=500, out_features=3, bias=True)
)
2021-04-10 19:50:35,319:__init__:INFO:
Constructed 3D Lorenz dataset with: 
2021-04-10 19:50:35,320:__init__:INFO:     lookahead: 200 | tau: 1 | k: 1
2021-04-10 19:50:35,320:__init__:INFO:     size of histories: torch.Size([790, 1, 3]) | size of futures: torch.Size([790, 201, 3])

2021-04-10 19:50:56,285:<module>:INFO:
 ----------------------- Starting of new script ----------------------- 

2021-04-10 19:50:56,287:<module>:INFO:Net(
  (acti): LeakyReLU(negative_slope=0.01)
  (layer1): Linear(in_features=3, out_features=500, bias=True)
  (layer2): Linear(in_features=500, out_features=500, bias=True)
  (layer3): Linear(in_features=500, out_features=3, bias=True)
)
2021-04-10 19:50:56,309:__init__:INFO:
Constructed 3D Lorenz dataset with: 
2021-04-10 19:50:56,309:__init__:INFO:     lookahead: 150 | tau: 1 | k: 1
2021-04-10 19:50:56,309:__init__:INFO:     size of histories: torch.Size([840, 1, 3]) | size of futures: torch.Size([840, 151, 3])

2021-04-10 19:51:04,316:z1test:WARNING:Warning: data is probably oversampled.
…
