2021-04-10 12:24:51,569:<module>:INFO:
 ----------------------- Starting of new script ----------------------- 

2021-04-10 12:24:51,572:<module>:INFO:CreationRNN(
  (rnn): GRU(1, 256, batch_first=True)
  (o2o): Linear(in_features=256, out_features=3, bias=True)
)
2021-04-10 12:24:51,572:<module>:INFO:Net(
  (acti): LeakyReLU(negative_slope=0.01)
  (layer1): Linear(in_features=3, out_features=256, bias=True)
  (layer3): Linear(in_features=256, out_features=3, bias=True)
)
2021-04-10 12:26:01,296:<module>:INFO:
 ----------------------- Starting of new script ----------------------- 

2021-04-10 12:26:01,298:<module>:INFO:CreationRNN(
  (rnn): GRU(1, 256, batch_first=True)
  (o2o): Linear(in_features=256, out_features=3, bias=True)
)
2021-04-10 12:26:01,299:<module>:INFO:Net(
  (acti): LeakyReLU(negative_slope=0.01)
  (layer1): Linear(in_features=3, out_features=256, bias=True)
  (layer3): Linear(in_features=256, out_features=3, bias=True)
)
2021-04-10 12:26:16,865:<module>:INFO:
 ----------------------- Starting of new script ----------------------- 

2021-04-10 12:26:16,867:<module>:INFO:CreationRNN(
  (rnn): GRU(1, 256, batch_first=True)
  (o2o): Linear(in_features=256, out_features=3, bias=True)
)
2021-04-10 12:26:16,867:<module>:INFO:Net(
  (acti): LeakyReLU(negative_slope=0.01)
  (layer1): Linear(in_features=3, out_features=256, bias=True)
  (layer3): Linear(in_features=256, out_features=3, bias=True)
)
2021-04-10 12:26:16,883:__init__:INFO:
Constructed 3D Lorenz dataset with: 
2021-04-10 12:26:16,884:__init__:INFO:     lookahead: 2 | tau: 1 | k: 8
2021-04-10 12:26:16,884:__init__:INFO:     size of histories: torch.Size([981, 8, 1]) | size of futures: torch.Size([981, 3, 1])

2021-04-10 12:26:16,898:__init__:INFO:
Constructed 3D Lorenz dataset with: 
2021-04-10 12:26:16,899:__init__:INFO:     lookahead: 2 | tau: 1 | k: 7
2021-04-10 12:26:16,899:__init__:INFO:     size of histories: torch.Size([982, 7, 1]) | size of futures: torch.Size([982, 3, 1])

2021-04-10 12:27:29,737:<module>:INFO:
 ----------------------- Starting of new script ----------------------- 

2021-04-10 12:27:29,739:<module>:INFO:CreationRNN(
  (rnn): GRU(1, 256, batch_first=True)
  (o2o): Linear(in_features=256, out_features=3, bias=True)
)
2021-04-10 12:27:29,739:<module>:INFO:Net(
  (acti): LeakyReLU(negative_slope=0.01)
  (layer1): Linear(in_features=3, out_features=256, bias=True)
  (layer3): Linear(in_features=256, out_features=3, bias=True)
)
2021-04-10 12:27:29,751:__init__:INFO:
Constructed 3D Lorenz dataset with: 
2021-04-10 12:27:29,751:__init__:INFO:     lookahead: 2 | tau: 1 | k: 7
2021-04-10 12:27:29,751:__init__:INFO:     size of histories: torch.Size([982, 7, 1]) | size of futures: torch.Size([982, 3, 1])

2021-04-10 12:27:29,762:__init__:INFO:
Constructed 3D Lorenz dataset with: 
2021-04-10 12:27:29,762:__init__:INFO:     lookahead: 2 | tau: 1 | k: 7
2021-04-10 12:27:29,762:__init__:INFO:     size of histories: torch.Size([982, 7, 1]) | size of futures: torch.Size([982, 3, 1])

2021-04-10 12:28:33,745:<module>:INFO:
 ----------------------- Starting of new script ----------------------- 

2021-04-10 12:28:33,747:<module>:INFO:CreationRNN(
  (rnn): GRU(1, 256, batch_first=True)
  (o2o): Linear(in_features=256, out_features=3, bias=True)
)
2021-04-10 12:28:33,747:<module>:INFO:Net(
  (acti): LeakyReLU(negative_slope=0.01)
  (layer1): Linear(in_features=3, out_features=256, bias=True)
  (layer3): Linear(in_features=256, out_features=3, bias=True)
)
2021-04-10 12:28:33,761:__init__:INFO:
Constructed 3D Lorenz dataset with: 
2021-04-10 12:28:33,761:__init__:INFO:     lookahead: 2 | tau: 1 | k: 7
2021-04-10 12:28:33,761:__init__:INFO:     size of histories: torch.Size([982, 7, 1]) | size of futures: torch.Size([982, 3, 1])

2021-04-10 12:28:33,775:__init__:INFO:
Constructed 3D Lorenz dataset with: 
2021-04-10 12:28:33,775:__init__:INFO:     lookahead: 2 | tau: 1 | k: 7
2021-04-10 12:28:33,775:__init__:INFO:     size of histories: torch.Size([982, 7, 1]) | size of futures: torch.Size([982, 3, 1])

2021-04-10 12:28:46,574:<module>:INFO:
 ----------------------- Starting of new script ----------------------- 

2021-04-10 12:28:46,576:<module>:INFO:CreationRNN(
  (rnn): GRU(1, 256, batch_first=True)
  (o2o): Linear(in_features=256, out_features=3, bias=True)
)
2021-04-10 12:28:46,577:<module>:INFO:Net(
  (acti): LeakyReLU(negative_slope=0.01)
  (layer1): Linear(in_features=3, out_features=256, bias=True)
  (layer3): Linear(in_features=256, out_features=3, bias=True)
)
2021-04-10 12:28:46,590:__init__:INFO:
Constructed 3D Lorenz dataset with: 
2021-04-10 12:28:46,590:__init__:INFO:     lookahead: 2 | tau: 1 | k: 7
2021-04-10 12:28:46,590:__init__:INFO:     size of histories: torch.Size([982, 7, 1]) | size of futures: torch.Size([982, 3, 1])

2021-04-10 12:28:46,601:__init__:INFO:
Constructed 3D Lorenz dataset with: 
2021-04-10 12:28:46,601:__init__:INFO:     lookahead: 2 | tau: 1 | k: 7
2021-04-10 12:28:46,602:__init__:INFO:     size of histories: torch.Size([982, 7, 1]) | size of futures: torch.Size([982, 3, 1])

2021-04-10 12:29:21,133:<module>:INFO:
 ----------------------- Starting of new script ----------------------- 

2021-04-10 12:29:21,136:<module>:INFO:CreationRNN(
  (rnn): GRU(1, 256, batch_first=True)
  (o2o): Linear(in_features=256, out_features=3, bias=True)
)
2021-04-10 12:29:21,136:<module>:INFO:Net(
  (acti): LeakyReLU(negative_slope=0.01)
  (layer1): Linear(in_features=3, out_features=256, bias=True)
  (layer3): Linear(in_features=256, out_features=3, bias=True)
)
2021-04-10 12:29:21,149:__init__:INFO:
Constructed 3D Lorenz dataset with: 
2021-04-10 12:29:21,149:__init__:INFO:     lookahead: 2 | tau: 1 | k: 7
2021-04-10 12:29:21,149:__init__:INFO:     size of histories: torch.Size([982, 7, 1]) | size of futures: torch.Size([982, 3, 1])

2021-04-10 12:29:21,162:__init__:INFO:
Constructed 3D Lorenz dataset with: 
2021-04-10 12:29:21,162:__init__:INFO:     lookahead: 2 | tau: 1 | k: 7
2021-04-10 12:29:21,163:__init__:INFO:     size of histories: torch.Size([982, 7, 1]) | size of futures: torch.Size([982, 3, 1])

2021-04-10 12:29:34,625:<module>:INFO:
 ----------------------- Starting of new script ----------------------- 

2021-04-10 12:29:34,632:<module>:INFO:CreationRNN(
  (rnn): GRU(1, 256, batch_first=True)
  (o2o): Linear(in_features=256, out_features=3, bias=True)
)
2021-04-10 12:29:34,632:<module>:INFO:Net(
  (acti): LeakyReLU(negative_slope=0.01)
  (layer1): Linear(in_features=3, out_features=256, bias=True)
  (layer3): Linear(in_features=256, out_features=3, bias=True)
)
2021-04-10 12:29:34,648:__init__:INFO:
Constructed 3D Lorenz dataset with: 
2021-04-10 12:29:34,648:__init__:INFO:     lookahead: 2 | tau: 1 | k: 7
2021-04-10 12:29:34,648:__init__:INFO:     size of histories: torch.Size([982, 7, 1]) | size of futures: torch.Size([982, 3, 1])

2021-04-10 12:29:34,660:__init__:INFO:
Constructed 3D Lorenz dataset with: 
2021-04-10 12:29:34,660:__init__:INFO:     lookahead: 2 | tau: 1 | k: 7
2021-04-10 12:29:34,660:__init__:INFO:     size of histories: torch.Size([982, 7, 1]) | size of futures: torch.Size([982, 3, 1])

2021-04-10 12:30:02,127:<module>:INFO:
 ----------------------- Starting of new script ----------------------- 

2021-04-10 12:30:02,130:<module>:INFO:CreationRNN(
  (rnn): GRU(1, 256, batch_first=True)
  (o2o): Linear(in_features=256, out_features=3, bias=True)
)
2021-04-10 12:30:02,130:<module>:INFO:Net(
  (acti): LeakyReLU(negative_slope=0.01)
  (layer1): Linear(in_features=3, out_features=256, bias=True)
  (layer3): Linear(in_features=256, out_features=3, bias=True)
)
2021-04-10 12:30:02,146:__init__:INFO:
Constructed 3D Lorenz dataset with: 
2021-04-10 12:30:02,146:__init__:INFO:     lookahead: 2 | tau: 1 | k: 7
2021-04-10 12:30:02,146:__init__:INFO:     size of histories: torch.Size([982, 7, 1]) | size of futures: torch.Size([982, 3, 1])

2021-04-10 12:30:02,158:__init__:INFO:
Constructed 3D Lorenz dataset with: 
2021-04-10 12:30:02,158:__init__:INFO:     lookahead: 2 | tau: 1 | k: 7
2021-04-10 12:30:02,158:__init__:INFO:     size of histories: torch.Size([982, 7, 1]) | size of futures: torch.Size([982, 3, 1])

2021-04-10 12:30:15,057:<module>:INFO:
 ----------------------- Starting of new script ----------------------- 

2021-04-10 12:30:15,059:<module>:INFO:CreationRNN(
  (rnn): GRU(1, 256, batch_first=True)
  (o2o): Linear(in_features=256, out_features=3, bias=True)
)
2021-04-10 12:30:15,059:<module>:INFO:Net(
  (acti): LeakyReLU(negative_slope=0.01)
  (layer1): Linear(in_features=3, out_features=256, bias=True)
  (layer3): Linear(in_features=256, out_features=3, bias=True)
)
2021-04-10 12:30:15,071:__init__:INFO:
Constructed 3D Lorenz dataset with: 
2021-04-10 12:30:15,071:__init__:INFO:     lookahead: 2 | tau: 1 | k: 7
2021-04-10 12:30:15,071:__init__:INFO:     size of histories: torch.Size([982, 7, 1]) | size of futures: torch.Size([982, 3, 1])

2021-04-10 12:30:15,083:__init__:INFO:
Constructed 3D Lorenz dataset with: 
2021-04-10 12:30:15,083:__init__:INFO:     lookahead: 2 | tau: 1 | k: 7
2021-04-10 12:30:15,083:__init__:INFO:     size of histories: torch.Size([982, 7, 1]) | size of futures: torch.Size([982, 3, 1])

2021-04-10 12:30:48,483:<module>:INFO:
 ----------------------- Starting of new script ----------------------- 

2021-04-10 12:30:48,485:<module>:INFO:CreationRNN(
  (rnn): GRU(1, 256, batch_first=True)
  (o2o): Linear(in_features=256, out_features=3, bias=True)
)
2021-04-10 12:30:48,486:<module>:INFO:Net(
  (acti): LeakyReLU(negative_slope=0.01)
  (layer1): Linear(in_features=3, out_features=256, bias=True)
  (layer3): Linear(in_features=256, out_features=3, bias=True)
)
2021-04-10 12:30:48,498:__init__:INFO:
Constructed 3D Lorenz dataset with: 
2021-04-10 12:30:48,498:__init__:INFO:     lookahead: 2 | tau: 1 | k: 7
2021-04-10 12:30:48,498:__init__:INFO:     size of histories: torch.Size([982, 7, 1]) | size of futures: torch.Size([982, 3, 1])

2021-04-10 12:30:48,509:__init__:INFO:
Constructed 3D Lorenz dataset with: 
2021-04-10 12:30:48,509:__init__:INFO:     lookahead: 2 | tau: 1 | k: 7
…
2021-04-10 12:52:38,935:<module>:INFO:EPOCH 250 finished with training loss: 0.3645341992378235 | lr: 0.001 

2021-04-10 12:53:34,727:<module>:INFO:EPOCH 260 finished with training loss: 0.3525438904762268 | lr: 0.001 

2021-04-10 12:54:30,978:<module>:INFO:EPOCH 270 finished with training loss: 0.34222155809402466 | lr: 0.001 

2021-04-10 12:56:55,551:<module>:INFO:EPOCH 280 finished with training loss: 0.3359321057796478 | lr: 0.001 

2021-04-10 13:32:04,497:<module>:INFO:
 ----------------------- Starting of new script ----------------------- 

2021-04-10 13:32:04,500:<module>:INFO:CreationRNN(
  (rnn): GRU(1, 256, batch_first=True)
  (o2o): Linear(in_features=256, out_features=3, bias=True)
)
2021-04-10 13:32:04,500:<module>:INFO:Net(
  (acti): LeakyReLU(negative_slope=0.01)
  (layer1): Linear(in_features=3, out_features=256, bias=True)
  (layer3): Linear(in_features=256, out_features=3, bias=True)
)
2021-04-10 13:32:04,528:__init__:INFO:
Constructed 3D Lorenz dataset with: 
2021-04-10 13:32:04,528:__init__:INFO:     lookahead: 50 | tau: 1 | k: 7
2021-04-10 13:32:04,528:__init__:INFO:     size of histories: torch.Size([934, 7, 1]) | size of futures: torch.Size([934, 51, 1])

2021-04-10 13:32:16,652:<module>:INFO:
 ----------------------- Starting of new script ----------------------- 

2021-04-10 13:32:16,654:<module>:INFO:CreationRNN(
  (rnn): GRU(1, 256, batch_first=True)
  (o2o): Linear(in_features=256, out_features=3, bias=True)
)
2021-04-10 13:32:16,654:<module>:INFO:Net(
  (acti): LeakyReLU(negative_slope=0.01)
  (layer1): Linear(in_features=3, out_features=256, bias=True)
  (layer3): Linear(in_features=256, out_features=3, bias=True)
)
2021-04-10 13:32:16,672:__init__:INFO:
Constructed 3D Lorenz dataset with: 
2021-04-10 13:32:16,672:__init__:INFO:     lookahead: 50 | tau: 1 | k: 7
2021-04-10 13:32:16,672:__init__:INFO:     size of histories: torch.Size([934, 7, 1]) | size of futures: torch.Size([934, 51, 1])

2021-04-10 13:32:46,670:<module>:INFO:
 ----------------------- Starting of new script ----------------------- 

2021-04-10 13:32:46,672:<module>:INFO:CreationRNN(
  (rnn): GRU(1, 256, batch_first=True)
  (o2o): Linear(in_features=256, out_features=3, bias=True)
)
2021-04-10 13:32:46,672:<module>:INFO:Net(
  (acti): LeakyReLU(negative_slope=0.01)
  (layer1): Linear(in_features=3, out_features=256, bias=True)
  (layer3): Linear(in_features=256, out_features=3, bias=True)
)
2021-04-10 13:32:46,689:__init__:INFO:
Constructed 3D Lorenz dataset with: 
2021-04-10 13:32:46,689:__init__:INFO:     lookahead: 50 | tau: 1 | k: 7
2021-04-10 13:32:46,689:__init__:INFO:     size of histories: torch.Size([934, 7, 1]) | size of futures: torch.Size([934, 51, 1])

2021-04-10 13:33:18,851:<module>:INFO:
 ----------------------- Starting of new script ----------------------- 

2021-04-10 13:33:18,853:<module>:INFO:CreationRNN(
  (rnn): GRU(1, 256, batch_first=True)
  (o2o): Linear(in_features=256, out_features=3, bias=True)
)
2021-04-10 13:33:18,853:<module>:INFO:Net(
  (acti): LeakyReLU(negative_slope=0.01)
  (layer1): Linear(in_features=3, out_features=256, bias=True)
  (layer3): Linear(in_features=256, out_features=3, bias=True)
)
2021-04-10 13:33:18,870:__init__:INFO:
Constructed 3D Lorenz dataset with: 
2021-04-10 13:33:18,870:__init__:INFO:     lookahead: 5 | tau: 1 | k: 7
2021-04-10 13:33:18,870:__init__:INFO:     size of histories: torch.Size([979, 7, 1]) | size of futures: torch.Size([979, 6, 1])

2021-04-10 13:33:49,621:<module>:INFO:
 ----------------------- Starting of new script ----------------------- 

2021-04-10 13:33:49,623:<module>:INFO:CreationRNN(
  (rnn): GRU(1, 256, batch_first=True)
  (o2o): Linear(in_features=256, out_features=3, bias=True)
)
2021-04-10 13:33:49,624:<module>:INFO:Net(
  (acti): LeakyReLU(negative_slope=0.01)
  (layer1): Linear(in_features=3, out_features=256, bias=True)
  (layer3): Linear(in_features=256, out_features=3, bias=True)
)
2021-04-10 13:33:49,642:__init__:INFO:
Constructed 3D Lorenz dataset with: 
2021-04-10 13:33:49,642:__init__:INFO:     lookahead: 10 | tau: 1 | k: 7
2021-04-10 13:33:49,642:__init__:INFO:     size of histories: torch.Size([974, 7, 1]) | size of futures: torch.Size([974, 11, 1])

2021-04-10 13:35:31,613:<module>:INFO:
 ----------------------- Starting of new script ----------------------- 

2021-04-10 13:35:31,615:<module>:INFO:CreationRNN(
  (rnn): GRU(1, 256, batch_first=True)
  (o2o): Linear(in_features=256, out_features=3, bias=True)
)
2021-04-10 13:35:31,615:<module>:INFO:Net(
  (acti): LeakyReLU(negative_slope=0.01)
  (layer1): Linear(in_features=3, out_features=256, bias=True)
  (layer3): Linear(in_features=256, out_features=3, bias=True)
)
2021-04-10 13:35:31,631:__init__:INFO:
Constructed 3D Lorenz dataset with: 
2021-04-10 13:35:31,632:__init__:INFO:     lookahead: 10 | tau: 1 | k: 7
2021-04-10 13:35:31,632:__init__:INFO:     size of histories: torch.Size([974, 7, 1]) | size of futures: torch.Size([974, 11, 1])

2021-04-10 13:35:55,032:<module>:INFO:
 ----------------------- Starting of new script ----------------------- 

2021-04-10 13:35:55,034:<module>:INFO:CreationRNN(
  (rnn): GRU(1, 256, batch_first=True)
  (o2o): Linear(in_features=256, out_features=3, bias=True)
)
2021-04-10 13:35:55,034:<module>:INFO:Net(
  (acti): LeakyReLU(negative_slope=0.01)
  (layer1): Linear(in_features=3, out_features=256, bias=True)
  (layer3): Linear(in_features=256, out_features=3, bias=True)
)
2021-04-10 13:35:55,051:__init__:INFO:
Constructed 3D Lorenz dataset with: 
2021-04-10 13:35:55,051:__init__:INFO:     lookahead: 10 | tau: 1 | k: 7
2021-04-10 13:35:55,051:__init__:INFO:     size of histories: torch.Size([974, 7, 1]) | size of futures: torch.Size([974, 11, 1])

2021-04-10 13:36:08,930:<module>:INFO:
 ----------------------- Starting of new script ----------------------- 

2021-04-10 13:36:08,932:<module>:INFO:CreationRNN(
  (rnn): GRU(1, 256, batch_first=True)
  (o2o): Linear(in_features=256, out_features=3, bias=True)
)
2021-04-10 13:36:08,932:<module>:INFO:Net(
  (acti): LeakyReLU(negative_slope=0.01)
  (layer1): Linear(in_features=3, out_features=256, bias=True)
  (layer3): Linear(in_features=256, out_features=3, bias=True)
)
2021-04-10 13:36:08,949:__init__:INFO:
Constructed 3D Lorenz dataset with: 
2021-04-10 13:36:08,949:__init__:INFO:     lookahead: 40 | tau: 1 | k: 7
2021-04-10 13:36:08,949:__init__:INFO:     size of histories: torch.Size([944, 7, 1]) | size of futures: torch.Size([944, 41, 1])

2021-04-10 13:36:53,993:<module>:INFO:
 ----------------------- Starting of new script ----------------------- 

2021-04-10 13:36:53,996:<module>:INFO:CreationRNN(
  (rnn): GRU(1, 256, batch_first=True)
  (o2o): Linear(in_features=256, out_features=3, bias=True)
)
2021-04-10 13:36:53,997:<module>:INFO:Net(
  (acti): LeakyReLU(negative_slope=0.01)
  (layer1): Linear(in_features=3, out_features=256, bias=True)
  (layer3): Linear(in_features=256, out_features=3, bias=True)
)
2021-04-10 13:36:54,016:__init__:INFO:
Constructed 3D Lorenz dataset with: 
2021-04-10 13:36:54,016:__init__:INFO:     lookahead: 2 | tau: 1 | k: 7
2021-04-10 13:36:54,016:__init__:INFO:     size of histories: torch.Size([982, 7, 1]) | size of futures: torch.Size([982, 3, 1])

2021-04-10 13:36:54,033:__init__:INFO:
Constructed 3D Lorenz dataset with: 
2021-04-10 13:36:54,033:__init__:INFO:     lookahead: 2 | tau: 1 | k: 7
…
2021-04-10 13:37:25,534:__init__:INFO:     size of histories: torch.Size([982, 7, 1]) | size of futures: torch.Size([982, 3, 1])

2021-04-10 13:37:25,546:__init__:INFO:
Constructed 3D Lorenz dataset with: 
2021-04-10 13:37:25,546:__init__:INFO:     lookahead: 2 | tau: 1 | k: 7
2021-04-10 13:37:25,546:__init__:INFO:     size of histories: torch.Size([982, 7, 1]) | size of futures: torch.Size([982, 3, 1])

2021-04-10 13:37:26,074:<module>:INFO:EPOCH 0 finished with training loss: 6.265589237213135 | lr: 0.001 
2021-04-10 13:37:48,315:<module>:INFO:
 ----------------------- Starting of new script ----------------------- 

2021-04-10 13:37:48,319:<module>:INFO:CreationRNN(
  (rnn): GRU(1, 256, batch_first=True)
  (o2o): Linear(in_features=256, out_features=3, bias=True)
)
2021-04-10 13:37:48,319:<module>:INFO:Net(
  (acti): LeakyReLU(negative_slope=0.01)
  (layer1): Linear(in_features=3, out_features=256, bias=True)
  (layer3): Linear(in_features=256, out_features=3, bias=True)
)
2021-04-10 13:37:48,335:__init__:INFO:
Constructed 3D Lorenz dataset with: 
2021-04-10 13:37:48,335:__init__:INFO:     lookahead: 1 | tau: 1 | k: 7
2021-04-10 13:37:48,336:__init__:INFO:     size of histories: torch.Size([983, 7, 1]) | size of futures: torch.Size([983, 2, 1])

2021-04-10 13:37:48,350:__init__:INFO:
Constructed 3D Lorenz dataset with: 
2021-04-10 13:37:48,350:__init__:INFO:     lookahead: 1 | tau: 1 | k: 7
2021-04-10 13:37:48,350:__init__:INFO:     size of histories: torch.Size([983, 7, 1]) | size of futures: torch.Size([983, 2, 1])

2021-04-10 13:38:31,629:<module>:INFO:
 ----------------------- Starting of new script ----------------------- 

2021-04-10 13:38:31,631:<module>:INFO:CreationRNN(
  (rnn): GRU(1, 256, batch_first=True)
  (o2o): Linear(in_features=256, out_features=3, bias=True)
)
2021-04-10 13:38:31,631:<module>:INFO:Net(
  (acti): LeakyReLU(negative_slope=0.01)
  (layer1): Linear(in_features=3, out_features=256, bias=True)
  (layer3): Linear(in_features=256, out_features=3, bias=True)
)
2021-04-10 13:38:31,646:__init__:INFO:
Constructed 3D Lorenz dataset with: 
2021-04-10 13:38:31,646:__init__:INFO:     lookahead: 1 | tau: 1 | k: 7
2021-04-10 13:38:31,646:__init__:INFO:     size of histories: torch.Size([983, 7, 1]) | size of futures: torch.Size([983, 2, 1])

2021-04-10 13:38:31,658:__init__:INFO:
Constructed 3D Lorenz dataset with: 
2021-04-10 13:38:31,659:__init__:INFO:     lookahead: 1 | tau: 1 | k: 7
2021-04-10 13:38:31,659:__init__:INFO:     size of histories: torch.Size([983, 7, 1]) | size of futures: torch.Size([983, 2, 1])

2021-04-10 13:40:17,022:<module>:INFO:
 ----------------------- Starting of new script ----------------------- 

2021-04-10 13:40:17,024:<module>:INFO:CreationRNN(
  (rnn): GRU(1, 256, batch_first=True)
  (o2o): Linear(in_features=256, out_features=3, bias=True)
)
2021-04-10 13:40:17,024:<module>:INFO:Net(
  (acti): LeakyReLU(negative_slope=0.01)
  (layer1): Linear(in_features=3, out_features=256, bias=True)
  (layer3): Linear(in_features=256, out_features=3, bias=True)
)
2021-04-10 13:40:17,038:__init__:INFO:
Constructed 3D Lorenz dataset with: 
2021-04-10 13:40:17,038:__init__:INFO:     lookahead: 1 | tau: 1 | k: 7
2021-04-10 13:40:17,038:__init__:INFO:     size of histories: torch.Size([983, 7, 1]) | size of futures: torch.Size([983, 2, 1])

2021-04-10 13:40:17,050:__init__:INFO:
Constructed 3D Lorenz dataset with: 
2021-04-10 13:40:17,051:__init__:INFO:     lookahead: 1 | tau: 1 | k: 7
2021-04-10 13:40:17,051:__init__:INFO:     size of histories: torch.Size([983, 7, 1]) | size of futures: torch.Size([983, 2, 1])

2021-04-10 13:40:41,474:<module>:INFO:
 ----------------------- Starting of new script ----------------------- 

2021-04-10 13:40:41,476:<module>:INFO:CreationRNN(
  (rnn): GRU(1, 256, batch_first=True)
  (o2o): Linear(in_features=256, out_features=3, bias=True)
)
2021-04-10 13:40:41,476:<module>:INFO:Net(
  (acti): LeakyReLU(negative_slope=0.01)
  (layer1): Linear(in_features=3, out_features=256, bias=True)
  (layer3): Linear(in_features=256, out_features=3, bias=True)
)
2021-04-10 13:40:41,488:__init__:INFO:
Constructed 3D Lorenz dataset with: 
2021-04-10 13:40:41,488:__init__:INFO:     lookahead: 1 | tau: 1 | k: 7
2021-04-10 13:40:41,489:__init__:INFO:     size of histories: torch.Size([983, 7, 1]) | size of futures: torch.Size([983, 2, 1])

2021-04-10 13:40:41,499:__init__:INFO:
Constructed 3D Lorenz dataset with: 
2021-04-10 13:40:41,499:__init__:INFO:     lookahead: 1 | tau: 1 | k: 7
2021-04-10 13:40:41,500:__init__:INFO:     size of histories: torch.Size([983, 7, 1]) | size of futures: torch.Size([983, 2, 1])

2021-04-10 13:41:04,253:<module>:INFO:
 ----------------------- Starting of new script ----------------------- 

2021-04-10 13:41:04,256:<module>:INFO:CreationRNN(
  (rnn): GRU(1, 256, batch_first=True)
  (o2o): Linear(in_features=256, out_features=3, bias=True)
)
2021-04-10 13:41:04,256:<module>:INFO:Net(
  (acti): LeakyReLU(negative_slope=0.01)
  (layer1): Linear(in_features=3, out_features=256, bias=True)
  (layer3): Linear(in_features=256, out_features=3, bias=True)
)
2021-04-10 13:41:04,268:__init__:INFO:
Constructed 3D Lorenz dataset with: 
2021-04-10 13:41:04,268:__init__:INFO:     lookahead: 1 | tau: 1 | k: 7
2021-04-10 13:41:04,268:__init__:INFO:     size of histories: torch.Size([983, 7, 1]) | size of futures: torch.Size([983, 2, 1])

2021-04-10 13:41:04,279:__init__:INFO:
Constructed 3D Lorenz dataset with: 
2021-04-10 13:41:04,279:__init__:INFO:     lookahead: 1 | tau: 1 | k: 7
2021-04-10 13:41:04,279:__init__:INFO:     size of histories: torch.Size([983, 7, 1]) | size of futures: torch.Size([983, 2, 1])

2021-04-10 13:41:45,947:<module>:INFO:
 ----------------------- Starting of new script ----------------------- 

2021-04-10 13:41:45,949:<module>:INFO:CreationRNN(
  (rnn): GRU(1, 256, batch_first=True)
  (o2o): Linear(in_features=256, out_features=3, bias=True)
)
2021-04-10 13:41:45,949:<module>:INFO:Net(
  (acti): LeakyReLU(negative_slope=0.01)
  (layer1): Linear(in_features=3, out_features=256, bias=True)
  (layer3): Linear(in_features=256, out_features=3, bias=True)
)
2021-04-10 13:41:45,961:__init__:INFO:
Constructed 3D Lorenz dataset with: 
2021-04-10 13:41:45,961:__init__:INFO:     lookahead: 1 | tau: 1 | k: 7
2021-04-10 13:41:45,961:__init__:INFO:     size of histories: torch.Size([983, 7, 1]) | size of futures: torch.Size([983, 2, 1])

2021-04-10 13:41:45,972:__init__:INFO:
Constructed 3D Lorenz dataset with: 
2021-04-10 13:41:45,972:__init__:INFO:     lookahead: 1 | tau: 1 | k: 7
2021-04-10 13:41:45,972:__init__:INFO:     size of histories: torch.Size([983, 7, 1]) | size of futures: torch.Size([983, 2, 1])

2021-04-10 13:43:23,796:<module>:INFO:
 ----------------------- Starting of new script ----------------------- 

2021-04-10 13:43:23,798:<module>:INFO:CreationRNN(
  (rnn): GRU(1, 256, batch_first=True)
  (o2o): Linear(in_features=256, out_features=3, bias=True)
)
2021-04-10 13:43:23,798:<module>:INFO:Net(
  (acti): LeakyReLU(negative_slope=0.01)
  (layer1): Linear(in_features=3, out_features=256, bias=True)
  (layer3): Linear(in_features=256, out_features=3, bias=True)
)
2021-04-10 13:43:23,810:__init__:INFO:
Constructed 3D Lorenz dataset with: 
2021-04-10 13:43:23,810:__init__:INFO:     lookahead: 1 | tau: 1 | k: 7
2021-04-10 13:43:23,810:__init__:INFO:     size of histories: torch.Size([983, 7, 1]) | size of futures: torch.Size([983, 2, 1])

2021-04-10 13:43:23,821:__init__:INFO:
Constructed 3D Lorenz dataset with: 
2021-04-10 13:43:23,821:__init__:INFO:     lookahead: 1 | tau: 1 | k: 7
2021-04-10 13:43:23,821:__init__:INFO:     size of histories: torch.Size([983, 7, 1]) | size of futures: torch.Size([983, 2, 1])

2021-04-10 13:43:31,140:<module>:INFO:
 ----------------------- Starting of new script ----------------------- 

2021-04-10 13:43:31,142:<module>:INFO:CreationRNN(
  (rnn): GRU(1, 256, batch_first=True)
  (o2o): Linear(in_features=256, out_features=3, bias=True)
)
2021-04-10 13:43:31,142:<module>:INFO:Net(
  (acti): LeakyReLU(negative_slope=0.01)
  (layer1): Linear(in_features=3, out_features=256, bias=True)
  (layer3): Linear(in_features=256, out_features=3, bias=True)
)
2021-04-10 13:43:31,154:__init__:INFO:
Constructed 3D Lorenz dataset with: 
2021-04-10 13:43:31,154:__init__:INFO:     lookahead: 1 | tau: 1 | k: 7
2021-04-10 13:43:31,154:__init__:INFO:     size of histories: torch.Size([983, 7, 1]) | size of futures: torch.Size([983, 2, 1])

2021-04-10 13:43:31,166:__init__:INFO:
Constructed 3D Lorenz dataset with: 
2021-04-10 13:43:31,166:__init__:INFO:     lookahead: 1 | tau: 1 | k: 7
2021-04-10 13:43:31,166:__init__:INFO:     size of histories: torch.Size([983, 7, 1]) | size of futures: torch.Size([983, 2, 1])

2021-04-10 13:46:17,672:<module>:INFO:
 ----------------------- Starting of new script ----------------------- 

2021-04-10 13:46:17,674:<module>:INFO:CreationRNN(
  (rnn): GRU(1, 256, batch_first=True)
  (o2o): Linear(in_features=256, out_features=3, bias=True)
)
2021-04-10 13:46:17,674:<module>:INFO:Net(
  (acti): LeakyReLU(negative_slope=0.01)
  (layer1): Linear(in_features=3, out_features=256, bias=True)
  (layer3): Linear(in_features=256, out_features=3, bias=True)
)
2021-04-10 13:46:17,686:__init__:INFO:
Constructed 3D Lorenz dataset with: 
2021-04-10 13:46:17,686:__init__:INFO:     lookahead: 1 | tau: 1 | k: 7
2021-04-10 13:46:17,686:__init__:INFO:     size of histories: torch.Size([983, 7, 1]) | size of futures: torch.Size([983, 2, 1])

2021-04-10 13:46:17,699:__init__:INFO:
Constructed 3D Lorenz dataset with: 
2021-04-10 13:46:17,699:__init__:INFO:     lookahead: 1 | tau: 1 | k: 7
2021-04-10 13:46:17,699:__init__:INFO:     size of histories: torch.Size([983, 7, 1]) | size of futures: torch.Size([983, 2, 1])

2021-04-10 13:46:41,575:<module>:INFO:
 ----------------------- Starting of new script ----------------------- 

2021-04-10 13:46:41,577:<module>:INFO:CreationRNN(
  (rnn): GRU(1, 256, batch_first=True)
  (o2o): Linear(in_features=256, out_features=3, bias=True)
)
2021-04-10 13:46:41,577:<module>:INFO:Net(
  (acti): LeakyReLU(negative_slope=0.01)
  (layer1): Linear(in_features=3, out_features=256, bias=True)
  (layer3): Linear(in_features=256, out_features=3, bias=True)
)
2021-04-10 13:46:41,590:__init__:INFO:
Constructed 3D Lorenz dataset with: 
2021-04-10 13:46:41,590:__init__:INFO:     lookahead: 1 | tau: 1 | k: 7
2021-04-10 13:46:41,590:__init__:INFO:     size of histories: torch.Size([983, 7, 1]) | size of futures: torch.Size([983, 2, 1])

2021-04-10 13:46:41,601:__init__:INFO:
Constructed 3D Lorenz dataset with: 
2021-04-10 13:46:41,601:__init__:INFO:     lookahead: 1 | tau: 1 | k: 7
2021-04-10 13:46:41,601:__init__:INFO:     size of histories: torch.Size([983, 7, 1]) | size of futures: torch.Size([983, 2, 1])

2021-04-10 13:46:58,206:<module>:INFO:
 ----------------------- Starting of new script ----------------------- 

2021-04-10 13:46:58,208:<module>:INFO:CreationRNN(
  (rnn): GRU(1, 256, batch_first=True)
  (o2o): Linear(in_features=256, out_features=3, bias=True)
)
2021-04-10 13:46:58,208:<module>:INFO:Net(
  (acti): LeakyReLU(negative_slope=0.01)
  (layer1): Linear(in_features=3, out_features=256, bias=True)
  (layer3): Linear(in_features=256, out_features=3, bias=True)
)
2021-04-10 13:46:58,220:__init__:INFO:
Constructed 3D Lorenz dataset with: 
2021-04-10 13:46:58,220:__init__:INFO:     lookahead: 1 | tau: 1 | k: 7
2021-04-10 13:46:58,220:__init__:INFO:     size of histories: torch.Size([983, 7, 1]) | size of futures: torch.Size([983, 2, 1])

2021-04-10 13:46:58,232:__init__:INFO:
Constructed 3D Lorenz dataset with: 
2021-04-10 13:46:58,232:__init__:INFO:     lookahead: 1 | tau: 1 | k: 7
2021-04-10 13:46:58,232:__init__:INFO:     size of histories: torch.Size([983, 7, 1]) | size of futures: torch.Size([983, 2, 1])

2021-04-10 13:47:12,085:<module>:INFO:
 ----------------------- Starting of new script ----------------------- 

2021-04-10 13:47:12,087:<module>:INFO:CreationRNN(
  (rnn): GRU(1, 256, batch_first=True)
  (o2o): Linear(in_features=256, out_features=3, bias=True)
)
2021-04-10 13:47:12,087:<module>:INFO:Net(
  (acti): LeakyReLU(negative_slope=0.01)
  (layer1): Linear(in_features=3, out_features=256, bias=True)
  (layer3): Linear(in_features=256, out_features=3, bias=True)
)
2021-04-10 13:47:12,099:__init__:INFO:
Constructed 3D Lorenz dataset with: 
2021-04-10 13:47:12,099:__init__:INFO:     lookahead: 2 | tau: 1 | k: 7
2021-04-10 13:47:12,100:__init__:INFO:     size of histories: torch.Size([982, 7, 1]) | size of futures: torch.Size([982, 3, 1])

2021-04-10 13:47:12,110:__init__:INFO:
Constructed 3D Lorenz dataset with: 
2021-04-10 13:47:12,111:__init__:INFO:     lookahead: 2 | tau: 1 | k: 7
2021-04-10 13:47:12,111:__init__:INFO:     size of histories: torch.Size([982, 7, 1]) | size of futures: torch.Size([982, 3, 1])

2021-04-10 13:47:12,575:<module>:INFO:EPOCH 0 finished with training loss: 6.080559253692627 | lr: 0.001 
2021-04-10 13:47:18,464:<module>:INFO:
 ----------------------- Starting of new script ----------------------- 

2021-04-10 13:47:18,466:<module>:INFO:CreationRNN(
  (rnn): GRU(1, 256, batch_first=True)
  (o2o): Linear(in_features=256, out_features=3, bias=True)
)
2021-04-10 13:47:18,467:<module>:INFO:Net(
  (acti): LeakyReLU(negative_slope=0.01)
  (layer1): Linear(in_features=3, out_features=256, bias=True)
  (layer3): Linear(in_features=256, out_features=3, bias=True)
)
2021-04-10 13:47:18,479:__init__:INFO:
Constructed 3D Lorenz dataset with: 
2021-04-10 13:47:18,479:__init__:INFO:     lookahead: 1 | tau: 1 | k: 7
2021-04-10 13:47:18,479:__init__:INFO:     size of histories: torch.Size([983, 7, 1]) | size of futures: torch.Size([983, 2, 1])

2021-04-10 13:47:18,490:__init__:INFO:
Constructed 3D Lorenz dataset with: 
2021-04-10 13:47:18,490:__init__:INFO:     lookahead: 1 | tau: 1 | k: 7
2021-04-10 13:47:18,490:__init__:INFO:     size of histories: torch.Size([983, 7, 1]) | size of futures: torch.Size([983, 2, 1])

2021-04-10 13:48:50,373:<module>:INFO:
 ----------------------- Starting of new script ----------------------- 

2021-04-10 13:48:50,376:<module>:INFO:CreationRNN(
  (rnn): GRU(1, 256, batch_first=True)
  (o2o): Linear(in_features=256, out_features=3, bias=True)
)
2021-04-10 13:48:50,376:<module>:INFO:Net(
  (acti): LeakyReLU(negative_slope=0.01)
  (layer1): Linear(in_features=3, out_features=256, bias=True)
  (layer3): Linear(in_features=256, out_features=3, bias=True)
)
2021-04-10 13:48:50,388:__init__:INFO:
Constructed 3D Lorenz dataset with: 
2021-04-10 13:48:50,388:__init__:INFO:     lookahead: 1 | tau: 1 | k: 7
2021-04-10 13:48:50,388:__init__:INFO:     size of histories: torch.Size([983, 7, 1]) | size of futures: torch.Size([983, 2, 1])

2021-04-10 13:48:50,402:__init__:INFO:
Constructed 3D Lorenz dataset with: 
2021-04-10 13:48:50,403:__init__:INFO:     lookahead: 1 | tau: 1 | k: 7
2021-04-10 13:48:50,403:__init__:INFO:     size of histories: torch.Size([983, 7, 1]) | size of futures: torch.Size([983, 2, 1])

2021-04-10 13:49:01,800:<module>:INFO:
 ----------------------- Starting of new script ----------------------- 

2021-04-10 13:49:01,802:<module>:INFO:CreationRNN(
  (rnn): GRU(1, 256, batch_first=True)
  (o2o): Linear(in_features=256, out_features=3, bias=True)
)
2021-04-10 13:49:01,802:<module>:INFO:Net(
  (acti): LeakyReLU(negative_slope=0.01)
  (layer1): Linear(in_features=3, out_features=256, bias=True)
  (layer3): Linear(in_features=256, out_features=3, bias=True)
)
2021-04-10 13:49:01,815:__init__:INFO:
Constructed 3D Lorenz dataset with: 
2021-04-10 13:49:01,815:__init__:INFO:     lookahead: 1 | tau: 1 | k: 7
2021-04-10 13:49:01,815:__init__:INFO:     size of histories: torch.Size([983, 7, 1]) | size of futures: torch.Size([983, 2, 1])

2021-04-10 13:49:01,826:__init__:INFO:
Constructed 3D Lorenz dataset with: 
2021-04-10 13:49:01,826:__init__:INFO:     lookahead: 1 | tau: 1 | k: 7
2021-04-10 13:49:01,826:__init__:INFO:     size of histories: torch.Size([983, 7, 1]) | size of futures: torch.Size([983, 2, 1])

2021-04-10 13:52:28,121:<module>:INFO:
 ----------------------- Starting of new script ----------------------- 

2021-04-10 13:52:28,123:<module>:INFO:CreationRNN(
  (rnn): GRU(1, 256, batch_first=True)
  (o2o): Linear(in_features=256, out_features=3, bias=True)
)
2021-04-10 13:52:28,123:<module>:INFO:Net(
  (acti): LeakyReLU(negative_slope=0.01)
  (layer1): Linear(in_features=3, out_features=256, bias=True)
  (layer3): Linear(in_features=256, out_features=3, bias=True)
)
2021-04-10 13:52:28,137:__init__:INFO:
Constructed 3D Lorenz dataset with: 
2021-04-10 13:52:28,137:__init__:INFO:     lookahead: 1 | tau: 1 | k: 7
2021-04-10 13:52:28,137:__init__:INFO:     size of histories: torch.Size([983, 7, 1]) | size of futures: torch.Size([983, 2, 1])

2021-04-10 13:52:28,149:__init__:INFO:
Constructed 3D Lorenz dataset with: 
2021-04-10 13:52:28,149:__init__:INFO:     lookahead: 1 | tau: 1 | k: 7
2021-04-10 13:52:28,149:__init__:INFO:     size of histories: torch.Size([983, 7, 1]) | size of futures: torch.Size([983, 2, 1])

2021-04-10 13:52:50,879:<module>:INFO:
 ----------------------- Starting of new script ----------------------- 

2021-04-10 13:52:50,881:<module>:INFO:CreationRNN(
  (rnn): GRU(1, 256, batch_first=True)
  (o2o): Linear(in_features=256, out_features=3, bias=True)
)
2021-04-10 13:52:50,882:<module>:INFO:Net(
  (acti): LeakyReLU(negative_slope=0.01)
  (layer1): Linear(in_features=3, out_features=256, bias=True)
  (layer3): Linear(in_features=256, out_features=3, bias=True)
)
2021-04-10 13:52:50,894:__init__:INFO:
Constructed 3D Lorenz dataset with: 
2021-04-10 13:52:50,894:__init__:INFO:     lookahead: 1 | tau: 1 | k: 7
2021-04-10 13:52:50,894:__init__:INFO:     size of histories: torch.Size([983, 7, 1]) | size of futures: torch.Size([983, 2, 1])

2021-04-10 13:52:50,905:__init__:INFO:
Constructed 3D Lorenz dataset with: 
2021-04-10 13:52:50,905:__init__:INFO:     lookahead: 1 | tau: 1 | k: 7
2021-04-10 13:52:50,905:__init__:INFO:     size of histories: torch.Size([983, 7, 1]) | size of futures: torch.Size([983, 2, 1])

2021-04-10 13:53:26,747:<module>:INFO:
 ----------------------- Starting of new script ----------------------- 

2021-04-10 13:53:26,749:<module>:INFO:CreationRNN(
  (rnn): GRU(1, 256, batch_first=True)
  (o2o): Linear(in_features=256, out_features=3, bias=True)
)
2021-04-10 13:53:26,749:<module>:INFO:Net(
  (acti): LeakyReLU(negative_slope=0.01)
  (layer1): Linear(in_features=3, out_features=256, bias=True)
  (layer3): Linear(in_features=256, out_features=3, bias=True)
)
2021-04-10 13:53:26,762:__init__:INFO:
Constructed 3D Lorenz dataset with: 
2021-04-10 13:53:26,762:__init__:INFO:     lookahead: 1 | tau: 1 | k: 7
2021-04-10 13:53:26,762:__init__:INFO:     size of histories: torch.Size([983, 7, 1]) | size of futures: torch.Size([983, 2, 1])

2021-04-10 13:53:26,773:__init__:INFO:
Constructed 3D Lorenz dataset with: 
2021-04-10 13:53:26,773:__init__:INFO:     lookahead: 1 | tau: 1 | k: 7
2021-04-10 13:53:26,773:__init__:INFO:     size of histories: torch.Size([983, 7, 1]) | size of futures: torch.Size([983, 2, 1])

2021-04-10 13:54:00,570:<module>:INFO:
 ----------------------- Starting of new script ----------------------- 

2021-04-10 13:54:00,573:<module>:INFO:CreationRNN(
  (rnn): GRU(1, 256, batch_first=True)
  (o2o): Linear(in_features=256, out_features=3, bias=True)
)
2021-04-10 13:54:00,573:<module>:INFO:Net(
  (acti): LeakyReLU(negative_slope=0.01)
  (layer1): Linear(in_features=3, out_features=256, bias=True)
  (layer3): Linear(in_features=256, out_features=3, bias=True)
)
2021-04-10 13:54:00,586:__init__:INFO:
Constructed 3D Lorenz dataset with: 
2021-04-10 13:54:00,586:__init__:INFO:     lookahead: 1 | tau: 1 | k: 7
2021-04-10 13:54:00,586:__init__:INFO:     size of histories: torch.Size([983, 7, 1]) | size of futures: torch.Size([983, 2, 1])

2021-04-10 13:54:00,599:__init__:INFO:
Constructed 3D Lorenz dataset with: 
2021-04-10 13:54:00,599:__init__:INFO:     lookahead: 1 | tau: 1 | k: 7
2021-04-10 13:54:00,599:__init__:INFO:     size of histories: torch.Size([983, 7, 1]) | size of futures: torch.Size([983, 2, 1])

2021-04-10 13:54:11,830:<module>:INFO:
 ----------------------- Starting of new script ----------------------- 

2021-04-10 13:54:11,832:<module>:INFO:CreationRNN(
  (rnn): GRU(1, 256, batch_first=True)
  (o2o): Linear(in_features=256, out_features=3, bias=True)
)
2021-04-10 13:54:11,832:<module>:INFO:Net(
  (acti): LeakyReLU(negative_slope=0.01)
  (layer1): Linear(in_features=3, out_features=256, bias=True)
  (layer3): Linear(in_features=256, out_features=3, bias=True)
)
2021-04-10 13:54:11,847:__init__:INFO:
Constructed 3D Lorenz dataset with: 
2021-04-10 13:54:11,847:__init__:INFO:     lookahead: 2 | tau: 1 | k: 7
2021-04-10 13:54:11,847:__init__:INFO:     size of histories: torch.Size([982, 7, 1]) | size of futures: torch.Size([982, 3, 1])

2021-04-10 13:54:11,860:__init__:INFO:
Constructed 3D Lorenz dataset with: 
2021-04-10 13:54:11,860:__init__:INFO:     lookahead: 2 | tau: 1 | k: 7
2021-04-10 13:54:11,860:__init__:INFO:     size of histories: torch.Size([982, 7, 1]) | size of futures: torch.Size([982, 3, 1])

2021-04-10 13:54:12,396:<module>:INFO:EPOCH 0 finished with training loss: 5.826301097869873 | lr: 0.001 
2021-04-10 13:54:28,099:<module>:INFO:
 ----------------------- Starting of new script ----------------------- 

2021-04-10 13:54:28,102:<module>:INFO:CreationRNN(
  (rnn): GRU(1, 256, batch_first=True)
  (o2o): Linear(in_features=256, out_features=3, bias=True)
)
2021-04-10 13:54:28,103:<module>:INFO:Net(
  (acti): LeakyReLU(negative_slope=0.01)
  (layer1): Linear(in_features=3, out_features=256, bias=True)
  (layer3): Linear(in_features=256, out_features=3, bias=True)
)
2021-04-10 13:54:28,118:__init__:INFO:
Constructed 3D Lorenz dataset with: 
2021-04-10 13:54:28,118:__init__:INFO:     lookahead: 1 | tau: 1 | k: 7
2021-04-10 13:54:28,119:__init__:INFO:     size of histories: torch.Size([983, 7, 1]) | size of futures: torch.Size([983, 2, 1])

2021-04-10 13:54:28,132:__init__:INFO:
Constructed 3D Lorenz dataset with: 
2021-04-10 13:54:28,132:__init__:INFO:     lookahead: 1 | tau: 1 | k: 7
2021-04-10 13:54:28,132:__init__:INFO:     size of histories: torch.Size([983, 7, 1]) | size of futures: torch.Size([983, 2, 1])

2021-04-10 13:55:04,930:<module>:INFO:
 ----------------------- Starting of new script ----------------------- 

2021-04-10 13:55:04,932:<module>:INFO:CreationRNN(
  (rnn): GRU(1, 256, batch_first=True)
  (o2o): Linear(in_features=256, out_features=3, bias=True)
)
2021-04-10 13:55:04,932:<module>:INFO:Net(
  (acti): LeakyReLU(negative_slope=0.01)
  (layer1): Linear(in_features=3, out_features=256, bias=True)
  (layer3): Linear(in_features=256, out_features=3, bias=True)
)
2021-04-10 13:55:04,944:__init__:INFO:
Constructed 3D Lorenz dataset with: 
2021-04-10 13:55:04,945:__init__:INFO:     lookahead: 1 | tau: 1 | k: 7
2021-04-10 13:55:04,945:__init__:INFO:     size of histories: torch.Size([983, 7, 1]) | size of futures: torch.Size([983, 2, 1])

2021-04-10 13:55:04,956:__init__:INFO:
Constructed 3D Lorenz dataset with: 
2021-04-10 13:55:04,956:__init__:INFO:     lookahead: 1 | tau: 1 | k: 7
…
2021-04-10 13:56:47,786:<module>:INFO:EPOCH 30 finished with training loss: 0.8006798028945923 | lr: 0.001 
2021-04-10 13:57:28,878:<module>:INFO:EPOCH 40 finished with training loss: 0.6725139617919922 | lr: 0.001 
2021-04-10 13:58:10,967:<module>:INFO:EPOCH 50 finished with training loss: 0.6567930579185486 | lr: 0.001 
2021-04-10 13:58:53,604:<module>:INFO:EPOCH 60 finished with training loss: 0.7083802819252014 | lr: 0.001 
2021-04-10 13:59:40,699:<module>:INFO:
 ----------------------- Starting of new script ----------------------- 

2021-04-10 13:59:40,701:<module>:INFO:CreationRNN(
  (rnn): GRU(1, 256, batch_first=True)
  (o2o): Linear(in_features=256, out_features=3, bias=True)
)
2021-04-10 13:59:40,701:<module>:INFO:Net(
  (acti): LeakyReLU(negative_slope=0.01)
  (layer1): Linear(in_features=3, out_features=256, bias=True)
  (layer3): Linear(in_features=256, out_features=3, bias=True)
)
2021-04-10 13:59:40,718:__init__:INFO:
Constructed 3D Lorenz dataset with: 
2021-04-10 13:59:40,718:__init__:INFO:     lookahead: 40 | tau: 1 | k: 7
2021-04-10 13:59:40,718:__init__:INFO:     size of histories: torch.Size([944, 7, 1]) | size of futures: torch.Size([944, 41, 1])

2021-04-10 13:59:55,153:<module>:INFO:
 ----------------------- Starting of new script ----------------------- 

2021-04-10 13:59:55,155:<module>:INFO:CreationRNN(
  (rnn): GRU(1, 256, batch_first=True)
  (o2o): Linear(in_features=256, out_features=3, bias=True)
)
2021-04-10 13:59:55,156:<module>:INFO:Net(
  (acti): LeakyReLU(negative_slope=0.01)
  (layer1): Linear(in_features=3, out_features=256, bias=True)
  (layer3): Linear(in_features=256, out_features=3, bias=True)
)
2021-04-10 13:59:55,172:__init__:INFO:
Constructed 3D Lorenz dataset with: 
2021-04-10 13:59:55,172:__init__:INFO:     lookahead: 10 | tau: 1 | k: 7
2021-04-10 13:59:55,172:__init__:INFO:     size of histories: torch.Size([974, 7, 1]) | size of futures: torch.Size([974, 11, 1])

2021-04-10 14:01:36,281:<module>:INFO:
 ----------------------- Starting of new script ----------------------- 

2021-04-10 14:01:36,286:<module>:INFO:CreationRNN(
  (rnn): GRU(1, 256, num_layers=2, batch_first=True)
  (o2o): Linear(in_features=256, out_features=3, bias=True)
)
2021-04-10 14:01:36,286:<module>:INFO:Net(
  (acti): LeakyReLU(negative_slope=0.01)
  (layer1): Linear(in_features=3, out_features=256, bias=True)
  (layer2): Linear(in_features=256, out_features=256, bias=True)
  (layer3): Linear(in_features=256, out_features=3, bias=True)
)
2021-04-10 14:01:36,302:__init__:INFO:
Constructed 3D Lorenz dataset with: 
2021-04-10 14:01:36,302:__init__:INFO:     lookahead: 2 | tau: 1 | k: 7
2021-04-10 14:01:36,302:__init__:INFO:     size of histories: torch.Size([1964, 7, 1]) | size of futures: torch.Size([1964, 3, 1])

2021-04-10 14:01:36,317:__init__:INFO:
Constructed 3D Lorenz dataset with: 
…
2021-04-10 14:03:28,011:<module>:INFO:EPOCH 10 finished with training loss: 6.204192161560059 | lr: 0.001 
2021-04-10 14:05:00,243:<module>:INFO:EPOCH 20 finished with training loss: 5.799544811248779 | lr: 0.001 
2021-04-10 14:15:26,218:<module>:INFO:EPOCH 30 finished with training loss: 2.745741128921509 | lr: 0.001 
2021-04-10 14:45:32,215:<module>:INFO:EPOCH 40 finished with training loss: 1.8456056118011475 | lr: 0.001 
2021-04-10 14:46:17,831:<module>:INFO:
 ----------------------- Starting of new script ----------------------- 

2021-04-10 14:46:17,842:<module>:INFO:CreationRNN(
  (rnn): GRU(1, 256, num_layers=2, batch_first=True)
  (o2o): Linear(in_features=256, out_features=3, bias=True)
)
2021-04-10 14:46:17,842:<module>:INFO:Net(
  (acti): LeakyReLU(negative_slope=0.01)
  (layer1): Linear(in_features=3, out_features=256, bias=True)
  (layer2): Linear(in_features=256, out_features=256, bias=True)
  (layer3): Linear(in_features=256, out_features=3, bias=True)
)
2021-04-10 14:46:17,873:__init__:INFO:
Constructed 3D Lorenz dataset with: 
2021-04-10 14:46:17,873:__init__:INFO:     lookahead: 10 | tau: 1 | k: 7
2021-04-10 14:46:17,874:__init__:INFO:     size of histories: torch.Size([974, 7, 1]) | size of futures: torch.Size([974, 11, 1])

2021-04-10 14:46:42,372:<module>:INFO:
 ----------------------- Starting of new script ----------------------- 

2021-04-10 14:46:42,377:<module>:INFO:CreationRNN(
  (rnn): GRU(1, 256, num_layers=2, batch_first=True)
  (o2o): Linear(in_features=256, out_features=3, bias=True)
)
2021-04-10 14:46:42,377:<module>:INFO:Net(
  (acti): LeakyReLU(negative_slope=0.01)
  (layer1): Linear(in_features=3, out_features=256, bias=True)
  (layer2): Linear(in_features=256, out_features=256, bias=True)
  (layer3): Linear(in_features=256, out_features=3, bias=True)
)
2021-04-10 14:46:42,399:__init__:INFO:
Constructed 3D Lorenz dataset with: 
2021-04-10 14:46:42,399:__init__:INFO:     lookahead: 50 | tau: 1 | k: 7
2021-04-10 14:46:42,400:__init__:INFO:     size of histories: torch.Size([934, 7, 1]) | size of futures: torch.Size([934, 51, 1])

2021-04-10 14:46:59,495:<module>:INFO:
 ----------------------- Starting of new script ----------------------- 

2021-04-10 14:46:59,500:<module>:INFO:CreationRNN(
  (rnn): GRU(1, 256, num_layers=2, batch_first=True)
  (o2o): Linear(in_features=256, out_features=3, bias=True)
)
2021-04-10 14:46:59,500:<module>:INFO:Net(
  (acti): LeakyReLU(negative_slope=0.01)
  (layer1): Linear(in_features=3, out_features=256, bias=True)
  (layer2): Linear(in_features=256, out_features=256, bias=True)
  (layer3): Linear(in_features=256, out_features=3, bias=True)
)
2021-04-10 14:46:59,524:__init__:INFO:
Constructed 3D Lorenz dataset with: 
2021-04-10 14:46:59,524:__init__:INFO:     lookahead: 100 | tau: 1 | k: 7
2021-04-10 14:46:59,524:__init__:INFO:     size of histories: torch.Size([884, 7, 1]) | size of futures: torch.Size([884, 101, 1])

2021-04-10 14:47:11,001:<module>:INFO:
 ----------------------- Starting of new script ----------------------- 

2021-04-10 14:47:11,006:<module>:INFO:CreationRNN(
  (rnn): GRU(1, 256, num_layers=2, batch_first=True)
  (o2o): Linear(in_features=256, out_features=3, bias=True)
)
2021-04-10 14:47:11,006:<module>:INFO:Net(
  (acti): LeakyReLU(negative_slope=0.01)
  (layer1): Linear(in_features=3, out_features=256, bias=True)
  (layer2): Linear(in_features=256, out_features=256, bias=True)
  (layer3): Linear(in_features=256, out_features=3, bias=True)
)
2021-04-10 14:47:11,028:__init__:INFO:
Constructed 3D Lorenz dataset with: 
2021-04-10 14:47:11,029:__init__:INFO:     lookahead: 70 | tau: 1 | k: 7
2021-04-10 14:47:11,029:__init__:INFO:     size of histories: torch.Size([914, 7, 1]) | size of futures: torch.Size([914, 71, 1])

2021-04-10 14:47:54,572:<module>:INFO:
 ----------------------- Starting of new script ----------------------- 

2021-04-10 14:47:54,581:<module>:INFO:CreationRNN(
  (rnn): GRU(1, 256, num_layers=2, batch_first=True)
  (o2o): Linear(in_features=256, out_features=3, bias=True)
)
2021-04-10 14:47:54,582:<module>:INFO:Net(
  (acti): LeakyReLU(negative_slope=0.01)
  (layer1): Linear(in_features=3, out_features=256, bias=True)
  (layer2): Linear(in_features=256, out_features=256, bias=True)
  (layer3): Linear(in_features=256, out_features=3, bias=True)
)
2021-04-10 14:47:54,608:__init__:INFO:
Constructed 3D Lorenz dataset with: 
2021-04-10 14:47:54,608:__init__:INFO:     lookahead: 50 | tau: 1 | k: 7
2021-04-10 14:47:54,608:__init__:INFO:     size of histories: torch.Size([934, 7, 1]) | size of futures: torch.Size([934, 51, 1])

2021-04-10 14:50:05,341:<module>:INFO:
 ----------------------- Starting of new script ----------------------- 

2021-04-10 14:50:05,348:<module>:INFO:CreationRNN(
  (rnn): GRU(1, 256, num_layers=2, batch_first=True)
  (o2o): Linear(in_features=256, out_features=3, bias=True)
)
2021-04-10 14:50:05,349:<module>:INFO:Net(
  (acti): LeakyReLU(negative_slope=0.01)
  (layer1): Linear(in_features=3, out_features=256, bias=True)
  (layer2): Linear(in_features=256, out_features=256, bias=True)
  (layer3): Linear(in_features=256, out_features=3, bias=True)
)
2021-04-10 14:50:05,386:__init__:INFO:
Constructed 3D Lorenz dataset with: 
2021-04-10 14:50:05,386:__init__:INFO:     lookahead: 2 | tau: 1 | k: 7
2021-04-10 14:50:05,387:__init__:INFO:     size of histories: torch.Size([982, 7, 1]) | size of futures: torch.Size([982, 3, 1])

2021-04-10 14:50:22,873:<module>:INFO:
 ----------------------- Starting of new script ----------------------- 

2021-04-10 14:50:22,879:<module>:INFO:CreationRNN(
  (rnn): GRU(1, 256, num_layers=2, batch_first=True)
  (o2o): Linear(in_features=256, out_features=3, bias=True)
)
2021-04-10 14:50:22,879:<module>:INFO:Net(
  (acti): LeakyReLU(negative_slope=0.01)
  (layer1): Linear(in_features=3, out_features=256, bias=True)
  (layer2): Linear(in_features=256, out_features=256, bias=True)
  (layer3): Linear(in_features=256, out_features=3, bias=True)
)
2021-04-10 14:50:22,902:__init__:INFO:
Constructed 3D Lorenz dataset with: 
2021-04-10 14:50:22,902:__init__:INFO:     lookahead: 25 | tau: 1 | k: 7
2021-04-10 14:50:22,902:__init__:INFO:     size of histories: torch.Size([959, 7, 1]) | size of futures: torch.Size([959, 26, 1])

2021-04-10 14:50:52,031:<module>:INFO:
 ----------------------- Starting of new script ----------------------- 

2021-04-10 14:50:52,037:<module>:INFO:CreationRNN(
  (rnn): GRU(1, 256, num_layers=2, batch_first=True)
  (o2o): Linear(in_features=256, out_features=3, bias=True)
)
2021-04-10 14:50:52,038:<module>:INFO:Net(
  (acti): LeakyReLU(negative_slope=0.01)
  (layer1): Linear(in_features=3, out_features=256, bias=True)
  (layer2): Linear(in_features=256, out_features=256, bias=True)
  (layer3): Linear(in_features=256, out_features=3, bias=True)
)
2021-04-10 14:50:52,075:__init__:INFO:
Constructed 3D Lorenz dataset with: 
2021-04-10 14:50:52,075:__init__:INFO:     lookahead: 100 | tau: 1 | k: 7
2021-04-10 14:50:52,075:__init__:INFO:     size of histories: torch.Size([884, 7, 1]) | size of futures: torch.Size([884, 101, 1])

2021-04-10 14:54:14,582:<module>:INFO:
 ----------------------- Starting of new script ----------------------- 

2021-04-10 14:54:14,591:<module>:INFO:CreationRNN(
  (rnn): GRU(1, 256, num_layers=2, batch_first=True)
  (o2o): Linear(in_features=256, out_features=3, bias=True)
)
2021-04-10 14:54:14,591:<module>:INFO:Net(
  (acti): LeakyReLU(negative_slope=0.01)
  (layer1): Linear(in_features=3, out_features=256, bias=True)
  (layer2): Linear(in_features=256, out_features=256, bias=True)
  (layer3): Linear(in_features=256, out_features=3, bias=True)
)
2021-04-10 14:54:14,633:__init__:INFO:
Constructed 3D Lorenz dataset with: 
2021-04-10 14:54:14,633:__init__:INFO:     lookahead: 100 | tau: 1 | k: 7
2021-04-10 14:54:14,633:__init__:INFO:     size of histories: torch.Size([884, 7, 1]) | size of futures: torch.Size([884, 101, 1])

2021-04-10 14:54:31,613:<module>:INFO:
 ----------------------- Starting of new script ----------------------- 

2021-04-10 14:54:31,618:<module>:INFO:CreationRNN(
  (rnn): GRU(1, 256, num_layers=2, batch_first=True)
  (o2o): Linear(in_features=256, out_features=3, bias=True)
)
2021-04-10 14:54:31,618:<module>:INFO:Net(
  (acti): LeakyReLU(negative_slope=0.01)
  (layer1): Linear(in_features=3, out_features=256, bias=True)
  (layer2): Linear(in_features=256, out_features=256, bias=True)
  (layer3): Linear(in_features=256, out_features=3, bias=True)
)
2021-04-10 14:54:31,641:__init__:INFO:
Constructed 3D Lorenz dataset with: 
2021-04-10 14:54:31,641:__init__:INFO:     lookahead: 50 | tau: 1 | k: 7
2021-04-10 14:54:31,641:__init__:INFO:     size of histories: torch.Size([934, 7, 1]) | size of futures: torch.Size([934, 51, 1])

2021-04-10 14:56:37,878:<module>:INFO:
 ----------------------- Starting of new script ----------------------- 

2021-04-10 14:56:37,887:<module>:INFO:CreationRNN(
  (rnn): GRU(1, 256, num_layers=2, batch_first=True)
  (o2o): Linear(in_features=256, out_features=3, bias=True)
)
2021-04-10 14:56:37,887:<module>:INFO:Net(
  (acti): LeakyReLU(negative_slope=0.01)
  (layer1): Linear(in_features=3, out_features=256, bias=True)
  (layer2): Linear(in_features=256, out_features=256, bias=True)
  (layer3): Linear(in_features=256, out_features=3, bias=True)
)
2021-04-10 14:56:37,936:__init__:INFO:
Constructed 3D Lorenz dataset with: 
2021-04-10 14:56:37,937:__init__:INFO:     lookahead: 50 | tau: 1 | k: 7
2021-04-10 14:56:37,937:__init__:INFO:     size of histories: torch.Size([934, 7, 1]) | size of futures: torch.Size([934, 51, 1])

2021-04-10 14:57:00,378:<module>:INFO:
 ----------------------- Starting of new script ----------------------- 

2021-04-10 14:57:00,384:<module>:INFO:CreationRNN(
  (rnn): GRU(1, 256, num_layers=2, batch_first=True)
  (o2o): Linear(in_features=256, out_features=3, bias=True)
)
2021-04-10 14:57:00,384:<module>:INFO:Net(
  (acti): LeakyReLU(negative_slope=0.01)
  (layer1): Linear(in_features=3, out_features=256, bias=True)
  (layer2): Linear(in_features=256, out_features=256, bias=True)
  (layer3): Linear(in_features=256, out_features=3, bias=True)
)
2021-04-10 14:57:00,408:__init__:INFO:
Constructed 3D Lorenz dataset with: 
2021-04-10 14:57:00,409:__init__:INFO:     lookahead: 50 | tau: 1 | k: 7
2021-04-10 14:57:00,409:__init__:INFO:     size of histories: torch.Size([934, 7, 1]) | size of futures: torch.Size([934, 51, 1])

2021-04-10 15:17:02,440:<module>:INFO:
 ----------------------- Starting of new script ----------------------- 

2021-04-10 15:17:02,446:<module>:INFO:CreationRNN(
  (rnn): GRU(1, 256, num_layers=2, batch_first=True)
  (o2o): Linear(in_features=256, out_features=3, bias=True)
)
2021-04-10 15:17:02,446:<module>:INFO:Net(
  (acti): LeakyReLU(negative_slope=0.01)
  (layer1): Linear(in_features=3, out_features=256, bias=True)
  (layer2): Linear(in_features=256, out_features=256, bias=True)
  (layer3): Linear(in_features=256, out_features=3, bias=True)
)
2021-04-10 15:17:02,483:__init__:INFO:
Constructed 3D Lorenz dataset with: 
2021-04-10 15:17:02,484:__init__:INFO:     lookahead: 50 | tau: 1 | k: 7
2021-04-10 15:17:02,484:__init__:INFO:     size of histories: torch.Size([934, 7, 1]) | size of futures: torch.Size([934, 51, 1])

2021-04-10 15:17:15,784:<module>:INFO:
 ----------------------- Starting of new script ----------------------- 

2021-04-10 15:17:15,789:<module>:INFO:CreationRNN(
  (rnn): GRU(1, 256, num_layers=2, batch_first=True)
  (o2o): Linear(in_features=256, out_features=3, bias=True)
)
2021-04-10 15:17:15,789:<module>:INFO:Net(
  (acti): LeakyReLU(negative_slope=0.01)
  (layer1): Linear(in_features=3, out_features=256, bias=True)
  (layer2): Linear(in_features=256, out_features=256, bias=True)
  (layer3): Linear(in_features=256, out_features=3, bias=True)
)
2021-04-10 15:17:15,811:__init__:INFO:
Constructed 3D Lorenz dataset with: 
2021-04-10 15:17:15,811:__init__:INFO:     lookahead: 50 | tau: 1 | k: 7
2021-04-10 15:17:15,811:__init__:INFO:     size of histories: torch.Size([934, 7, 1]) | size of futures: torch.Size([934, 51, 1])

2021-04-10 15:17:21,532:<module>:INFO:
 ----------------------- Starting of new script ----------------------- 

2021-04-10 15:17:21,537:<module>:INFO:CreationRNN(
  (rnn): GRU(1, 256, num_layers=2, batch_first=True)
  (o2o): Linear(in_features=256, out_features=3, bias=True)
)
2021-04-10 15:17:21,537:<module>:INFO:Net(
  (acti): LeakyReLU(negative_slope=0.01)
  (layer1): Linear(in_features=3, out_features=256, bias=True)
  (layer2): Linear(in_features=256, out_features=256, bias=True)
  (layer3): Linear(in_features=256, out_features=3, bias=True)
)
2021-04-10 15:17:21,559:__init__:INFO:
Constructed 3D Lorenz dataset with: 
2021-04-10 15:17:21,560:__init__:INFO:     lookahead: 50 | tau: 1 | k: 7
2021-04-10 15:17:21,560:__init__:INFO:     size of histories: torch.Size([934, 7, 1]) | size of futures: torch.Size([934, 51, 1])

2021-04-10 15:18:08,866:<module>:INFO:
 ----------------------- Starting of new script ----------------------- 

2021-04-10 15:18:08,872:<module>:INFO:CreationRNN(
  (rnn): GRU(1, 256, num_layers=2, batch_first=True)
  (o2o): Linear(in_features=256, out_features=3, bias=True)
)
2021-04-10 15:18:08,872:<module>:INFO:Net(
  (acti): LeakyReLU(negative_slope=0.01)
  (layer1): Linear(in_features=3, out_features=256, bias=True)
  (layer2): Linear(in_features=256, out_features=256, bias=True)
  (layer3): Linear(in_features=256, out_features=3, bias=True)
)
2021-04-10 15:18:08,896:__init__:INFO:
Constructed 3D Lorenz dataset with: 
2021-04-10 15:18:08,896:__init__:INFO:     lookahead: 50 | tau: 1 | k: 7
2021-04-10 15:18:08,896:__init__:INFO:     size of histories: torch.Size([934, 7, 1]) | size of futures: torch.Size([934, 51, 1])

2021-04-10 15:23:14,215:<module>:INFO:
 ----------------------- Starting of new script ----------------------- 

2021-04-10 15:23:14,220:<module>:INFO:CreationRNN(
  (rnn): GRU(1, 256, num_layers=2, batch_first=True)
  (o2o): Linear(in_features=256, out_features=3, bias=True)
)
2021-04-10 15:23:14,220:<module>:INFO:Net(
  (acti): LeakyReLU(negative_slope=0.01)
  (layer1): Linear(in_features=3, out_features=256, bias=True)
  (layer2): Linear(in_features=256, out_features=256, bias=True)
  (layer3): Linear(in_features=256, out_features=3, bias=True)
)
2021-04-10 15:23:14,242:__init__:INFO:
Constructed 3D Lorenz dataset with: 
2021-04-10 15:23:14,242:__init__:INFO:     lookahead: 2 | tau: 1 | k: 7
2021-04-10 15:23:14,242:__init__:INFO:     size of histories: torch.Size([1964, 7, 1]) | size of futures: torch.Size([1964, 3, 1])

2021-04-10 15:23:14,262:__init__:INFO:
Constructed 3D Lorenz dataset with: 
…
2021-04-10 15:33:09,085:<module>:INFO:EPOCH 10 finished with training loss: 6.593873500823975 | lr: 0.001 | delta time: 26
2021-04-10 15:33:51,881:<module>:INFO:EPOCH 15 finished with training loss: 6.548406600952148 | lr: 0.001 | delta time: 42
2021-04-10 15:35:54,698:<module>:INFO:EPOCH 20 finished with training loss: 3.9343769550323486 | lr: 0.001 | delta time: 122
2021-04-10 15:46:57,649:<module>:INFO:EPOCH 25 finished with training loss: 1.9253053665161133 | lr: 0.001 | delta time: 662
2021-04-10 15:51:13,048:<module>:INFO:
 ----------------------- Starting of new script ----------------------- 

2021-04-10 15:51:13,053:<module>:INFO:CreationRNN(
  (rnn): GRU(1, 256, num_layers=2, batch_first=True)
  (o2o): Linear(in_features=256, out_features=3, bias=True)
)
2021-04-10 15:51:13,053:<module>:INFO:Net(
  (acti): LeakyReLU(negative_slope=0.01)
  (layer1): Linear(in_features=3, out_features=256, bias=True)
  (layer2): Linear(in_features=256, out_features=256, bias=True)
  (layer3): Linear(in_features=256, out_features=3, bias=True)
)
2021-04-10 15:51:13,082:__init__:INFO:
Constructed 3D Lorenz dataset with: 
2021-04-10 15:51:13,082:__init__:INFO:     lookahead: 50 | tau: 1 | k: 7
2021-04-10 15:51:13,082:__init__:INFO:     size of histories: torch.Size([934, 7, 1]) | size of futures: torch.Size([934, 51, 1])

2021-04-10 15:51:36,040:<module>:INFO:
 ----------------------- Starting of new script ----------------------- 

2021-04-10 15:51:36,045:<module>:INFO:CreationRNN(
  (rnn): GRU(1, 256, num_layers=2, batch_first=True)
  (o2o): Linear(in_features=256, out_features=3, bias=True)
)
2021-04-10 15:51:36,045:<module>:INFO:Net(
  (acti): LeakyReLU(negative_slope=0.01)
  (layer1): Linear(in_features=3, out_features=256, bias=True)
  (layer2): Linear(in_features=256, out_features=256, bias=True)
  (layer3): Linear(in_features=256, out_features=3, bias=True)
)
2021-04-10 15:51:36,067:__init__:INFO:
Constructed 3D Lorenz dataset with: 
2021-04-10 15:51:36,068:__init__:INFO:     lookahead: 10 | tau: 1 | k: 7
2021-04-10 15:51:36,068:__init__:INFO:     size of histories: torch.Size([974, 7, 1]) | size of futures: torch.Size([974, 11, 1])

2021-04-10 15:51:48,723:<module>:INFO:
 ----------------------- Starting of new script ----------------------- 

2021-04-10 15:51:48,728:<module>:INFO:CreationRNN(
  (rnn): GRU(1, 256, num_layers=2, batch_first=True)
  (o2o): Linear(in_features=256, out_features=3, bias=True)
)
2021-04-10 15:51:48,728:<module>:INFO:Net(
  (acti): LeakyReLU(negative_slope=0.01)
  (layer1): Linear(in_features=3, out_features=256, bias=True)
  (layer2): Linear(in_features=256, out_features=256, bias=True)
  (layer3): Linear(in_features=256, out_features=3, bias=True)
)
2021-04-10 15:51:48,750:__init__:INFO:
Constructed 3D Lorenz dataset with: 
2021-04-10 15:51:48,750:__init__:INFO:     lookahead: 500 | tau: 1 | k: 7
2021-04-10 15:51:48,750:__init__:INFO:     size of histories: torch.Size([484, 7, 1]) | size of futures: torch.Size([484, 501, 1])

2021-04-10 15:52:32,983:<module>:INFO:
 ----------------------- Starting of new script ----------------------- 

2021-04-10 15:52:32,988:<module>:INFO:CreationRNN(
  (rnn): GRU(1, 256, num_layers=2, batch_first=True)
  (o2o): Linear(in_features=256, out_features=3, bias=True)
)
2021-04-10 15:52:32,988:<module>:INFO:Net(
  (acti): LeakyReLU(negative_slope=0.01)
  (layer1): Linear(in_features=3, out_features=256, bias=True)
  (layer2): Linear(in_features=256, out_features=256, bias=True)
  (layer3): Linear(in_features=256, out_features=3, bias=True)
)
2021-04-10 15:52:33,010:__init__:INFO:
Constructed 3D Lorenz dataset with: 
2021-04-10 15:52:33,010:__init__:INFO:     lookahead: 50 | tau: 1 | k: 7
2021-04-10 15:52:33,011:__init__:INFO:     size of histories: torch.Size([934, 7, 1]) | size of futures: torch.Size([934, 51, 1])

2021-04-10 15:54:21,576:<module>:INFO:
 ----------------------- Starting of new script ----------------------- 

2021-04-10 15:54:21,583:<module>:INFO:CreationRNN(
  (rnn): GRU(1, 256, num_layers=2, batch_first=True)
  (o2o): Linear(in_features=256, out_features=3, bias=True)
)
2021-04-10 15:54:21,583:<module>:INFO:Net(
  (acti): LeakyReLU(negative_slope=0.01)
  (layer1): Linear(in_features=3, out_features=256, bias=True)
  (layer2): Linear(in_features=256, out_features=256, bias=True)
  (layer3): Linear(in_features=256, out_features=3, bias=True)
)
2021-04-10 15:54:21,623:__init__:INFO:
Constructed 3D Lorenz dataset with: 
2021-04-10 15:54:21,623:__init__:INFO:     lookahead: 50 | tau: 1 | k: 7
2021-04-10 15:54:21,623:__init__:INFO:     size of histories: torch.Size([934, 7, 1]) | size of futures: torch.Size([934, 51, 1])

2021-04-10 15:55:16,827:<module>:INFO:
 ----------------------- Starting of new script ----------------------- 

2021-04-10 15:55:16,833:<module>:INFO:CreationRNN(
  (rnn): GRU(1, 256, num_layers=2, batch_first=True)
  (o2o): Linear(in_features=256, out_features=3, bias=True)
)
2021-04-10 15:55:16,833:<module>:INFO:Net(
  (acti): LeakyReLU(negative_slope=0.01)
  (layer1): Linear(in_features=3, out_features=256, bias=True)
  (layer2): Linear(in_features=256, out_features=256, bias=True)
  (layer3): Linear(in_features=256, out_features=3, bias=True)
)
2021-04-10 15:55:16,862:__init__:INFO:
Constructed 3D Lorenz dataset with: 
2021-04-10 15:55:16,862:__init__:INFO:     lookahead: 10 | tau: 1 | k: 7
2021-04-10 15:55:16,862:__init__:INFO:     size of histories: torch.Size([974, 7, 1]) | size of futures: torch.Size([974, 11, 1])

2021-04-10 15:56:08,354:<module>:INFO:
 ----------------------- Starting of new script ----------------------- 

2021-04-10 15:56:08,358:<module>:INFO:CreationRNN(
  (rnn): GRU(1, 256, batch_first=True)
  (o2o): Linear(in_features=256, out_features=3, bias=True)
)
2021-04-10 15:56:08,359:<module>:INFO:Net(
  (acti): LeakyReLU(negative_slope=0.01)
  (layer1): Linear(in_features=3, out_features=256, bias=True)
  (layer3): Linear(in_features=256, out_features=3, bias=True)
)
2021-04-10 15:56:08,382:__init__:INFO:
Constructed 3D Lorenz dataset with: 
2021-04-10 15:56:08,382:__init__:INFO:     lookahead: 2 | tau: 1 | k: 7
2021-04-10 15:56:08,382:__init__:INFO:     size of histories: torch.Size([1964, 7, 1]) | size of futures: torch.Size([1964, 3, 1])

2021-04-10 15:56:08,397:__init__:INFO:
Constructed 3D Lorenz dataset with: 
…
2021-04-10 16:09:26,826:<module>:INFO:EPOCH 15 finished with training loss: 14.684905052185059 | lr: 0.001 | delta time: 8
2021-04-10 16:09:32,827:__init__:INFO:
Constructed 3D Lorenz dataset with: 
2021-04-10 16:09:32,828:__init__:INFO:     lookahead: 10 | tau: 1 | k: 7
2021-04-10 16:09:32,828:__init__:INFO:     size of histories: torch.Size([974, 7, 1]) | size of futures: torch.Size([974, 11, 1])

2021-04-10 16:10:38,005:<module>:INFO:
 ----------------------- Starting of new script ----------------------- 

2021-04-10 16:10:38,007:<module>:INFO:CreationRNN(
  (rnn): GRU(1, 256, batch_first=True)
  (o2o): Linear(in_features=256, out_features=3, bias=True)
)
2021-04-10 16:10:38,007:<module>:INFO:Net(
  (acti): LeakyReLU(negative_slope=0.01)
  (layer1): Linear(in_features=3, out_features=256, bias=True)
  (layer3): Linear(in_features=256, out_features=3, bias=True)
)
2021-04-10 16:10:38,025:__init__:INFO:
Constructed 3D Lorenz dataset with: 
2021-04-10 16:10:38,025:__init__:INFO:     lookahead: 100 | tau: 1 | k: 7
2021-04-10 16:10:38,025:__init__:INFO:     size of histories: torch.Size([884, 7, 1]) | size of futures: torch.Size([884, 101, 1])

2021-04-10 16:10:56,668:<module>:INFO:
 ----------------------- Starting of new script ----------------------- 

2021-04-10 16:10:56,670:<module>:INFO:CreationRNN(
  (rnn): GRU(1, 256, batch_first=True)
  (o2o): Linear(in_features=256, out_features=3, bias=True)
)
2021-04-10 16:10:56,670:<module>:INFO:Net(
  (acti): LeakyReLU(negative_slope=0.01)
  (layer1): Linear(in_features=3, out_features=256, bias=True)
  (layer3): Linear(in_features=256, out_features=3, bias=True)
)
2021-04-10 16:10:56,687:__init__:INFO:
Constructed 3D Lorenz dataset with: 
2021-04-10 16:10:56,687:__init__:INFO:     lookahead: 100 | tau: 1 | k: 7
2021-04-10 16:10:56,687:__init__:INFO:     size of histories: torch.Size([884, 7, 1]) | size of futures: torch.Size([884, 101, 1])

2021-04-10 16:11:26,440:<module>:INFO:
 ----------------------- Starting of new script ----------------------- 

2021-04-10 16:11:26,442:<module>:INFO:CreationRNN(
  (rnn): GRU(1, 256, batch_first=True)
  (o2o): Linear(in_features=256, out_features=3, bias=True)
)
2021-04-10 16:11:26,442:<module>:INFO:Net(
  (acti): LeakyReLU(negative_slope=0.01)
  (layer1): Linear(in_features=3, out_features=256, bias=True)
  (layer3): Linear(in_features=256, out_features=3, bias=True)
)
2021-04-10 16:11:26,456:__init__:INFO:
Constructed 3D Lorenz dataset with: 
2021-04-10 16:11:26,456:__init__:INFO:     lookahead: 2 | tau: 1 | k: 7
2021-04-10 16:11:26,456:__init__:INFO:     size of histories: torch.Size([982, 7, 1]) | size of futures: torch.Size([982, 3, 1])

2021-04-10 16:11:26,468:__init__:INFO:
Constructed 3D Lorenz dataset with: 
2021-04-10 16:11:26,468:__init__:INFO:     lookahead: 2 | tau: 1 | k: 7
…
2021-04-10 16:14:04,984:<module>:INFO:EPOCH 15 finished with training loss: 12.768257141113281 | lr: 0.001 | delta time: 28s
2021-04-10 16:15:30,310:<module>:INFO:EPOCH 20 finished with training loss: 10.830585479736328 | lr: 0.001 | delta time: 85s
2021-04-10 16:20:40,985:<module>:INFO:EPOCH 25 finished with training loss: 6.511885643005371 | lr: 0.001 | delta time: 310s
2021-04-10 16:27:51,710:<module>:INFO:EPOCH 30 finished with training loss: 5.694038391113281 | lr: 0.001 | delta time: 430s
2021-04-10 16:28:20,785:<module>:INFO:
 ----------------------- Starting of new script ----------------------- 

2021-04-10 16:28:20,790:<module>:INFO:CreationRNN(
  (rnn): GRU(1, 256, num_layers=2, batch_first=True)
  (o2o): Linear(in_features=256, out_features=3, bias=True)
)
2021-04-10 16:28:20,791:<module>:INFO:Net(
  (acti): LeakyReLU(negative_slope=0.01)
  (layer1): Linear(in_features=3, out_features=256, bias=True)
  (layer2): Linear(in_features=256, out_features=256, bias=True)
  (layer3): Linear(in_features=256, out_features=3, bias=True)
)
2021-04-10 16:28:20,819:__init__:INFO:
Constructed 3D Lorenz dataset with: 
2021-04-10 16:28:20,819:__init__:INFO:     lookahead: 100 | tau: 1 | k: 7
2021-04-10 16:28:20,819:__init__:INFO:     size of histories: torch.Size([884, 7, 1]) | size of futures: torch.Size([884, 101, 1])

2021-04-10 16:28:38,762:<module>:INFO:
 ----------------------- Starting of new script ----------------------- 

2021-04-10 16:28:38,767:<module>:INFO:CreationRNN(
  (rnn): GRU(1, 256, num_layers=2, batch_first=True)
  (o2o): Linear(in_features=256, out_features=3, bias=True)
)
2021-04-10 16:28:38,767:<module>:INFO:Net(
  (acti): LeakyReLU(negative_slope=0.01)
  (layer1): Linear(in_features=3, out_features=256, bias=True)
  (layer2): Linear(in_features=256, out_features=256, bias=True)
  (layer3): Linear(in_features=256, out_features=3, bias=True)
)
2021-04-10 16:28:38,789:__init__:INFO:
Constructed 3D Lorenz dataset with: 
2021-04-10 16:28:38,790:__init__:INFO:     lookahead: 20 | tau: 1 | k: 7
2021-04-10 16:28:38,790:__init__:INFO:     size of histories: torch.Size([964, 7, 1]) | size of futures: torch.Size([964, 21, 1])

2021-04-10 16:28:48,517:<module>:INFO:
 ----------------------- Starting of new script ----------------------- 

2021-04-10 16:28:48,522:<module>:INFO:CreationRNN(
  (rnn): GRU(1, 256, num_layers=2, batch_first=True)
  (o2o): Linear(in_features=256, out_features=3, bias=True)
)
2021-04-10 16:28:48,522:<module>:INFO:Net(
  (acti): LeakyReLU(negative_slope=0.01)
  (layer1): Linear(in_features=3, out_features=256, bias=True)
  (layer2): Linear(in_features=256, out_features=256, bias=True)
  (layer3): Linear(in_features=256, out_features=3, bias=True)
)
2021-04-10 16:28:48,544:__init__:INFO:
Constructed 3D Lorenz dataset with: 
2021-04-10 16:28:48,544:__init__:INFO:     lookahead: 10 | tau: 1 | k: 7
2021-04-10 16:28:48,545:__init__:INFO:     size of histories: torch.Size([974, 7, 1]) | size of futures: torch.Size([974, 11, 1])

2021-04-10 16:28:57,716:<module>:INFO:
 ----------------------- Starting of new script ----------------------- 

2021-04-10 16:28:57,721:<module>:INFO:CreationRNN(
  (rnn): GRU(1, 256, num_layers=2, batch_first=True)
  (o2o): Linear(in_features=256, out_features=3, bias=True)
)
2021-04-10 16:28:57,721:<module>:INFO:Net(
  (acti): LeakyReLU(negative_slope=0.01)
  (layer1): Linear(in_features=3, out_features=256, bias=True)
  (layer2): Linear(in_features=256, out_features=256, bias=True)
  (layer3): Linear(in_features=256, out_features=3, bias=True)
)
2021-04-10 16:28:57,743:__init__:INFO:
Constructed 3D Lorenz dataset with: 
2021-04-10 16:28:57,743:__init__:INFO:     lookahead: 5 | tau: 1 | k: 7
2021-04-10 16:28:57,743:__init__:INFO:     size of histories: torch.Size([979, 7, 1]) | size of futures: torch.Size([979, 6, 1])

2021-04-10 16:29:44,685:<module>:INFO:
 ----------------------- Starting of new script ----------------------- 

2021-04-10 16:29:44,689:<module>:INFO:CreationRNN(
  (rnn): GRU(1, 256, num_layers=2, batch_first=True)
  (o2o): Linear(in_features=256, out_features=3, bias=True)
)
2021-04-10 16:29:44,690:<module>:INFO:Net(
  (acti): LeakyReLU(negative_slope=0.01)
  (layer1): Linear(in_features=3, out_features=256, bias=True)
  (layer2): Linear(in_features=256, out_features=256, bias=True)
  (layer3): Linear(in_features=256, out_features=3, bias=True)
)
2021-04-10 16:29:44,712:__init__:INFO:
Constructed 3D Lorenz dataset with: 
2021-04-10 16:29:44,712:__init__:INFO:     lookahead: 5 | tau: 1 | k: 7
2021-04-10 16:29:44,712:__init__:INFO:     size of histories: torch.Size([979, 7, 1]) | size of futures: torch.Size([979, 6, 1])

2021-04-10 16:30:09,029:<module>:INFO:
 ----------------------- Starting of new script ----------------------- 

2021-04-10 16:30:09,035:<module>:INFO:CreationRNN(
  (rnn): GRU(1, 256, num_layers=2, batch_first=True)
  (o2o): Linear(in_features=256, out_features=3, bias=True)
)
2021-04-10 16:30:09,035:<module>:INFO:Net(
  (acti): LeakyReLU(negative_slope=0.01)
  (layer1): Linear(in_features=3, out_features=256, bias=True)
  (layer2): Linear(in_features=256, out_features=256, bias=True)
  (layer3): Linear(in_features=256, out_features=3, bias=True)
)
2021-04-10 16:30:09,059:__init__:INFO:
Constructed 3D Lorenz dataset with: 
2021-04-10 16:30:09,059:__init__:INFO:     lookahead: 5 | tau: 1 | k: 7
2021-04-10 16:30:09,059:__init__:INFO:     size of histories: torch.Size([979, 7, 1]) | size of futures: torch.Size([979, 6, 1])

2021-04-10 16:30:34,190:<module>:INFO:
 ----------------------- Starting of new script ----------------------- 

2021-04-10 16:30:34,195:<module>:INFO:CreationRNN(
  (rnn): GRU(1, 256, num_layers=2, batch_first=True)
  (o2o): Linear(in_features=256, out_features=3, bias=True)
)
2021-04-10 16:30:34,195:<module>:INFO:Net(
  (acti): LeakyReLU(negative_slope=0.01)
  (layer1): Linear(in_features=3, out_features=256, bias=True)
  (layer2): Linear(in_features=256, out_features=256, bias=True)
  (layer3): Linear(in_features=256, out_features=3, bias=True)
)
2021-04-10 16:30:34,217:__init__:INFO:
Constructed 3D Lorenz dataset with: 
2021-04-10 16:30:34,217:__init__:INFO:     lookahead: 5 | tau: 1 | k: 7
2021-04-10 16:30:34,217:__init__:INFO:     size of histories: torch.Size([979, 7, 1]) | size of futures: torch.Size([979, 6, 1])

2021-04-10 16:31:43,818:<module>:INFO:
 ----------------------- Starting of new script ----------------------- 

2021-04-10 16:31:43,823:<module>:INFO:CreationRNN(
  (rnn): GRU(1, 256, num_layers=2, batch_first=True)
  (o2o): Linear(in_features=256, out_features=3, bias=True)
)
2021-04-10 16:31:43,824:<module>:INFO:Net(
  (acti): LeakyReLU(negative_slope=0.01)
  (layer1): Linear(in_features=3, out_features=256, bias=True)
  (layer2): Linear(in_features=256, out_features=256, bias=True)
  (layer3): Linear(in_features=256, out_features=3, bias=True)
)
2021-04-10 16:31:43,848:__init__:INFO:
Constructed 3D Lorenz dataset with: 
2021-04-10 16:31:43,848:__init__:INFO:     lookahead: 5 | tau: 1 | k: 7
2021-04-10 16:31:43,848:__init__:INFO:     size of histories: torch.Size([979, 7, 1]) | size of futures: torch.Size([979, 6, 1])

2021-04-10 16:32:55,947:<module>:INFO:
 ----------------------- Starting of new script ----------------------- 

2021-04-10 16:32:55,952:<module>:INFO:CreationRNN(
  (rnn): GRU(1, 256, num_layers=2, batch_first=True)
  (o2o): Linear(in_features=256, out_features=3, bias=True)
)
2021-04-10 16:32:55,952:<module>:INFO:Net(
  (acti): LeakyReLU(negative_slope=0.01)
  (layer1): Linear(in_features=3, out_features=256, bias=True)
  (layer2): Linear(in_features=256, out_features=256, bias=True)
  (layer3): Linear(in_features=256, out_features=3, bias=True)
)
2021-04-10 16:32:55,976:__init__:INFO:
Constructed 3D Lorenz dataset with: 
2021-04-10 16:32:55,976:__init__:INFO:     lookahead: 5 | tau: 1 | k: 7
2021-04-10 16:32:55,976:__init__:INFO:     size of histories: torch.Size([979, 7, 1]) | size of futures: torch.Size([979, 6, 1])

2021-04-10 16:34:35,658:<module>:INFO:
 ----------------------- Starting of new script ----------------------- 

2021-04-10 16:34:35,666:<module>:INFO:CreationRNN(
  (rnn): GRU(1, 256, num_layers=2, batch_first=True)
  (o2o): Linear(in_features=256, out_features=3, bias=True)
)
2021-04-10 16:34:35,667:<module>:INFO:Net(
  (acti): LeakyReLU(negative_slope=0.01)
  (layer1): Linear(in_features=3, out_features=256, bias=True)
  (layer2): Linear(in_features=256, out_features=256, bias=True)
  (layer3): Linear(in_features=256, out_features=3, bias=True)
)
2021-04-10 16:34:35,692:__init__:INFO:
Constructed 3D Lorenz dataset with: 
2021-04-10 16:34:35,692:__init__:INFO:     lookahead: 5 | tau: 1 | k: 7
2021-04-10 16:34:35,692:__init__:INFO:     size of histories: torch.Size([979, 7, 1]) | size of futures: torch.Size([979, 6, 1])

2021-04-10 16:36:49,202:<module>:INFO:
 ----------------------- Starting of new script ----------------------- 

2021-04-10 16:36:49,207:<module>:INFO:CreationRNN(
  (rnn): GRU(1, 256, num_layers=2, batch_first=True)
  (o2o): Linear(in_features=256, out_features=3, bias=True)
)
2021-04-10 16:36:49,207:<module>:INFO:Net(
  (acti): LeakyReLU(negative_slope=0.01)
  (layer1): Linear(in_features=3, out_features=256, bias=True)
  (layer2): Linear(in_features=256, out_features=256, bias=True)
  (layer3): Linear(in_features=256, out_features=3, bias=True)
)
2021-04-10 16:36:49,229:__init__:INFO:
Constructed 3D Lorenz dataset with: 
2021-04-10 16:36:49,230:__init__:INFO:     lookahead: 5 | tau: 1 | k: 7
2021-04-10 16:36:49,230:__init__:INFO:     size of histories: torch.Size([979, 7, 1]) | size of futures: torch.Size([979, 6, 1])

2021-04-10 16:44:40,098:<module>:INFO:
 ----------------------- Starting of new script ----------------------- 

2021-04-10 16:44:40,108:<module>:INFO:CreationRNN(
  (rnn): GRU(1, 256, num_layers=2, batch_first=True)
  (o2o): Linear(in_features=256, out_features=3, bias=True)
)
2021-04-10 16:44:40,108:<module>:INFO:Net(
  (acti): LeakyReLU(negative_slope=0.01)
  (layer1): Linear(in_features=3, out_features=256, bias=True)
  (layer2): Linear(in_features=256, out_features=256, bias=True)
  (layer3): Linear(in_features=256, out_features=3, bias=True)
)
2021-04-10 16:44:40,135:__init__:INFO:
Constructed 3D Lorenz dataset with: 
2021-04-10 16:44:40,135:__init__:INFO:     lookahead: 5 | tau: 1 | k: 7
2021-04-10 16:44:40,135:__init__:INFO:     size of histories: torch.Size([979, 7, 1]) | size of futures: torch.Size([979, 6, 1])

2021-04-10 16:45:13,427:<module>:INFO:
 ----------------------- Starting of new script ----------------------- 

2021-04-10 16:45:13,434:<module>:INFO:CreationRNN(
  (rnn): GRU(1, 256, num_layers=2, batch_first=True)
  (o2o): Linear(in_features=256, out_features=3, bias=True)
)
2021-04-10 16:45:13,434:<module>:INFO:Net(
  (acti): LeakyReLU(negative_slope=0.01)
  (layer1): Linear(in_features=3, out_features=256, bias=True)
  (layer2): Linear(in_features=256, out_features=256, bias=True)
  (layer3): Linear(in_features=256, out_features=3, bias=True)
)
2021-04-10 16:45:13,458:__init__:INFO:
Constructed 3D Lorenz dataset with: 
2021-04-10 16:45:13,458:__init__:INFO:     lookahead: 5 | tau: 1 | k: 7
2021-04-10 16:45:13,458:__init__:INFO:     size of histories: torch.Size([979, 7, 1]) | size of futures: torch.Size([979, 6, 1])

2021-04-10 16:46:16,026:<module>:INFO:
 ----------------------- Starting of new script ----------------------- 

2021-04-10 16:46:16,031:<module>:INFO:CreationRNN(
  (rnn): GRU(1, 256, num_layers=2, batch_first=True)
  (o2o): Linear(in_features=256, out_features=3, bias=True)
)
2021-04-10 16:46:16,032:<module>:INFO:Net(
  (acti): LeakyReLU(negative_slope=0.01)
  (layer1): Linear(in_features=3, out_features=256, bias=True)
  (layer2): Linear(in_features=256, out_features=256, bias=True)
  (layer3): Linear(in_features=256, out_features=3, bias=True)
)
2021-04-10 16:46:16,054:__init__:INFO:
Constructed 3D Lorenz dataset with: 
2021-04-10 16:46:16,054:__init__:INFO:     lookahead: 5 | tau: 1 | k: 7
2021-04-10 16:46:16,054:__init__:INFO:     size of histories: torch.Size([979, 7, 1]) | size of futures: torch.Size([979, 6, 1])

2021-04-10 16:46:32,395:<module>:INFO:
 ----------------------- Starting of new script ----------------------- 

2021-04-10 16:46:32,400:<module>:INFO:CreationRNN(
  (rnn): GRU(1, 256, num_layers=2, batch_first=True)
  (o2o): Linear(in_features=256, out_features=3, bias=True)
)
2021-04-10 16:46:32,400:<module>:INFO:Net(
  (acti): LeakyReLU(negative_slope=0.01)
  (layer1): Linear(in_features=3, out_features=256, bias=True)
  (layer2): Linear(in_features=256, out_features=256, bias=True)
  (layer3): Linear(in_features=256, out_features=3, bias=True)
)
2021-04-10 16:46:32,423:__init__:INFO:
Constructed 3D Lorenz dataset with: 
2021-04-10 16:46:32,423:__init__:INFO:     lookahead: 5 | tau: 1 | k: 7
2021-04-10 16:46:32,423:__init__:INFO:     size of histories: torch.Size([979, 7, 1]) | size of futures: torch.Size([979, 6, 1])

2021-04-10 16:46:56,500:<module>:INFO:
 ----------------------- Starting of new script ----------------------- 

2021-04-10 16:46:56,505:<module>:INFO:CreationRNN(
  (rnn): GRU(1, 256, num_layers=2, batch_first=True)
  (o2o): Linear(in_features=256, out_features=3, bias=True)
)
2021-04-10 16:46:56,505:<module>:INFO:Net(
  (acti): LeakyReLU(negative_slope=0.01)
  (layer1): Linear(in_features=3, out_features=256, bias=True)
  (layer2): Linear(in_features=256, out_features=256, bias=True)
  (layer3): Linear(in_features=256, out_features=3, bias=True)
)
2021-04-10 16:46:56,527:__init__:INFO:
Constructed 3D Lorenz dataset with: 
2021-04-10 16:46:56,527:__init__:INFO:     lookahead: 5 | tau: 1 | k: 7
2021-04-10 16:46:56,527:__init__:INFO:     size of histories: torch.Size([979, 7, 1]) | size of futures: torch.Size([979, 6, 1])

2021-04-10 16:47:33,247:<module>:INFO:
 ----------------------- Starting of new script ----------------------- 

2021-04-10 16:47:33,252:<module>:INFO:CreationRNN(
  (rnn): GRU(1, 256, num_layers=2, batch_first=True)
  (o2o): Linear(in_features=256, out_features=3, bias=True)
)
2021-04-10 16:47:33,252:<module>:INFO:Net(
  (acti): LeakyReLU(negative_slope=0.01)
  (layer1): Linear(in_features=3, out_features=256, bias=True)
  (layer2): Linear(in_features=256, out_features=256, bias=True)
  (layer3): Linear(in_features=256, out_features=3, bias=True)
)
2021-04-10 16:47:33,275:__init__:INFO:
Constructed 3D Lorenz dataset with: 
2021-04-10 16:47:33,275:__init__:INFO:     lookahead: 5 | tau: 1 | k: 7
2021-04-10 16:47:33,276:__init__:INFO:     size of histories: torch.Size([979, 7, 1]) | size of futures: torch.Size([979, 6, 1])

2021-04-10 16:47:40,790:<module>:INFO:
 ----------------------- Starting of new script ----------------------- 

2021-04-10 16:47:40,795:<module>:INFO:CreationRNN(
  (rnn): GRU(1, 256, num_layers=2, batch_first=True)
  (o2o): Linear(in_features=256, out_features=3, bias=True)
)
2021-04-10 16:47:40,795:<module>:INFO:Net(
  (acti): LeakyReLU(negative_slope=0.01)
  (layer1): Linear(in_features=3, out_features=256, bias=True)
  (layer2): Linear(in_features=256, out_features=256, bias=True)
  (layer3): Linear(in_features=256, out_features=3, bias=True)
)
2021-04-10 16:47:40,817:__init__:INFO:
Constructed 3D Lorenz dataset with: 
2021-04-10 16:47:40,817:__init__:INFO:     lookahead: 5 | tau: 1 | k: 7
2021-04-10 16:47:40,817:__init__:INFO:     size of histories: torch.Size([979, 7, 1]) | size of futures: torch.Size([979, 6, 1])

2021-04-10 16:47:56,445:<module>:INFO:
 ----------------------- Starting of new script ----------------------- 

2021-04-10 16:47:56,455:<module>:INFO:CreationRNN(
  (rnn): GRU(1, 256, num_layers=2, batch_first=True)
  (o2o): Linear(in_features=256, out_features=3, bias=True)
)
2021-04-10 16:47:56,455:<module>:INFO:Net(
  (acti): LeakyReLU(negative_slope=0.01)
  (layer1): Linear(in_features=3, out_features=256, bias=True)
  (layer2): Linear(in_features=256, out_features=256, bias=True)
  (layer3): Linear(in_features=256, out_features=3, bias=True)
)
2021-04-10 16:47:56,480:__init__:INFO:
Constructed 3D Lorenz dataset with: 
2021-04-10 16:47:56,480:__init__:INFO:     lookahead: 5 | tau: 1 | k: 7
2021-04-10 16:47:56,480:__init__:INFO:     size of histories: torch.Size([979, 7, 1]) | size of futures: torch.Size([979, 6, 1])

2021-04-10 16:48:20,659:<module>:INFO:
 ----------------------- Starting of new script ----------------------- 

2021-04-10 16:48:20,664:<module>:INFO:CreationRNN(
  (rnn): GRU(1, 256, num_layers=2, batch_first=True)
  (o2o): Linear(in_features=256, out_features=3, bias=True)
)
2021-04-10 16:48:20,664:<module>:INFO:Net(
  (acti): LeakyReLU(negative_slope=0.01)
  (layer1): Linear(in_features=3, out_features=256, bias=True)
  (layer2): Linear(in_features=256, out_features=256, bias=True)
  (layer3): Linear(in_features=256, out_features=3, bias=True)
)
2021-04-10 16:48:20,686:__init__:INFO:
Constructed 3D Lorenz dataset with: 
2021-04-10 16:48:20,686:__init__:INFO:     lookahead: 5 | tau: 1 | k: 7
2021-04-10 16:48:20,686:__init__:INFO:     size of histories: torch.Size([979, 7, 1]) | size of futures: torch.Size([979, 6, 1])

2021-04-10 16:48:36,226:<module>:INFO:
 ----------------------- Starting of new script ----------------------- 

2021-04-10 16:48:36,231:<module>:INFO:CreationRNN(
  (rnn): GRU(1, 256, num_layers=2, batch_first=True)
  (o2o): Linear(in_features=256, out_features=3, bias=True)
)
2021-04-10 16:48:36,231:<module>:INFO:Net(
  (acti): LeakyReLU(negative_slope=0.01)
  (layer1): Linear(in_features=3, out_features=256, bias=True)
  (layer2): Linear(in_features=256, out_features=256, bias=True)
  (layer3): Linear(in_features=256, out_features=3, bias=True)
)
2021-04-10 16:48:36,254:__init__:INFO:
Constructed 3D Lorenz dataset with: 
2021-04-10 16:48:36,254:__init__:INFO:     lookahead: 5 | tau: 1 | k: 7
2021-04-10 16:48:36,254:__init__:INFO:     size of histories: torch.Size([979, 7, 1]) | size of futures: torch.Size([979, 6, 1])

2021-04-10 16:48:51,456:<module>:INFO:
 ----------------------- Starting of new script ----------------------- 

2021-04-10 16:48:51,461:<module>:INFO:CreationRNN(
  (rnn): GRU(1, 256, num_layers=2, batch_first=True)
  (o2o): Linear(in_features=256, out_features=3, bias=True)
)
2021-04-10 16:48:51,461:<module>:INFO:Net(
  (acti): LeakyReLU(negative_slope=0.01)
  (layer1): Linear(in_features=3, out_features=256, bias=True)
  (layer2): Linear(in_features=256, out_features=256, bias=True)
  (layer3): Linear(in_features=256, out_features=3, bias=True)
)
2021-04-10 16:48:51,484:__init__:INFO:
Constructed 3D Lorenz dataset with: 
2021-04-10 16:48:51,484:__init__:INFO:     lookahead: 5 | tau: 1 | k: 7
2021-04-10 16:48:51,484:__init__:INFO:     size of histories: torch.Size([979, 7, 1]) | size of futures: torch.Size([979, 6, 1])

2021-04-10 16:49:09,441:<module>:INFO:
 ----------------------- Starting of new script ----------------------- 

2021-04-10 16:49:09,447:<module>:INFO:CreationRNN(
  (rnn): GRU(1, 256, num_layers=2, batch_first=True)
  (o2o): Linear(in_features=256, out_features=3, bias=True)
)
2021-04-10 16:49:09,447:<module>:INFO:Net(
  (acti): LeakyReLU(negative_slope=0.01)
  (layer1): Linear(in_features=3, out_features=256, bias=True)
  (layer2): Linear(in_features=256, out_features=256, bias=True)
  (layer3): Linear(in_features=256, out_features=3, bias=True)
)
2021-04-10 16:49:09,469:__init__:INFO:
Constructed 3D Lorenz dataset with: 
2021-04-10 16:49:09,469:__init__:INFO:     lookahead: 5 | tau: 1 | k: 7
2021-04-10 16:49:09,469:__init__:INFO:     size of histories: torch.Size([979, 7, 1]) | size of futures: torch.Size([979, 6, 1])

2021-04-10 16:50:40,436:<module>:INFO:
 ----------------------- Starting of new script ----------------------- 

2021-04-10 16:50:40,441:<module>:INFO:CreationRNN(
  (rnn): GRU(1, 256, num_layers=2, batch_first=True)
  (o2o): Linear(in_features=256, out_features=3, bias=True)
)
2021-04-10 16:50:40,441:<module>:INFO:Net(
  (acti): LeakyReLU(negative_slope=0.01)
  (layer1): Linear(in_features=3, out_features=256, bias=True)
  (layer2): Linear(in_features=256, out_features=256, bias=True)
  (layer3): Linear(in_features=256, out_features=3, bias=True)
)
2021-04-10 16:50:40,464:__init__:INFO:
Constructed 3D Lorenz dataset with: 
2021-04-10 16:50:40,464:__init__:INFO:     lookahead: 5 | tau: 1 | k: 7
2021-04-10 16:50:40,464:__init__:INFO:     size of histories: torch.Size([979, 7, 1]) | size of futures: torch.Size([979, 6, 1])

2021-04-10 16:50:51,001:<module>:INFO:
 ----------------------- Starting of new script ----------------------- 

2021-04-10 16:50:51,006:<module>:INFO:CreationRNN(
  (rnn): GRU(1, 256, num_layers=2, batch_first=True)
  (o2o): Linear(in_features=256, out_features=3, bias=True)
)
2021-04-10 16:50:51,006:<module>:INFO:Net(
  (acti): LeakyReLU(negative_slope=0.01)
  (layer1): Linear(in_features=3, out_features=256, bias=True)
  (layer2): Linear(in_features=256, out_features=256, bias=True)
  (layer3): Linear(in_features=256, out_features=3, bias=True)
)
2021-04-10 16:50:51,029:__init__:INFO:
Constructed 3D Lorenz dataset with: 
2021-04-10 16:50:51,029:__init__:INFO:     lookahead: 5 | tau: 1 | k: 7
2021-04-10 16:50:51,029:__init__:INFO:     size of histories: torch.Size([979, 7, 1]) | size of futures: torch.Size([979, 6, 1])

2021-04-10 16:51:11,811:<module>:INFO:
 ----------------------- Starting of new script ----------------------- 

2021-04-10 16:51:11,816:<module>:INFO:CreationRNN(
  (rnn): GRU(1, 256, num_layers=2, batch_first=True)
  (o2o): Linear(in_features=256, out_features=3, bias=True)
)
2021-04-10 16:51:11,816:<module>:INFO:Net(
  (acti): LeakyReLU(negative_slope=0.01)
  (layer1): Linear(in_features=3, out_features=256, bias=True)
  (layer2): Linear(in_features=256, out_features=256, bias=True)
  (layer3): Linear(in_features=256, out_features=3, bias=True)
)
2021-04-10 16:51:11,838:__init__:INFO:
Constructed 3D Lorenz dataset with: 
2021-04-10 16:51:11,838:__init__:INFO:     lookahead: 5 | tau: 1 | k: 7
2021-04-10 16:51:11,838:__init__:INFO:     size of histories: torch.Size([979, 7, 1]) | size of futures: torch.Size([979, 6, 1])

2021-04-10 16:51:20,463:<module>:INFO:
 ----------------------- Starting of new script ----------------------- 

2021-04-10 16:51:20,468:<module>:INFO:CreationRNN(
  (rnn): GRU(1, 256, num_layers=2, batch_first=True)
  (o2o): Linear(in_features=256, out_features=3, bias=True)
)
2021-04-10 16:51:20,468:<module>:INFO:Net(
  (acti): LeakyReLU(negative_slope=0.01)
  (layer1): Linear(in_features=3, out_features=256, bias=True)
  (layer2): Linear(in_features=256, out_features=256, bias=True)
  (layer3): Linear(in_features=256, out_features=3, bias=True)
)
2021-04-10 16:51:20,491:__init__:INFO:
Constructed 3D Lorenz dataset with: 
2021-04-10 16:51:20,491:__init__:INFO:     lookahead: 5 | tau: 1 | k: 7
2021-04-10 16:51:20,491:__init__:INFO:     size of histories: torch.Size([979, 7, 1]) | size of futures: torch.Size([979, 6, 1])

2021-04-10 16:51:55,193:<module>:INFO:
 ----------------------- Starting of new script ----------------------- 

2021-04-10 16:51:55,204:<module>:INFO:CreationRNN(
  (rnn): GRU(1, 256, num_layers=2, batch_first=True)
  (o2o): Linear(in_features=256, out_features=3, bias=True)
)
2021-04-10 16:51:55,205:<module>:INFO:Net(
  (acti): LeakyReLU(negative_slope=0.01)
  (layer1): Linear(in_features=3, out_features=256, bias=True)
  (layer2): Linear(in_features=256, out_features=256, bias=True)
  (layer3): Linear(in_features=256, out_features=3, bias=True)
)
2021-04-10 16:51:55,234:__init__:INFO:
Constructed 3D Lorenz dataset with: 
2021-04-10 16:51:55,234:__init__:INFO:     lookahead: 5 | tau: 1 | k: 7
2021-04-10 16:51:55,234:__init__:INFO:     size of histories: torch.Size([979, 7, 1]) | size of futures: torch.Size([979, 6, 1])

2021-04-10 16:52:32,664:<module>:INFO:
 ----------------------- Starting of new script ----------------------- 

2021-04-10 16:52:32,670:<module>:INFO:CreationRNN(
  (rnn): GRU(1, 256, num_layers=2, batch_first=True)
  (o2o): Linear(in_features=256, out_features=3, bias=True)
)
2021-04-10 16:52:32,670:<module>:INFO:Net(
  (acti): LeakyReLU(negative_slope=0.01)
  (layer1): Linear(in_features=3, out_features=256, bias=True)
  (layer2): Linear(in_features=256, out_features=256, bias=True)
  (layer3): Linear(in_features=256, out_features=3, bias=True)
)
2021-04-10 16:52:32,692:__init__:INFO:
Constructed 3D Lorenz dataset with: 
2021-04-10 16:52:32,693:__init__:INFO:     lookahead: 5 | tau: 1 | k: 7
2021-04-10 16:52:32,693:__init__:INFO:     size of histories: torch.Size([979, 7, 1]) | size of futures: torch.Size([979, 6, 1])

2021-04-10 16:52:51,268:<module>:INFO:
 ----------------------- Starting of new script ----------------------- 

2021-04-10 16:52:51,273:<module>:INFO:CreationRNN(
  (rnn): GRU(1, 256, num_layers=2, batch_first=True)
  (o2o): Linear(in_features=256, out_features=3, bias=True)
)
2021-04-10 16:52:51,273:<module>:INFO:Net(
  (acti): LeakyReLU(negative_slope=0.01)
  (layer1): Linear(in_features=3, out_features=256, bias=True)
  (layer2): Linear(in_features=256, out_features=256, bias=True)
  (layer3): Linear(in_features=256, out_features=3, bias=True)
)
2021-04-10 16:52:51,296:__init__:INFO:
Constructed 3D Lorenz dataset with: 
2021-04-10 16:52:51,296:__init__:INFO:     lookahead: 5 | tau: 1 | k: 7
2021-04-10 16:52:51,296:__init__:INFO:     size of histories: torch.Size([979, 7, 1]) | size of futures: torch.Size([979, 6, 1])

2021-04-10 16:53:04,737:<module>:INFO:
 ----------------------- Starting of new script ----------------------- 

2021-04-10 16:53:04,742:<module>:INFO:CreationRNN(
  (rnn): GRU(1, 256, num_layers=2, batch_first=True)
  (o2o): Linear(in_features=256, out_features=3, bias=True)
)
2021-04-10 16:53:04,743:<module>:INFO:Net(
  (acti): LeakyReLU(negative_slope=0.01)
  (layer1): Linear(in_features=3, out_features=256, bias=True)
  (layer2): Linear(in_features=256, out_features=256, bias=True)
  (layer3): Linear(in_features=256, out_features=3, bias=True)
)
2021-04-10 16:53:04,765:__init__:INFO:
Constructed 3D Lorenz dataset with: 
2021-04-10 16:53:04,765:__init__:INFO:     lookahead: 5 | tau: 1 | k: 7
2021-04-10 16:53:04,765:__init__:INFO:     size of histories: torch.Size([979, 7, 1]) | size of futures: torch.Size([979, 6, 1])

2021-04-10 16:53:24,803:<module>:INFO:
 ----------------------- Starting of new script ----------------------- 

2021-04-10 16:53:24,809:<module>:INFO:CreationRNN(
  (rnn): GRU(1, 256, num_layers=2, batch_first=True)
  (o2o): Linear(in_features=256, out_features=3, bias=True)
)
2021-04-10 16:53:24,809:<module>:INFO:Net(
  (acti): LeakyReLU(negative_slope=0.01)
  (layer1): Linear(in_features=3, out_features=256, bias=True)
  (layer2): Linear(in_features=256, out_features=256, bias=True)
  (layer3): Linear(in_features=256, out_features=3, bias=True)
)
2021-04-10 16:53:24,832:__init__:INFO:
Constructed 3D Lorenz dataset with: 
2021-04-10 16:53:24,832:__init__:INFO:     lookahead: 5 | tau: 1 | k: 7
2021-04-10 16:53:24,832:__init__:INFO:     size of histories: torch.Size([979, 7, 1]) | size of futures: torch.Size([979, 6, 1])

2021-04-10 16:53:40,832:<module>:INFO:
 ----------------------- Starting of new script ----------------------- 

2021-04-10 16:53:40,837:<module>:INFO:CreationRNN(
  (rnn): GRU(1, 256, num_layers=2, batch_first=True)
  (o2o): Linear(in_features=256, out_features=3, bias=True)
)
2021-04-10 16:53:40,838:<module>:INFO:Net(
  (acti): LeakyReLU(negative_slope=0.01)
  (layer1): Linear(in_features=3, out_features=256, bias=True)
  (layer2): Linear(in_features=256, out_features=256, bias=True)
  (layer3): Linear(in_features=256, out_features=3, bias=True)
)
2021-04-10 16:53:40,861:__init__:INFO:
Constructed 3D Lorenz dataset with: 
2021-04-10 16:53:40,861:__init__:INFO:     lookahead: 5 | tau: 1 | k: 7
2021-04-10 16:53:40,861:__init__:INFO:     size of histories: torch.Size([979, 7, 1]) | size of futures: torch.Size([979, 6, 1])

2021-04-10 16:53:51,556:<module>:INFO:
 ----------------------- Starting of new script ----------------------- 

2021-04-10 16:53:51,561:<module>:INFO:CreationRNN(
  (rnn): GRU(1, 256, num_layers=2, batch_first=True)
  (o2o): Linear(in_features=256, out_features=3, bias=True)
)
2021-04-10 16:53:51,561:<module>:INFO:Net(
  (acti): LeakyReLU(negative_slope=0.01)
  (layer1): Linear(in_features=3, out_features=256, bias=True)
  (layer2): Linear(in_features=256, out_features=256, bias=True)
  (layer3): Linear(in_features=256, out_features=3, bias=True)
)
2021-04-10 16:53:51,584:__init__:INFO:
Constructed 3D Lorenz dataset with: 
2021-04-10 16:53:51,584:__init__:INFO:     lookahead: 5 | tau: 1 | k: 7
2021-04-10 16:53:51,584:__init__:INFO:     size of histories: torch.Size([979, 7, 1]) | size of futures: torch.Size([979, 6, 1])

2021-04-10 16:54:34,685:<module>:INFO:
 ----------------------- Starting of new script ----------------------- 

2021-04-10 16:54:34,694:<module>:INFO:CreationRNN(
  (rnn): GRU(1, 256, num_layers=2, batch_first=True)
  (o2o): Linear(in_features=256, out_features=3, bias=True)
)
2021-04-10 16:54:34,695:<module>:INFO:Net(
  (acti): LeakyReLU(negative_slope=0.01)
  (layer1): Linear(in_features=3, out_features=256, bias=True)
  (layer2): Linear(in_features=256, out_features=256, bias=True)
  (layer3): Linear(in_features=256, out_features=3, bias=True)
)
2021-04-10 16:54:34,726:__init__:INFO:
Constructed 3D Lorenz dataset with: 
2021-04-10 16:54:34,727:__init__:INFO:     lookahead: 5 | tau: 1 | k: 7
2021-04-10 16:54:34,727:__init__:INFO:     size of histories: torch.Size([979, 7, 1]) | size of futures: torch.Size([979, 6, 1])

2021-04-10 16:54:41,385:<module>:INFO:
 ----------------------- Starting of new script ----------------------- 

2021-04-10 16:54:41,393:<module>:INFO:CreationRNN(
  (rnn): GRU(1, 256, num_layers=2, batch_first=True)
  (o2o): Linear(in_features=256, out_features=3, bias=True)
)
2021-04-10 16:54:41,393:<module>:INFO:Net(
  (acti): LeakyReLU(negative_slope=0.01)
  (layer1): Linear(in_features=3, out_features=256, bias=True)
  (layer2): Linear(in_features=256, out_features=256, bias=True)
  (layer3): Linear(in_features=256, out_features=3, bias=True)
)
2021-04-10 16:54:41,424:__init__:INFO:
Constructed 3D Lorenz dataset with: 
2021-04-10 16:54:41,424:__init__:INFO:     lookahead: 5 | tau: 1 | k: 7
2021-04-10 16:54:41,424:__init__:INFO:     size of histories: torch.Size([979, 7, 1]) | size of futures: torch.Size([979, 6, 1])

2021-04-10 16:55:03,471:<module>:INFO:
 ----------------------- Starting of new script ----------------------- 

2021-04-10 16:55:03,476:<module>:INFO:CreationRNN(
  (rnn): GRU(1, 256, num_layers=2, batch_first=True)
  (o2o): Linear(in_features=256, out_features=3, bias=True)
)
2021-04-10 16:55:03,476:<module>:INFO:Net(
  (acti): LeakyReLU(negative_slope=0.01)
  (layer1): Linear(in_features=3, out_features=256, bias=True)
  (layer2): Linear(in_features=256, out_features=256, bias=True)
  (layer3): Linear(in_features=256, out_features=3, bias=True)
)
2021-04-10 16:55:03,498:__init__:INFO:
Constructed 3D Lorenz dataset with: 
2021-04-10 16:55:03,499:__init__:INFO:     lookahead: 5 | tau: 1 | k: 7
2021-04-10 16:55:03,499:__init__:INFO:     size of histories: torch.Size([979, 7, 1]) | size of futures: torch.Size([979, 6, 1])

2021-04-10 16:56:12,780:<module>:INFO:
 ----------------------- Starting of new script ----------------------- 

2021-04-10 16:56:12,789:<module>:INFO:CreationRNN(
  (rnn): GRU(1, 256, num_layers=2, batch_first=True)
  (o2o): Linear(in_features=256, out_features=3, bias=True)
)
2021-04-10 16:56:12,789:<module>:INFO:Net(
  (acti): LeakyReLU(negative_slope=0.01)
  (layer1): Linear(in_features=3, out_features=256, bias=True)
  (layer2): Linear(in_features=256, out_features=256, bias=True)
  (layer3): Linear(in_features=256, out_features=3, bias=True)
)
2021-04-10 16:56:12,815:__init__:INFO:
Constructed 3D Lorenz dataset with: 
2021-04-10 16:56:12,815:__init__:INFO:     lookahead: 5 | tau: 1 | k: 7
2021-04-10 16:56:12,815:__init__:INFO:     size of histories: torch.Size([979, 7, 1]) | size of futures: torch.Size([979, 6, 1])

2021-04-10 16:56:23,466:<module>:INFO:
 ----------------------- Starting of new script ----------------------- 

2021-04-10 16:56:23,472:<module>:INFO:CreationRNN(
  (rnn): GRU(1, 256, num_layers=2, batch_first=True)
  (o2o): Linear(in_features=256, out_features=3, bias=True)
)
2021-04-10 16:56:23,472:<module>:INFO:Net(
  (acti): LeakyReLU(negative_slope=0.01)
  (layer1): Linear(in_features=3, out_features=256, bias=True)
  (layer2): Linear(in_features=256, out_features=256, bias=True)
  (layer3): Linear(in_features=256, out_features=3, bias=True)
)
2021-04-10 16:56:23,495:__init__:INFO:
Constructed 3D Lorenz dataset with: 
2021-04-10 16:56:23,495:__init__:INFO:     lookahead: 5 | tau: 1 | k: 7
2021-04-10 16:56:23,495:__init__:INFO:     size of histories: torch.Size([979, 7, 1]) | size of futures: torch.Size([979, 6, 1])

2021-04-10 16:56:58,575:<module>:INFO:
 ----------------------- Starting of new script ----------------------- 

2021-04-10 16:56:58,580:<module>:INFO:CreationRNN(
  (rnn): GRU(1, 256, num_layers=2, batch_first=True)
  (o2o): Linear(in_features=256, out_features=3, bias=True)
)
2021-04-10 16:56:58,580:<module>:INFO:Net(
  (acti): LeakyReLU(negative_slope=0.01)
  (layer1): Linear(in_features=3, out_features=256, bias=True)
  (layer2): Linear(in_features=256, out_features=256, bias=True)
  (layer3): Linear(in_features=256, out_features=3, bias=True)
)
2021-04-10 16:56:58,603:__init__:INFO:
Constructed 3D Lorenz dataset with: 
2021-04-10 16:56:58,603:__init__:INFO:     lookahead: 5 | tau: 1 | k: 7
2021-04-10 16:56:58,603:__init__:INFO:     size of histories: torch.Size([979, 7, 1]) | size of futures: torch.Size([979, 6, 1])

2021-04-10 16:57:16,964:<module>:INFO:
 ----------------------- Starting of new script ----------------------- 

2021-04-10 16:57:16,971:<module>:INFO:CreationRNN(
  (rnn): GRU(1, 256, num_layers=2, batch_first=True)
  (o2o): Linear(in_features=256, out_features=3, bias=True)
)
2021-04-10 16:57:16,971:<module>:INFO:Net(
  (acti): LeakyReLU(negative_slope=0.01)
  (layer1): Linear(in_features=3, out_features=256, bias=True)
  (layer2): Linear(in_features=256, out_features=256, bias=True)
  (layer3): Linear(in_features=256, out_features=3, bias=True)
)
2021-04-10 16:57:16,996:__init__:INFO:
Constructed 3D Lorenz dataset with: 
2021-04-10 16:57:16,997:__init__:INFO:     lookahead: 5 | tau: 1 | k: 7
2021-04-10 16:57:16,997:__init__:INFO:     size of histories: torch.Size([979, 7, 1]) | size of futures: torch.Size([979, 6, 1])

2021-04-10 16:58:05,757:<module>:INFO:
 ----------------------- Starting of new script ----------------------- 

2021-04-10 16:58:05,762:<module>:INFO:CreationRNN(
  (rnn): GRU(1, 256, num_layers=2, batch_first=True)
  (o2o): Linear(in_features=256, out_features=3, bias=True)
)
2021-04-10 16:58:05,762:<module>:INFO:Net(
  (acti): LeakyReLU(negative_slope=0.01)
  (layer1): Linear(in_features=3, out_features=256, bias=True)
  (layer2): Linear(in_features=256, out_features=256, bias=True)
  (layer3): Linear(in_features=256, out_features=3, bias=True)
)
2021-04-10 16:58:05,785:__init__:INFO:
Constructed 3D Lorenz dataset with: 
2021-04-10 16:58:05,785:__init__:INFO:     lookahead: 5 | tau: 1 | k: 7
2021-04-10 16:58:05,785:__init__:INFO:     size of histories: torch.Size([979, 7, 1]) | size of futures: torch.Size([979, 6, 1])

2021-04-10 16:58:28,980:<module>:INFO:
 ----------------------- Starting of new script ----------------------- 

2021-04-10 16:58:28,985:<module>:INFO:CreationRNN(
  (rnn): GRU(1, 256, num_layers=2, batch_first=True)
  (o2o): Linear(in_features=256, out_features=3, bias=True)
)
2021-04-10 16:58:28,985:<module>:INFO:Net(
  (acti): LeakyReLU(negative_slope=0.01)
  (layer1): Linear(in_features=3, out_features=256, bias=True)
  (layer2): Linear(in_features=256, out_features=256, bias=True)
  (layer3): Linear(in_features=256, out_features=3, bias=True)
)
2021-04-10 16:58:29,008:__init__:INFO:
Constructed 3D Lorenz dataset with: 
2021-04-10 16:58:29,008:__init__:INFO:     lookahead: 5 | tau: 1 | k: 7
2021-04-10 16:58:29,008:__init__:INFO:     size of histories: torch.Size([979, 7, 1]) | size of futures: torch.Size([979, 6, 1])

2021-04-10 16:59:00,272:<module>:INFO:
 ----------------------- Starting of new script ----------------------- 

2021-04-10 16:59:00,277:<module>:INFO:CreationRNN(
  (rnn): GRU(1, 256, num_layers=2, batch_first=True)
  (o2o): Linear(in_features=256, out_features=3, bias=True)
)
2021-04-10 16:59:00,277:<module>:INFO:Net(
  (acti): LeakyReLU(negative_slope=0.01)
  (layer1): Linear(in_features=3, out_features=256, bias=True)
  (layer2): Linear(in_features=256, out_features=256, bias=True)
  (layer3): Linear(in_features=256, out_features=3, bias=True)
)
2021-04-10 16:59:00,300:__init__:INFO:
Constructed 3D Lorenz dataset with: 
2021-04-10 16:59:00,300:__init__:INFO:     lookahead: 5 | tau: 1 | k: 7
2021-04-10 16:59:00,300:__init__:INFO:     size of histories: torch.Size([979, 7, 1]) | size of futures: torch.Size([979, 6, 1])

2021-04-10 16:59:08,795:<module>:INFO:
 ----------------------- Starting of new script ----------------------- 

2021-04-10 16:59:08,801:<module>:INFO:CreationRNN(
  (rnn): GRU(1, 256, num_layers=2, batch_first=True)
  (o2o): Linear(in_features=256, out_features=3, bias=True)
)
2021-04-10 16:59:08,801:<module>:INFO:Net(
  (acti): LeakyReLU(negative_slope=0.01)
  (layer1): Linear(in_features=3, out_features=256, bias=True)
  (layer2): Linear(in_features=256, out_features=256, bias=True)
  (layer3): Linear(in_features=256, out_features=3, bias=True)
)
2021-04-10 16:59:08,823:__init__:INFO:
Constructed 3D Lorenz dataset with: 
2021-04-10 16:59:08,823:__init__:INFO:     lookahead: 5 | tau: 1 | k: 7
2021-04-10 16:59:08,823:__init__:INFO:     size of histories: torch.Size([979, 7, 1]) | size of futures: torch.Size([979, 6, 1])

2021-04-10 16:59:43,848:<module>:INFO:
 ----------------------- Starting of new script ----------------------- 

2021-04-10 16:59:43,854:<module>:INFO:CreationRNN(
  (rnn): GRU(1, 256, num_layers=2, batch_first=True)
  (o2o): Linear(in_features=256, out_features=3, bias=True)
)
2021-04-10 16:59:43,854:<module>:INFO:Net(
  (acti): LeakyReLU(negative_slope=0.01)
  (layer1): Linear(in_features=3, out_features=256, bias=True)
  (layer2): Linear(in_features=256, out_features=256, bias=True)
  (layer3): Linear(in_features=256, out_features=3, bias=True)
)
2021-04-10 16:59:43,877:__init__:INFO:
Constructed 3D Lorenz dataset with: 
2021-04-10 16:59:43,877:__init__:INFO:     lookahead: 5 | tau: 1 | k: 7
2021-04-10 16:59:43,877:__init__:INFO:     size of histories: torch.Size([979, 7, 1]) | size of futures: torch.Size([979, 6, 1])

2021-04-10 17:10:21,723:<module>:INFO:
 ----------------------- Starting of new script ----------------------- 

2021-04-10 17:10:21,728:<module>:INFO:CreationRNN(
  (rnn): GRU(1, 256, num_layers=2, batch_first=True)
  (o2o): Linear(in_features=256, out_features=3, bias=True)
)
2021-04-10 17:10:21,728:<module>:INFO:Net(
  (acti): Tanh()
  (layer1): Linear(in_features=3, out_features=256, bias=True)
  (layer2): Linear(in_features=256, out_features=256, bias=True)
  (layer3): Linear(in_features=256, out_features=3, bias=True)
)
2021-04-10 17:10:21,747:__init__:INFO:
Constructed 3D Lorenz dataset with: 
2021-04-10 17:10:21,748:__init__:INFO:     lookahead: 2 | tau: 1 | k: 8
2021-04-10 17:10:21,748:__init__:INFO:     size of histories: torch.Size([1962, 8, 1]) | size of futures: torch.Size([1962, 3, 1])

2021-04-10 17:10:21,765:__init__:INFO:
Constructed 3D Lorenz dataset with: 
…
2021-04-10 17:11:53,964:<module>:INFO:EPOCH 38 finished with training loss: 9.21233081817627 | lr: 0.001 | delta time: 5s
2021-04-10 17:11:57,203:__init__:INFO:
Constructed 3D Lorenz dataset with: 
2021-04-10 17:11:57,203:__init__:INFO:     lookahead: 5 | tau: 1 | k: 8
2021-04-10 17:11:57,203:__init__:INFO:     size of histories: torch.Size([978, 8, 1]) | size of futures: torch.Size([978, 6, 1])

2021-04-10 17:12:30,282:<module>:INFO:
 ----------------------- Starting of new script ----------------------- 

2021-04-10 17:12:30,287:<module>:INFO:CreationRNN(
  (rnn): GRU(1, 256, num_layers=2, batch_first=True)
  (o2o): Linear(in_features=256, out_features=3, bias=True)
)
2021-04-10 17:12:30,288:<module>:INFO:Net(
  (acti): Tanh()
  (layer1): Linear(in_features=3, out_features=256, bias=True)
  (layer2): Linear(in_features=256, out_features=256, bias=True)
  (layer3): Linear(in_features=256, out_features=3, bias=True)
)
2021-04-10 17:12:55,277:<module>:INFO:
 ----------------------- Starting of new script ----------------------- 

2021-04-10 17:12:55,282:<module>:INFO:CreationRNN(
  (rnn): GRU(1, 256, num_layers=2, batch_first=True)
  (o2o): Linear(in_features=256, out_features=3, bias=True)
)
2021-04-10 17:12:55,282:<module>:INFO:Net(
  (acti): Tanh()
  (layer1): Linear(in_features=3, out_features=256, bias=True)
  (layer2): Linear(in_features=256, out_features=256, bias=True)
  (layer3): Linear(in_features=256, out_features=3, bias=True)
)
2021-04-10 17:12:55,304:__init__:INFO:
Constructed 3D Lorenz dataset with: 
2021-04-10 17:12:55,304:__init__:INFO:     lookahead: 5 | tau: 1 | k: 8
2021-04-10 17:12:55,304:__init__:INFO:     size of histories: torch.Size([978, 8, 1]) | size of futures: torch.Size([978, 6, 1])

2021-04-10 17:13:29,708:<module>:INFO:
 ----------------------- Starting of new script ----------------------- 

2021-04-10 17:13:29,714:<module>:INFO:CreationRNN(
  (rnn): GRU(1, 256, num_layers=2, batch_first=True)
  (o2o): Linear(in_features=256, out_features=3, bias=True)
)
2021-04-10 17:13:29,714:<module>:INFO:Net(
  (acti): Tanh()
  (layer1): Linear(in_features=3, out_features=256, bias=True)
  (layer2): Linear(in_features=256, out_features=256, bias=True)
  (layer3): Linear(in_features=256, out_features=3, bias=True)
)
2021-04-10 17:13:29,736:__init__:INFO:
Constructed 3D Lorenz dataset with: 
2021-04-10 17:13:29,737:__init__:INFO:     lookahead: 50 | tau: 1 | k: 8
2021-04-10 17:13:29,737:__init__:INFO:     size of histories: torch.Size([933, 8, 1]) | size of futures: torch.Size([933, 51, 1])

2021-04-10 17:14:11,927:<module>:INFO:
 ----------------------- Starting of new script ----------------------- 

2021-04-10 17:14:11,932:<module>:INFO:CreationRNN(
  (rnn): GRU(1, 256, num_layers=2, batch_first=True)
  (o2o): Linear(in_features=256, out_features=3, bias=True)
)
2021-04-10 17:14:11,933:<module>:INFO:Net(
  (acti): Tanh()
  (layer1): Linear(in_features=3, out_features=256, bias=True)
  (layer2): Linear(in_features=256, out_features=256, bias=True)
  (layer3): Linear(in_features=256, out_features=3, bias=True)
)
2021-04-10 17:14:11,949:__init__:INFO:
Constructed 3D Lorenz dataset with: 
2021-04-10 17:14:11,949:__init__:INFO:     lookahead: 2 | tau: 1 | k: 8
2021-04-10 17:14:11,949:__init__:INFO:     size of histories: torch.Size([1962, 8, 1]) | size of futures: torch.Size([1962, 3, 1])

2021-04-10 17:14:11,965:__init__:INFO:
Constructed 3D Lorenz dataset with: 
…
2021-04-10 17:27:00,401:<module>:INFO:EPOCH 132 finished with training loss: 5.558459281921387 | lr: 0.001 | delta time: 17s
2021-04-10 17:57:23,266:<module>:INFO:EPOCH 134 finished with training loss: 6.063289642333984 | lr: 0.001 | delta time: 1822s
2021-04-10 18:25:36,750:<module>:INFO:EPOCH 136 finished with training loss: 5.682856559753418 | lr: 0.001 | delta time: 1693s
2021-04-10 18:26:04,637:<module>:INFO:
 ----------------------- Starting of new script ----------------------- 

2021-04-10 18:26:04,647:<module>:INFO:CreationRNN(
  (rnn): GRU(1, 256, num_layers=2, batch_first=True)
  (o2o): Linear(in_features=256, out_features=3, bias=True)
)
2021-04-10 18:26:04,647:<module>:INFO:Net(
  (acti): Tanh()
  (layer1): Linear(in_features=3, out_features=256, bias=True)
  (layer2): Linear(in_features=256, out_features=256, bias=True)
  (layer3): Linear(in_features=256, out_features=3, bias=True)
)
2021-04-10 18:26:04,695:__init__:INFO:
Constructed 3D Lorenz dataset with: 
2021-04-10 18:26:04,696:__init__:INFO:     lookahead: 50 | tau: 1 | k: 8
2021-04-10 18:26:04,696:__init__:INFO:     size of histories: torch.Size([933, 8, 1]) | size of futures: torch.Size([933, 51, 1])

2021-04-10 18:26:39,161:<module>:INFO:
 ----------------------- Starting of new script ----------------------- 

2021-04-10 18:26:39,166:<module>:INFO:CreationRNN(
  (rnn): GRU(1, 256, num_layers=2, batch_first=True)
  (o2o): Linear(in_features=256, out_features=3, bias=True)
)
2021-04-10 18:26:39,166:<module>:INFO:Net(
  (acti): Tanh()
  (layer1): Linear(in_features=3, out_features=256, bias=True)
  (layer2): Linear(in_features=256, out_features=256, bias=True)
  (layer3): Linear(in_features=256, out_features=3, bias=True)
)
2021-04-10 18:26:39,190:__init__:INFO:
Constructed 3D Lorenz dataset with: 
2021-04-10 18:26:39,190:__init__:INFO:     lookahead: 100 | tau: 1 | k: 8
2021-04-10 18:26:39,190:__init__:INFO:     size of histories: torch.Size([883, 8, 1]) | size of futures: torch.Size([883, 101, 1])

2021-04-10 18:28:27,994:<module>:INFO:
 ----------------------- Starting of new script ----------------------- 

2021-04-10 18:28:28,001:<module>:INFO:CreationRNN(
  (rnn): GRU(1, 256, num_layers=2, batch_first=True)
  (o2o): Linear(in_features=256, out_features=3, bias=True)
)
2021-04-10 18:28:28,001:<module>:INFO:Net(
  (acti): Tanh()
  (layer1): Linear(in_features=3, out_features=256, bias=True)
  (layer2): Linear(in_features=256, out_features=256, bias=True)
  (layer3): Linear(in_features=256, out_features=3, bias=True)
)
2021-04-10 18:28:28,033:__init__:INFO:
Constructed 3D Lorenz dataset with: 
2021-04-10 18:28:28,033:__init__:INFO:     lookahead: 100 | tau: 1 | k: 8
2021-04-10 18:28:28,033:__init__:INFO:     size of histories: torch.Size([883, 8, 1]) | size of futures: torch.Size([883, 101, 1])

2021-04-10 18:36:59,391:<module>:INFO:
 ----------------------- Starting of new script ----------------------- 

2021-04-10 18:36:59,397:<module>:INFO:CreationRNN(
  (rnn): GRU(1, 500, batch_first=True)
  (o2o): Linear(in_features=500, out_features=3, bias=True)
)
2021-04-10 18:36:59,397:<module>:INFO:Net(
  (acti): Tanh()
  (layer1): Linear(in_features=3, out_features=256, bias=True)
  (layer2): Linear(in_features=256, out_features=256, bias=True)
  (layer3): Linear(in_features=256, out_features=3, bias=True)
)
2021-04-10 18:36:59,409:__init__:INFO:
Constructed 3D Lorenz dataset with: 
2021-04-10 18:36:59,409:__init__:INFO:     lookahead: 4 | tau: 1 | k: 8
2021-04-10 18:36:59,409:__init__:INFO:     size of histories: torch.Size([979, 8, 1]) | size of futures: torch.Size([979, 5, 1])

2021-04-10 18:36:59,421:__init__:INFO:
Constructed 3D Lorenz dataset with: 
2021-04-10 18:36:59,421:__init__:INFO:     lookahead: 4 | tau: 1 | k: 8
…
2021-04-10 18:52:38,206:<module>:INFO:EPOCH 28 finished with training loss: 2.8396196365356445 | lr: 0.005 | delta time: 3s
2021-04-10 18:52:40,274:__init__:INFO:
Constructed 3D Lorenz dataset with: 
2021-04-10 18:52:40,274:__init__:INFO:     lookahead: 100 | tau: 1 | k: 8
2021-04-10 18:52:40,274:__init__:INFO:     size of histories: torch.Size([883, 8, 1]) | size of futures: torch.Size([883, 101, 1])

2021-04-10 18:53:12,501:<module>:INFO:
 ----------------------- Starting of new script ----------------------- 

2021-04-10 18:53:12,516:<module>:INFO:CreationRNN(
  (rnn): GRU(1, 500, num_layers=2, batch_first=True)
  (o2o): Linear(in_features=500, out_features=6, bias=True)
)
2021-04-10 18:53:12,517:<module>:INFO:Net(
  (acti): Tanh()
  (layer1): Linear(in_features=6, out_features=256, bias=True)
  (layer2): Linear(in_features=256, out_features=256, bias=True)
  (layer3): Linear(in_features=256, out_features=6, bias=True)
)
2021-04-10 18:53:12,553:__init__:INFO:
Constructed 3D Lorenz dataset with: 
2021-04-10 18:53:12,553:__init__:INFO:     lookahead: 20 | tau: 1 | k: 8
2021-04-10 18:53:12,553:__init__:INFO:     size of histories: torch.Size([963, 8, 1]) | size of futures: torch.Size([963, 21, 1])

2021-04-10 18:53:35,977:<module>:INFO:
 ----------------------- Starting of new script ----------------------- 

2021-04-10 18:53:35,992:<module>:INFO:CreationRNN(
  (rnn): GRU(1, 500, num_layers=2, batch_first=True)
  (o2o): Linear(in_features=500, out_features=6, bias=True)
)
2021-04-10 18:53:35,992:<module>:INFO:Net(
  (acti): Tanh()
  (layer1): Linear(in_features=6, out_features=256, bias=True)
  (layer2): Linear(in_features=256, out_features=256, bias=True)
  (layer3): Linear(in_features=256, out_features=6, bias=True)
)
2021-04-10 18:53:36,004:__init__:INFO:
Constructed 3D Lorenz dataset with: 
2021-04-10 18:53:36,004:__init__:INFO:     lookahead: 2 | tau: 1 | k: 8
2021-04-10 18:53:36,004:__init__:INFO:     size of histories: torch.Size([981, 8, 1]) | size of futures: torch.Size([981, 3, 1])

2021-04-10 18:53:36,015:__init__:INFO:
Constructed 3D Lorenz dataset with: 
2021-04-10 18:53:36,015:__init__:INFO:     lookahead: 2 | tau: 1 | k: 8
…
2021-04-10 19:07:49,098:<module>:INFO:EPOCH 98 finished with training loss: 0.9983606934547424 | lr: 0.01 | delta time: 20s
2021-04-10 19:08:00,025:__init__:INFO:
Constructed 3D Lorenz dataset with: 
2021-04-10 19:08:00,026:__init__:INFO:     lookahead: 20 | tau: 1 | k: 8
2021-04-10 19:08:00,026:__init__:INFO:     size of histories: torch.Size([963, 8, 1]) | size of futures: torch.Size([963, 21, 1])

2021-04-10 19:09:05,167:<module>:INFO:
 ----------------------- Starting of new script ----------------------- 

2021-04-10 19:09:05,181:<module>:INFO:CreationRNN(
  (rnn): GRU(1, 500, num_layers=2, batch_first=True)
  (o2o): Linear(in_features=500, out_features=6, bias=True)
)
2021-04-10 19:09:05,182:<module>:INFO:Net(
  (acti): Tanh()
  (layer1): Linear(in_features=6, out_features=256, bias=True)
  (layer2): Linear(in_features=256, out_features=256, bias=True)
  (layer3): Linear(in_features=256, out_features=6, bias=True)
)
2021-04-10 19:09:05,216:__init__:INFO:
Constructed 3D Lorenz dataset with: 
2021-04-10 19:09:05,216:__init__:INFO:     lookahead: 100 | tau: 1 | k: 7
2021-04-10 19:09:05,217:__init__:INFO:     size of histories: torch.Size([884, 7, 1]) | size of futures: torch.Size([884, 101, 1])

2021-04-10 19:09:35,851:<module>:INFO:
 ----------------------- Starting of new script ----------------------- 

2021-04-10 19:09:35,868:<module>:INFO:CreationRNN(
  (rnn): GRU(1, 500, num_layers=2, batch_first=True)
  (o2o): Linear(in_features=500, out_features=6, bias=True)
)
2021-04-10 19:09:35,868:<module>:INFO:Net(
  (acti): Tanh()
  (layer1): Linear(in_features=6, out_features=256, bias=True)
  (layer2): Linear(in_features=256, out_features=256, bias=True)
  (layer3): Linear(in_features=256, out_features=6, bias=True)
)
2021-04-10 19:09:35,915:__init__:INFO:
Constructed 3D Lorenz dataset with: 
2021-04-10 19:09:35,915:__init__:INFO:     lookahead: 200 | tau: 1 | k: 7
2021-04-10 19:09:35,915:__init__:INFO:     size of histories: torch.Size([784, 7, 1]) | size of futures: torch.Size([784, 201, 1])

2021-04-10 19:09:54,148:<module>:INFO:
 ----------------------- Starting of new script ----------------------- 

2021-04-10 19:09:54,163:<module>:INFO:CreationRNN(
  (rnn): GRU(1, 500, num_layers=2, batch_first=True)
  (o2o): Linear(in_features=500, out_features=6, bias=True)
)
2021-04-10 19:09:54,163:<module>:INFO:Net(
  (acti): Tanh()
  (layer1): Linear(in_features=6, out_features=256, bias=True)
  (layer2): Linear(in_features=256, out_features=256, bias=True)
  (layer3): Linear(in_features=256, out_features=6, bias=True)
)
2021-04-10 19:09:54,198:__init__:INFO:
Constructed 3D Lorenz dataset with: 
2021-04-10 19:09:54,198:__init__:INFO:     lookahead: 300 | tau: 1 | k: 7
2021-04-10 19:09:54,198:__init__:INFO:     size of histories: torch.Size([684, 7, 1]) | size of futures: torch.Size([684, 301, 1])

2021-04-10 19:10:16,696:<module>:INFO:
 ----------------------- Starting of new script ----------------------- 

2021-04-10 19:10:16,711:<module>:INFO:CreationRNN(
  (rnn): GRU(1, 500, num_layers=2, batch_first=True)
  (o2o): Linear(in_features=500, out_features=6, bias=True)
)
2021-04-10 19:10:16,711:<module>:INFO:Net(
  (acti): Tanh()
  (layer1): Linear(in_features=6, out_features=256, bias=True)
  (layer2): Linear(in_features=256, out_features=256, bias=True)
  (layer3): Linear(in_features=256, out_features=6, bias=True)
)
2021-04-10 19:10:16,747:__init__:INFO:
Constructed 3D Lorenz dataset with: 
2021-04-10 19:10:16,747:__init__:INFO:     lookahead: 50 | tau: 1 | k: 7
2021-04-10 19:10:16,747:__init__:INFO:     size of histories: torch.Size([934, 7, 1]) | size of futures: torch.Size([934, 51, 1])

2021-04-10 19:14:16,588:<module>:INFO:
 ----------------------- Starting of new script ----------------------- 

2021-04-10 19:14:16,602:<module>:INFO:CreationRNN(
  (rnn): GRU(1, 500, num_layers=2, batch_first=True)
  (o2o): Linear(in_features=500, out_features=6, bias=True)
)
2021-04-10 19:14:16,602:<module>:INFO:Net(
  (acti): Tanh()
  (layer1): Linear(in_features=6, out_features=256, bias=True)
  (layer2): Linear(in_features=256, out_features=256, bias=True)
  (layer3): Linear(in_features=256, out_features=6, bias=True)
)
2021-04-10 19:14:16,617:__init__:INFO:
Constructed 3D Lorenz dataset with: 
2021-04-10 19:14:16,617:__init__:INFO:     lookahead: 2 | tau: 1 | k: 7
2021-04-10 19:14:16,618:__init__:INFO:     size of histories: torch.Size([1964, 7, 1]) | size of futures: torch.Size([1964, 3, 1])

2021-04-10 19:14:16,632:__init__:INFO:
Constructed 3D Lorenz dataset with: 
…
2021-04-10 19:22:05,659:<module>:INFO:EPOCH 30 finished with training loss: 0.6361305713653564 | lr: 0.01 | delta time: 11s
2021-04-10 19:22:17,872:<module>:INFO:EPOCH 32 finished with training loss: 0.40141919255256653 | lr: 0.01 | delta time: 12s
2021-04-10 19:22:31,180:<module>:INFO:EPOCH 34 finished with training loss: 0.8426491618156433 | lr: 0.01 | delta time: 13s
2021-04-10 19:22:45,315:<module>:INFO:EPOCH 36 finished with training loss: 0.37557685375213623 | lr: 0.01 | delta time: 14s
2021-04-10 19:22:53,671:<module>:INFO:
 ----------------------- Starting of new script ----------------------- 

2021-04-10 19:22:53,686:<module>:INFO:CreationRNN(
  (rnn): GRU(1, 500, num_layers=2, batch_first=True)
  (o2o): Linear(in_features=500, out_features=3, bias=True)
)
2021-04-10 19:22:53,686:<module>:INFO:Net(
  (acti): Tanh()
  (layer1): Linear(in_features=3, out_features=256, bias=True)
  (layer2): Linear(in_features=256, out_features=256, bias=True)
  (layer3): Linear(in_features=256, out_features=3, bias=True)
)
2021-04-10 19:22:53,721:__init__:INFO:
Constructed 3D Lorenz dataset with: 
2021-04-10 19:22:53,721:__init__:INFO:     lookahead: 100 | tau: 1 | k: 7
2021-04-10 19:22:53,721:__init__:INFO:     size of histories: torch.Size([884, 7, 1]) | size of futures: torch.Size([884, 101, 1])

2021-04-10 19:23:26,479:<module>:INFO:
 ----------------------- Starting of new script ----------------------- 

2021-04-10 19:23:26,494:<module>:INFO:CreationRNN(
  (rnn): GRU(1, 500, num_layers=2, batch_first=True)
  (o2o): Linear(in_features=500, out_features=3, bias=True)
)
2021-04-10 19:23:26,494:<module>:INFO:Net(
  (acti): Tanh()
  (layer1): Linear(in_features=3, out_features=256, bias=True)
  (layer2): Linear(in_features=256, out_features=256, bias=True)
  (layer3): Linear(in_features=256, out_features=3, bias=True)
)
2021-04-10 19:23:26,529:__init__:INFO:
Constructed 3D Lorenz dataset with: 
2021-04-10 19:23:26,529:__init__:INFO:     lookahead: 100 | tau: 1 | k: 7
2021-04-10 19:23:26,529:__init__:INFO:     size of histories: torch.Size([884, 7, 1]) | size of futures: torch.Size([884, 101, 1])

2021-04-10 19:23:40,063:<module>:INFO:
 ----------------------- Starting of new script ----------------------- 

2021-04-10 19:23:40,078:<module>:INFO:CreationRNN(
  (rnn): GRU(1, 500, num_layers=2, batch_first=True)
  (o2o): Linear(in_features=500, out_features=3, bias=True)
)
2021-04-10 19:23:40,078:<module>:INFO:Net(
  (acti): Tanh()
  (layer1): Linear(in_features=3, out_features=256, bias=True)
  (layer2): Linear(in_features=256, out_features=256, bias=True)
  (layer3): Linear(in_features=256, out_features=3, bias=True)
)
2021-04-10 19:23:40,114:__init__:INFO:
Constructed 3D Lorenz dataset with: 
2021-04-10 19:23:40,114:__init__:INFO:     lookahead: 100 | tau: 1 | k: 7
2021-04-10 19:23:40,114:__init__:INFO:     size of histories: torch.Size([884, 7, 1]) | size of futures: torch.Size([884, 101, 1])

2021-04-10 19:23:51,225:<module>:INFO:
 ----------------------- Starting of new script ----------------------- 

2021-04-10 19:23:51,240:<module>:INFO:CreationRNN(
  (rnn): GRU(1, 500, num_layers=2, batch_first=True)
  (o2o): Linear(in_features=500, out_features=3, bias=True)
)
2021-04-10 19:23:51,241:<module>:INFO:Net(
  (acti): Tanh()
  (layer1): Linear(in_features=3, out_features=256, bias=True)
  (layer2): Linear(in_features=256, out_features=256, bias=True)
  (layer3): Linear(in_features=256, out_features=3, bias=True)
)
2021-04-10 19:23:51,275:__init__:INFO:
Constructed 3D Lorenz dataset with: 
2021-04-10 19:23:51,276:__init__:INFO:     lookahead: 100 | tau: 1 | k: 7
2021-04-10 19:23:51,276:__init__:INFO:     size of histories: torch.Size([884, 7, 1]) | size of futures: torch.Size([884, 101, 1])

2021-04-10 19:24:11,411:<module>:INFO:
 ----------------------- Starting of new script ----------------------- 

2021-04-10 19:24:11,428:<module>:INFO:CreationRNN(
  (rnn): GRU(1, 500, num_layers=2, batch_first=True)
  (o2o): Linear(in_features=500, out_features=3, bias=True)
)
2021-04-10 19:24:11,428:<module>:INFO:Net(
  (acti): Tanh()
  (layer1): Linear(in_features=3, out_features=256, bias=True)
  (layer2): Linear(in_features=256, out_features=256, bias=True)
  (layer3): Linear(in_features=256, out_features=3, bias=True)
)
2021-04-10 19:24:11,489:__init__:INFO:
Constructed 3D Lorenz dataset with: 
2021-04-10 19:24:11,490:__init__:INFO:     lookahead: 100 | tau: 1 | k: 7
2021-04-10 19:24:11,490:__init__:INFO:     size of histories: torch.Size([884, 7, 1]) | size of futures: torch.Size([884, 101, 1])

2021-04-10 19:24:23,223:<module>:INFO:
 ----------------------- Starting of new script ----------------------- 

2021-04-10 19:24:23,238:<module>:INFO:CreationRNN(
  (rnn): GRU(1, 500, num_layers=2, batch_first=True)
  (o2o): Linear(in_features=500, out_features=3, bias=True)
)
2021-04-10 19:24:23,238:<module>:INFO:Net(
  (acti): Tanh()
  (layer1): Linear(in_features=3, out_features=256, bias=True)
  (layer2): Linear(in_features=256, out_features=256, bias=True)
  (layer3): Linear(in_features=256, out_features=3, bias=True)
)
2021-04-10 19:24:23,253:__init__:INFO:
Constructed 3D Lorenz dataset with: 
2021-04-10 19:24:23,253:__init__:INFO:     lookahead: 2 | tau: 1 | k: 7
2021-04-10 19:24:23,253:__init__:INFO:     size of histories: torch.Size([1964, 7, 1]) | size of futures: torch.Size([1964, 3, 1])

2021-04-10 19:24:23,267:__init__:INFO:
Constructed 3D Lorenz dataset with: 
…
2021-04-10 19:39:57,122:<module>:INFO:EPOCH 16 finished with training loss: 0.11154923588037491 | lr: 0.01 | delta time: 82s
2021-04-10 19:41:20,534:<module>:INFO:EPOCH 18 finished with training loss: 0.10808040201663971 | lr: 0.01 | delta time: 83s
2021-04-10 19:42:53,606:<module>:INFO:EPOCH 20 finished with training loss: 0.07176809012889862 | lr: 0.01 | delta time: 93s
2021-04-10 19:44:45,228:<module>:INFO:EPOCH 22 finished with training loss: 0.09974955022335052 | lr: 0.01 | delta time: 111s
2021-04-10 19:45:09,754:<module>:INFO:
 ----------------------- Starting of new script ----------------------- 

2021-04-10 19:45:09,769:<module>:INFO:CreationRNN(
  (rnn): GRU(1, 500, num_layers=2, batch_first=True)
  (o2o): Linear(in_features=500, out_features=3, bias=True)
)
2021-04-10 19:45:09,769:<module>:INFO:Net(
  (acti): LeakyReLU(negative_slope=0.01)
  (layer1): Linear(in_features=3, out_features=256, bias=True)
  (layer2): Linear(in_features=256, out_features=256, bias=True)
  (layer3): Linear(in_features=256, out_features=3, bias=True)
)
2021-04-10 19:45:09,805:__init__:INFO:
Constructed 3D Lorenz dataset with: 
2021-04-10 19:45:09,805:__init__:INFO:     lookahead: 100 | tau: 1 | k: 7
2021-04-10 19:45:09,805:__init__:INFO:     size of histories: torch.Size([884, 7, 1]) | size of futures: torch.Size([884, 101, 1])

2021-04-10 19:45:39,776:<module>:INFO:
 ----------------------- Starting of new script ----------------------- 

2021-04-10 19:45:39,790:<module>:INFO:CreationRNN(
  (rnn): GRU(1, 500, num_layers=2, batch_first=True)
  (o2o): Linear(in_features=500, out_features=3, bias=True)
)
2021-04-10 19:45:39,790:<module>:INFO:Net(
  (acti): LeakyReLU(negative_slope=0.01)
  (layer1): Linear(in_features=3, out_features=256, bias=True)
  (layer2): Linear(in_features=256, out_features=256, bias=True)
  (layer3): Linear(in_features=256, out_features=3, bias=True)
)
2021-04-10 19:45:39,825:__init__:INFO:
Constructed 3D Lorenz dataset with: 
2021-04-10 19:45:39,825:__init__:INFO:     lookahead: 50 | tau: 1 | k: 7
2021-04-10 19:45:39,825:__init__:INFO:     size of histories: torch.Size([934, 7, 1]) | size of futures: torch.Size([934, 51, 1])

2021-04-10 19:46:18,166:<module>:INFO:
 ----------------------- Starting of new script ----------------------- 

2021-04-10 19:46:18,181:<module>:INFO:CreationRNN(
  (rnn): GRU(1, 500, num_layers=2, batch_first=True)
  (o2o): Linear(in_features=500, out_features=3, bias=True)
)
2021-04-10 19:46:18,181:<module>:INFO:Net(
  (acti): LeakyReLU(negative_slope=0.01)
  (layer1): Linear(in_features=3, out_features=256, bias=True)
  (layer2): Linear(in_features=256, out_features=256, bias=True)
  (layer3): Linear(in_features=256, out_features=3, bias=True)
)
2021-04-10 19:46:18,217:__init__:INFO:
Constructed 3D Lorenz dataset with: 
2021-04-10 19:46:18,217:__init__:INFO:     lookahead: 50 | tau: 1 | k: 7
2021-04-10 19:46:18,217:__init__:INFO:     size of histories: torch.Size([934, 7, 1]) | size of futures: torch.Size([934, 51, 1])

2021-04-10 19:46:34,918:<module>:INFO:
 ----------------------- Starting of new script ----------------------- 

2021-04-10 19:46:34,933:<module>:INFO:CreationRNN(
  (rnn): GRU(1, 500, num_layers=2, batch_first=True)
  (o2o): Linear(in_features=500, out_features=3, bias=True)
)
2021-04-10 19:46:34,933:<module>:INFO:Net(
  (acti): LeakyReLU(negative_slope=0.01)
  (layer1): Linear(in_features=3, out_features=256, bias=True)
  (layer2): Linear(in_features=256, out_features=256, bias=True)
  (layer3): Linear(in_features=256, out_features=3, bias=True)
)
2021-04-10 19:46:34,948:__init__:INFO:
Constructed 3D Lorenz dataset with: 
2021-04-10 19:46:34,948:__init__:INFO:     lookahead: 2 | tau: 1 | k: 7
2021-04-10 19:46:34,948:__init__:INFO:     size of histories: torch.Size([1964, 7, 1]) | size of futures: torch.Size([1964, 3, 1])

2021-04-10 19:46:34,962:__init__:INFO:
Constructed 3D Lorenz dataset with: 
…
2021-04-10 19:53:35,740:<module>:INFO:EPOCH 12 finished with training loss: 4.29953670501709 | lr: 0.01 | delta time: 119s
2021-04-10 19:55:42,479:<module>:INFO:EPOCH 14 finished with training loss: 3.113743782043457 | lr: 0.01 | delta time: 126s
2021-04-10 19:57:50,709:<module>:INFO:EPOCH 16 finished with training loss: 3.133451461791992 | lr: 0.01 | delta time: 128s
2021-04-10 20:00:12,432:<module>:INFO:EPOCH 18 finished with training loss: 3.4981565475463867 | lr: 0.01 | delta time: 141s
2021-04-10 20:00:49,373:<module>:INFO:
 ----------------------- Starting of new script ----------------------- 

2021-04-10 20:00:49,389:<module>:INFO:CreationRNN(
  (rnn): GRU(1, 500, num_layers=2, batch_first=True)
  (o2o): Linear(in_features=500, out_features=3, bias=True)
)
2021-04-10 20:00:49,389:<module>:INFO:Net(
  (acti): LeakyReLU(negative_slope=0.01)
  (layer1): Linear(in_features=3, out_features=256, bias=True)
  (layer2): Linear(in_features=256, out_features=256, bias=True)
  (layer3): Linear(in_features=256, out_features=3, bias=True)
)
2021-04-10 20:00:49,426:__init__:INFO:
Constructed 3D Lorenz dataset with: 
2021-04-10 20:00:49,426:__init__:INFO:     lookahead: 50 | tau: 1 | k: 7
2021-04-10 20:00:49,426:__init__:INFO:     size of histories: torch.Size([934, 7, 1]) | size of futures: torch.Size([934, 51, 1])

2021-04-13 09:53:05,243:<module>:INFO:
 ----------------------- Starting of new script ----------------------- 

2021-04-13 09:53:05,259:<module>:INFO:CreationRNN(
  (rnn): GRU(1, 500, num_layers=2, batch_first=True)
  (o2o): Linear(in_features=500, out_features=3, bias=True)
)
2021-04-13 09:53:05,259:<module>:INFO:Net(
  (acti): LeakyReLU(negative_slope=0.01)
  (layer1): Linear(in_features=3, out_features=256, bias=True)
  (layer2): Linear(in_features=256, out_features=256, bias=True)
  (layer3): Linear(in_features=256, out_features=3, bias=True)
)
2021-04-13 09:53:05,314:__init__:INFO:
Constructed 3D Lorenz dataset with: 
2021-04-13 09:53:05,314:__init__:INFO:     lookahead: 50 | tau: 1 | k: 7
2021-04-13 09:53:05,314:__init__:INFO:     size of histories: torch.Size([934, 7, 1]) | size of futures: torch.Size([934, 51, 1])

2021-04-13 09:55:34,483:<module>:INFO:
 ----------------------- Starting of new script ----------------------- 

2021-04-13 09:55:34,500:<module>:INFO:CreationRNN(
  (rnn): GRU(1, 500, num_layers=2, batch_first=True)
  (o2o): Linear(in_features=500, out_features=3, bias=True)
)
2021-04-13 09:55:34,501:<module>:INFO:Net(
  (acti): LeakyReLU(negative_slope=0.01)
  (layer1): Linear(in_features=3, out_features=256, bias=True)
  (layer2): Linear(in_features=256, out_features=256, bias=True)
  (layer3): Linear(in_features=256, out_features=3, bias=True)
)
2021-04-13 09:55:34,518:__init__:INFO:
Constructed 3D Lorenz dataset with: 
2021-04-13 09:55:34,518:__init__:INFO:     lookahead: 2 | tau: 1 | k: 7
2021-04-13 09:55:34,518:__init__:INFO:     size of histories: torch.Size([1964, 7, 1]) | size of futures: torch.Size([1964, 3, 1])

2021-04-13 09:55:34,534:__init__:INFO:
Constructed 3D Lorenz dataset with: 
…
2021-04-13 10:11:30,612:<module>:INFO:EPOCH 22 finished with training loss: 0.24752333760261536 | lr: 0.01 | delta time: 67.45093393325806s
2021-04-13 10:12:52,244:<module>:INFO:EPOCH 24 finished with training loss: 0.1677805632352829 | lr: 0.01 | delta time: 81.62803983688354s
2021-04-13 10:14:15,718:<module>:INFO:EPOCH 26 finished with training loss: 0.20828674733638763 | lr: 0.01 | delta time: 83.46927690505981s
2021-04-13 10:14:26,682:<module>:INFO:
 ----------------------- Starting of new script ----------------------- 

2021-04-13 10:14:26,685:<module>:INFO:CreationRNN(
  (rnn): GRU(1, 256, batch_first=True)
  (o2o): Linear(in_features=256, out_features=3, bias=True)
)
2021-04-13 10:14:26,685:<module>:INFO:Net(
  (acti): LeakyReLU(negative_slope=0.01)
  (layer1): Linear(in_features=3, out_features=256, bias=True)
  (layer2): Linear(in_features=256, out_features=256, bias=True)
  (layer3): Linear(in_features=256, out_features=3, bias=True)
)
2021-04-13 10:14:26,702:__init__:INFO:
Constructed 3D Lorenz dataset with: 
2021-04-13 10:14:26,702:__init__:INFO:     lookahead: 50 | tau: 1 | k: 7
2021-04-13 10:14:26,702:__init__:INFO:     size of histories: torch.Size([934, 7, 1]) | size of futures: torch.Size([934, 51, 1])

2021-04-13 10:19:47,555:<module>:INFO:
 ----------------------- Starting of new script ----------------------- 

2021-04-13 10:19:47,561:<module>:INFO:CreationRNN(
  (rnn): GRU(1, 500, batch_first=True)
  (o2o): Linear(in_features=500, out_features=3, bias=True)
)
2021-04-13 10:19:47,561:<module>:INFO:Net(
  (acti): LeakyReLU(negative_slope=0.01)
  (layer1): Linear(in_features=3, out_features=256, bias=True)
  (layer2): Linear(in_features=256, out_features=256, bias=True)
  (layer3): Linear(in_features=256, out_features=3, bias=True)
)
2021-04-13 10:19:55,762:<module>:INFO:
 ----------------------- Starting of new script ----------------------- 

2021-04-13 10:19:55,765:<module>:INFO:CreationRNN(
  (rnn): GRU(1, 256, batch_first=True)
  (o2o): Linear(in_features=256, out_features=3, bias=True)
)
2021-04-13 10:19:55,765:<module>:INFO:Net(
  (acti): LeakyReLU(negative_slope=0.01)
  (layer1): Linear(in_features=3, out_features=256, bias=True)
  (layer2): Linear(in_features=256, out_features=256, bias=True)
  (layer3): Linear(in_features=256, out_features=3, bias=True)
)
2021-04-13 10:19:55,783:__init__:INFO:
Constructed 3D Lorenz dataset with: 
2021-04-13 10:19:55,783:__init__:INFO:     lookahead: 2 | tau: 1 | k: 7
2021-04-13 10:19:55,783:__init__:INFO:     size of histories: torch.Size([982, 7, 1]) | size of futures: torch.Size([982, 3, 1])

2021-04-13 10:19:55,794:__init__:INFO:
Constructed 3D Lorenz dataset with: 
2021-04-13 10:19:55,794:__init__:INFO:     lookahead: 2 | tau: 1 | k: 7
…
2021-04-13 10:46:38,592:<module>:INFO:EPOCH 48 finished with training loss: 0.06116342544555664 | lr: 0.01 | delta time: 63.77297520637512s
2021-04-13 10:47:07,858:__init__:INFO:
Constructed 3D Lorenz dataset with: 
2021-04-13 10:47:07,858:__init__:INFO:     lookahead: 50 | tau: 1 | k: 7
2021-04-13 10:47:07,858:__init__:INFO:     size of histories: torch.Size([934, 7, 1]) | size of futures: torch.Size([934, 51, 1])

2021-04-13 10:48:46,099:<module>:INFO:
 ----------------------- Starting of new script ----------------------- 

2021-04-13 10:48:46,101:<module>:INFO:CreationRNN(
  (rnn): GRU(1, 256, batch_first=True)
  (o2o): Linear(in_features=256, out_features=3, bias=True)
)
2021-04-13 10:48:46,101:<module>:INFO:Net(
  (acti): LeakyReLU(negative_slope=0.01)
  (layer1): Linear(in_features=3, out_features=256, bias=True)
  (layer2): Linear(in_features=256, out_features=256, bias=True)
  (layer3): Linear(in_features=256, out_features=3, bias=True)
)
2021-04-13 10:48:46,120:__init__:INFO:
Constructed 3D Lorenz dataset with: 
2021-04-13 10:48:46,120:__init__:INFO:     lookahead: 50 | tau: 1 | k: 7
2021-04-13 10:48:46,121:__init__:INFO:     size of histories: torch.Size([934, 7, 1]) | size of futures: torch.Size([934, 51, 1])

2021-04-13 10:49:00,900:<module>:INFO:
 ----------------------- Starting of new script ----------------------- 

2021-04-13 10:49:00,903:<module>:INFO:CreationRNN(
  (rnn): GRU(1, 256, batch_first=True)
  (o2o): Linear(in_features=256, out_features=3, bias=True)
)
2021-04-13 10:49:00,903:<module>:INFO:Net(
  (acti): LeakyReLU(negative_slope=0.01)
  (layer1): Linear(in_features=3, out_features=256, bias=True)
  (layer2): Linear(in_features=256, out_features=256, bias=True)
  (layer3): Linear(in_features=256, out_features=3, bias=True)
)
2021-04-13 10:49:00,927:__init__:INFO:
Constructed 3D Lorenz dataset with: 
2021-04-13 10:49:00,927:__init__:INFO:     lookahead: 50 | tau: 1 | k: 7
2021-04-13 10:49:00,927:__init__:INFO:     size of histories: torch.Size([934, 7, 1]) | size of futures: torch.Size([934, 51, 1])

2021-04-13 10:49:35,453:<module>:INFO:
 ----------------------- Starting of new script ----------------------- 

2021-04-13 10:49:35,456:<module>:INFO:CreationRNN(
  (rnn): GRU(1, 256, batch_first=True)
  (o2o): Linear(in_features=256, out_features=3, bias=True)
)
2021-04-13 10:49:35,456:<module>:INFO:Net(
  (acti): LeakyReLU(negative_slope=0.01)
  (layer1): Linear(in_features=3, out_features=256, bias=True)
  (layer2): Linear(in_features=256, out_features=256, bias=True)
  (layer3): Linear(in_features=256, out_features=3, bias=True)
)
2021-04-13 10:49:35,481:__init__:INFO:
Constructed 3D Lorenz dataset with: 
2021-04-13 10:49:35,481:__init__:INFO:     lookahead: 50 | tau: 1 | k: 7
2021-04-13 10:49:35,481:__init__:INFO:     size of histories: torch.Size([934, 7, 1]) | size of futures: torch.Size([934, 51, 1])

2021-04-13 10:49:55,658:<module>:INFO:
 ----------------------- Starting of new script ----------------------- 

2021-04-13 10:49:55,661:<module>:INFO:CreationRNN(
  (rnn): GRU(1, 256, batch_first=True)
  (o2o): Linear(in_features=256, out_features=3, bias=True)
)
2021-04-13 10:49:55,661:<module>:INFO:Net(
  (acti): LeakyReLU(negative_slope=0.01)
  (layer1): Linear(in_features=3, out_features=256, bias=True)
  (layer2): Linear(in_features=256, out_features=256, bias=True)
  (layer3): Linear(in_features=256, out_features=3, bias=True)
)
2021-04-13 10:49:55,682:__init__:INFO:
Constructed 3D Lorenz dataset with: 
2021-04-13 10:49:55,682:__init__:INFO:     lookahead: 200 | tau: 1 | k: 7
2021-04-13 10:49:55,682:__init__:INFO:     size of histories: torch.Size([784, 7, 1]) | size of futures: torch.Size([784, 201, 1])

2021-04-13 10:50:16,554:<module>:INFO:
 ----------------------- Starting of new script ----------------------- 

2021-04-13 10:50:16,557:<module>:INFO:CreationRNN(
  (rnn): GRU(1, 256, batch_first=True)
  (o2o): Linear(in_features=256, out_features=3, bias=True)
)
2021-04-13 10:50:16,557:<module>:INFO:Net(
  (acti): LeakyReLU(negative_slope=0.01)
  (layer1): Linear(in_features=3, out_features=256, bias=True)
  (layer2): Linear(in_features=256, out_features=256, bias=True)
  (layer3): Linear(in_features=256, out_features=3, bias=True)
)
2021-04-13 10:50:16,576:__init__:INFO:
Constructed 3D Lorenz dataset with: 
2021-04-13 10:50:16,576:__init__:INFO:     lookahead: 200 | tau: 1 | k: 7
2021-04-13 10:50:16,576:__init__:INFO:     size of histories: torch.Size([784, 7, 1]) | size of futures: torch.Size([784, 201, 1])

2021-04-13 10:50:31,570:<module>:INFO:
 ----------------------- Starting of new script ----------------------- 

2021-04-13 10:50:31,573:<module>:INFO:CreationRNN(
  (rnn): GRU(1, 256, batch_first=True)
  (o2o): Linear(in_features=256, out_features=3, bias=True)
)
2021-04-13 10:50:31,573:<module>:INFO:Net(
  (acti): LeakyReLU(negative_slope=0.01)
  (layer1): Linear(in_features=3, out_features=256, bias=True)
  (layer2): Linear(in_features=256, out_features=256, bias=True)
  (layer3): Linear(in_features=256, out_features=3, bias=True)
)
2021-04-13 10:50:31,591:__init__:INFO:
Constructed 3D Lorenz dataset with: 
2021-04-13 10:50:31,591:__init__:INFO:     lookahead: 200 | tau: 1 | k: 7
2021-04-13 10:50:31,591:__init__:INFO:     size of histories: torch.Size([784, 7, 1]) | size of futures: torch.Size([784, 201, 1])

2021-04-13 10:50:47,387:<module>:INFO:
 ----------------------- Starting of new script ----------------------- 

2021-04-13 10:50:47,390:<module>:INFO:CreationRNN(
  (rnn): GRU(1, 256, batch_first=True)
  (o2o): Linear(in_features=256, out_features=3, bias=True)
)
2021-04-13 10:50:47,390:<module>:INFO:Net(
  (acti): LeakyReLU(negative_slope=0.01)
  (layer1): Linear(in_features=3, out_features=256, bias=True)
  (layer2): Linear(in_features=256, out_features=256, bias=True)
  (layer3): Linear(in_features=256, out_features=3, bias=True)
)
2021-04-13 10:50:47,410:__init__:INFO:
Constructed 3D Lorenz dataset with: 
2021-04-13 10:50:47,410:__init__:INFO:     lookahead: 200 | tau: 1 | k: 7
2021-04-13 10:50:47,410:__init__:INFO:     size of histories: torch.Size([784, 7, 1]) | size of futures: torch.Size([784, 201, 1])

2021-04-13 10:53:36,633:<module>:INFO:
 ----------------------- Starting of new script ----------------------- 

2021-04-13 10:53:36,635:<module>:INFO:CreationRNN(
  (rnn): GRU(1, 256, batch_first=True)
  (o2o): Linear(in_features=256, out_features=3, bias=True)
)
2021-04-13 10:53:36,635:<module>:INFO:Net(
  (acti): LeakyReLU(negative_slope=0.01)
  (layer1): Linear(in_features=3, out_features=256, bias=True)
  (layer2): Linear(in_features=256, out_features=256, bias=True)
  (layer3): Linear(in_features=256, out_features=3, bias=True)
)
2021-04-13 10:53:36,653:__init__:INFO:
Constructed 3D Lorenz dataset with: 
2021-04-13 10:53:36,653:__init__:INFO:     lookahead: 200 | tau: 1 | k: 7
2021-04-13 10:53:36,653:__init__:INFO:     size of histories: torch.Size([784, 7, 1]) | size of futures: torch.Size([784, 201, 1])

2021-04-13 10:53:49,570:<module>:INFO:
 ----------------------- Starting of new script ----------------------- 

2021-04-13 10:53:49,573:<module>:INFO:CreationRNN(
  (rnn): GRU(1, 256, batch_first=True)
  (o2o): Linear(in_features=256, out_features=3, bias=True)
)
2021-04-13 10:53:49,573:<module>:INFO:Net(
  (acti): LeakyReLU(negative_slope=0.01)
  (layer1): Linear(in_features=3, out_features=256, bias=True)
  (layer2): Linear(in_features=256, out_features=256, bias=True)
  (layer3): Linear(in_features=256, out_features=3, bias=True)
)
2021-04-13 10:53:49,590:__init__:INFO:
Constructed 3D Lorenz dataset with: 
2021-04-13 10:53:49,591:__init__:INFO:     lookahead: 200 | tau: 1 | k: 7
2021-04-13 10:53:49,591:__init__:INFO:     size of histories: torch.Size([784, 7, 1]) | size of futures: torch.Size([784, 201, 1])

2021-04-13 10:54:21,942:<module>:INFO:
 ----------------------- Starting of new script ----------------------- 

2021-04-13 10:54:21,945:<module>:INFO:CreationRNN(
  (rnn): GRU(1, 256, batch_first=True)
  (o2o): Linear(in_features=256, out_features=3, bias=True)
)
2021-04-13 10:54:21,945:<module>:INFO:Net(
  (acti): LeakyReLU(negative_slope=0.01)
  (layer1): Linear(in_features=3, out_features=256, bias=True)
  (layer2): Linear(in_features=256, out_features=256, bias=True)
  (layer3): Linear(in_features=256, out_features=3, bias=True)
)
2021-04-13 10:54:21,962:__init__:INFO:
Constructed 3D Lorenz dataset with: 
2021-04-13 10:54:21,963:__init__:INFO:     lookahead: 2 | tau: 1 | k: 7
2021-04-13 10:54:21,963:__init__:INFO:     size of histories: torch.Size([1964, 7, 1]) | size of futures: torch.Size([1964, 3, 1])

2021-04-13 10:54:21,977:__init__:INFO:
Constructed 3D Lorenz dataset with: 
…
2021-04-13 11:47:06,331:<module>:INFO:EPOCH 60 finished with training loss: 0.01574021577835083 | lr: 0.005 | delta time: 85.10626006126404s
2021-04-13 11:48:33,470:<module>:INFO:EPOCH 62 finished with training loss: 0.01921902969479561 | lr: 0.005 | delta time: 87.1346161365509s
2021-04-13 11:50:04,323:<module>:INFO:EPOCH 64 finished with training loss: 0.015731941908597946 | lr: 0.005 | delta time: 90.8480589389801s
2021-04-13 11:50:55,875:<module>:INFO:
 ----------------------- Starting of new script ----------------------- 

2021-04-13 11:50:55,878:<module>:INFO:CreationRNN(
  (rnn): GRU(1, 256, batch_first=True)
  (o2o): Linear(in_features=256, out_features=3, bias=True)
)
2021-04-13 11:50:55,878:<module>:INFO:Net(
  (acti): LeakyReLU(negative_slope=0.01)
  (layer1): Linear(in_features=3, out_features=256, bias=True)
  (layer2): Linear(in_features=256, out_features=256, bias=True)
  (layer3): Linear(in_features=256, out_features=3, bias=True)
)
2021-04-13 11:50:55,896:__init__:INFO:
Constructed 3D Lorenz dataset with: 
2021-04-13 11:50:55,896:__init__:INFO:     lookahead: 200 | tau: 1 | k: 7
2021-04-13 11:50:55,896:__init__:INFO:     size of histories: torch.Size([784, 7, 1]) | size of futures: torch.Size([784, 201, 1])

2021-04-13 11:51:24,773:<module>:INFO:
 ----------------------- Starting of new script ----------------------- 

2021-04-13 11:51:24,776:<module>:INFO:CreationRNN(
  (rnn): GRU(1, 256, batch_first=True)
  (o2o): Linear(in_features=256, out_features=3, bias=True)
)
2021-04-13 11:51:24,776:<module>:INFO:Net(
  (acti): LeakyReLU(negative_slope=0.01)
  (layer1): Linear(in_features=3, out_features=256, bias=True)
  (layer2): Linear(in_features=256, out_features=256, bias=True)
  (layer3): Linear(in_features=256, out_features=3, bias=True)
)
2021-04-13 11:51:24,796:__init__:INFO:
Constructed 3D Lorenz dataset with: 
2021-04-13 11:51:24,796:__init__:INFO:     lookahead: 200 | tau: 1 | k: 7
2021-04-13 11:51:24,796:__init__:INFO:     size of histories: torch.Size([784, 7, 1]) | size of futures: torch.Size([784, 201, 1])

2021-04-13 11:51:40,762:<module>:INFO:
 ----------------------- Starting of new script ----------------------- 

2021-04-13 11:51:40,764:<module>:INFO:CreationRNN(
  (rnn): GRU(1, 256, batch_first=True)
  (o2o): Linear(in_features=256, out_features=3, bias=True)
)
2021-04-13 11:51:40,764:<module>:INFO:Net(
  (acti): LeakyReLU(negative_slope=0.01)
  (layer1): Linear(in_features=3, out_features=256, bias=True)
  (layer2): Linear(in_features=256, out_features=256, bias=True)
  (layer3): Linear(in_features=256, out_features=3, bias=True)
)
2021-04-13 11:51:40,782:__init__:INFO:
Constructed 3D Lorenz dataset with: 
2021-04-13 11:51:40,782:__init__:INFO:     lookahead: 200 | tau: 1 | k: 7
2021-04-13 11:51:40,782:__init__:INFO:     size of histories: torch.Size([784, 7, 1]) | size of futures: torch.Size([784, 201, 1])

2021-04-13 11:52:06,626:<module>:INFO:
 ----------------------- Starting of new script ----------------------- 

2021-04-13 11:52:06,628:<module>:INFO:CreationRNN(
  (rnn): GRU(1, 256, batch_first=True)
  (o2o): Linear(in_features=256, out_features=3, bias=True)
)
2021-04-13 11:52:06,629:<module>:INFO:Net(
  (acti): LeakyReLU(negative_slope=0.01)
  (layer1): Linear(in_features=3, out_features=256, bias=True)
  (layer2): Linear(in_features=256, out_features=256, bias=True)
  (layer3): Linear(in_features=256, out_features=3, bias=True)
)
2021-04-13 11:52:06,647:__init__:INFO:
Constructed 3D Lorenz dataset with: 
2021-04-13 11:52:06,647:__init__:INFO:     lookahead: 50 | tau: 1 | k: 7
2021-04-13 11:52:06,647:__init__:INFO:     size of histories: torch.Size([934, 7, 1]) | size of futures: torch.Size([934, 51, 1])

2021-04-13 11:52:15,639:<module>:INFO:
 ----------------------- Starting of new script ----------------------- 

2021-04-13 11:52:15,642:<module>:INFO:CreationRNN(
  (rnn): GRU(1, 256, batch_first=True)
  (o2o): Linear(in_features=256, out_features=3, bias=True)
)
2021-04-13 11:52:15,642:<module>:INFO:Net(
  (acti): LeakyReLU(negative_slope=0.01)
  (layer1): Linear(in_features=3, out_features=256, bias=True)
  (layer2): Linear(in_features=256, out_features=256, bias=True)
  (layer3): Linear(in_features=256, out_features=3, bias=True)
)
2021-04-13 11:52:15,660:__init__:INFO:
Constructed 3D Lorenz dataset with: 
2021-04-13 11:52:15,660:__init__:INFO:     lookahead: 50 | tau: 1 | k: 7
2021-04-13 11:52:15,660:__init__:INFO:     size of histories: torch.Size([934, 7, 1]) | size of futures: torch.Size([934, 51, 1])

2021-04-13 11:52:32,307:<module>:INFO:
 ----------------------- Starting of new script ----------------------- 

2021-04-13 11:52:32,310:<module>:INFO:CreationRNN(
  (rnn): GRU(1, 256, batch_first=True)
…
  (layer2): Linear(in_features=256, out_features=256, bias=True)
  (layer3): Linear(in_features=256, out_features=3, bias=True)
)
2021-04-13 12:40:42,460:__init__:INFO:
Constructed 3D Lorenz dataset with: 
2021-04-13 12:40:42,460:__init__:INFO:     lookahead: 200 | tau: 1 | k: 7
2021-04-13 12:40:42,460:__init__:INFO:     size of histories: torch.Size([784, 7, 1]) | size of futures: torch.Size([784, 201, 1])

2021-04-13 12:40:58,525:<module>:INFO:
 ----------------------- Starting of new script ----------------------- 

2021-04-13 12:40:58,527:<module>:INFO:CreationRNN(
  (rnn): GRU(1, 256, batch_first=True)
  (o2o): Linear(in_features=256, out_features=3, bias=True)
)
2021-04-13 12:40:58,528:<module>:INFO:Net(
  (acti): LeakyReLU(negative_slope=0.01)
  (layer1): Linear(in_features=3, out_features=256, bias=True)
  (layer2): Linear(in_features=256, out_features=256, bias=True)
  (layer3): Linear(in_features=256, out_features=3, bias=True)
)
2021-04-13 12:40:58,546:__init__:INFO:
Constructed 3D Lorenz dataset with: 
2021-04-13 12:40:58,546:__init__:INFO:     lookahead: 200 | tau: 1 | k: 7
2021-04-13 12:40:58,546:__init__:INFO:     size of histories: torch.Size([784, 7, 1]) | size of futures: torch.Size([784, 201, 1])

2021-04-13 12:41:16,920:<module>:INFO:
 ----------------------- Starting of new script ----------------------- 

2021-04-13 12:41:16,922:<module>:INFO:CreationRNN(
  (rnn): GRU(1, 256, batch_first=True)
  (o2o): Linear(in_features=256, out_features=3, bias=True)
)
2021-04-13 12:41:16,923:<module>:INFO:Net(
  (acti): LeakyReLU(negative_slope=0.01)
  (layer1): Linear(in_features=3, out_features=256, bias=True)
  (layer2): Linear(in_features=256, out_features=256, bias=True)
  (layer3): Linear(in_features=256, out_features=3, bias=True)
)
2021-04-13 12:41:16,943:__init__:INFO:
Constructed 3D Lorenz dataset with: 
2021-04-13 12:41:16,943:__init__:INFO:     lookahead: 2 | tau: 1 | k: 7
2021-04-13 12:41:16,943:__init__:INFO:     size of histories: torch.Size([1964, 7, 1]) | size of futures: torch.Size([1964, 3, 1])

2021-04-13 12:41:16,957:__init__:INFO:
Constructed 3D Lorenz dataset with: 
…
2021-04-13 12:50:23,725:<module>:INFO:EPOCH 16 finished with training loss: 0.003686151234433055 | lr: 0.001 | delta time: 57.18710994720459s
2021-04-13 12:51:22,585:<module>:INFO:EPOCH 18 finished with training loss: 0.003777123522013426 | lr: 0.001 | delta time: 58.85583829879761s
2021-04-13 12:52:24,439:<module>:INFO:EPOCH 20 finished with training loss: 0.003920198883861303 | lr: 0.001 | delta time: 61.84942102432251s
2021-04-13 12:53:04,175:<module>:INFO:
 ----------------------- Starting of new script ----------------------- 

2021-04-13 12:53:04,178:<module>:INFO:CreationRNN(
  (rnn): GRU(1, 256, batch_first=True)
  (o2o): Linear(in_features=256, out_features=3, bias=True)
)
2021-04-13 12:53:04,178:<module>:INFO:Net(
  (acti): LeakyReLU(negative_slope=0.01)
  (layer1): Linear(in_features=3, out_features=256, bias=True)
  (layer2): Linear(in_features=256, out_features=256, bias=True)
  (layer3): Linear(in_features=256, out_features=3, bias=True)
)
2021-04-13 12:53:04,197:__init__:INFO:
Constructed 3D Lorenz dataset with: 
2021-04-13 12:53:04,197:__init__:INFO:     lookahead: 200 | tau: 1 | k: 7
2021-04-13 12:53:04,197:__init__:INFO:     size of histories: torch.Size([784, 7, 1]) | size of futures: torch.Size([784, 201, 1])

2021-04-13 12:53:17,910:<module>:INFO:
 ----------------------- Starting of new script ----------------------- 

2021-04-13 12:53:17,912:<module>:INFO:CreationRNN(
  (rnn): GRU(1, 256, batch_first=True)
  (o2o): Linear(in_features=256, out_features=3, bias=True)
)
2021-04-13 12:53:17,912:<module>:INFO:Net(
  (acti): LeakyReLU(negative_slope=0.01)
  (layer1): Linear(in_features=3, out_features=256, bias=True)
  (layer2): Linear(in_features=256, out_features=256, bias=True)
  (layer3): Linear(in_features=256, out_features=3, bias=True)
)
2021-04-13 12:53:17,930:__init__:INFO:
Constructed 3D Lorenz dataset with: 
2021-04-13 12:53:17,930:__init__:INFO:     lookahead: 200 | tau: 1 | k: 7
2021-04-13 12:53:17,930:__init__:INFO:     size of histories: torch.Size([784, 7, 1]) | size of futures: torch.Size([784, 201, 1])

2021-04-13 12:53:30,573:<module>:INFO:
 ----------------------- Starting of new script ----------------------- 

2021-04-13 12:53:30,576:<module>:INFO:CreationRNN(
  (rnn): GRU(1, 256, batch_first=True)
  (o2o): Linear(in_features=256, out_features=3, bias=True)
)
2021-04-13 12:53:30,576:<module>:INFO:Net(
  (acti): LeakyReLU(negative_slope=0.01)
  (layer1): Linear(in_features=3, out_features=256, bias=True)
  (layer2): Linear(in_features=256, out_features=256, bias=True)
  (layer3): Linear(in_features=256, out_features=3, bias=True)
)
2021-04-13 12:53:30,596:__init__:INFO:
Constructed 3D Lorenz dataset with: 
2021-04-13 12:53:30,596:__init__:INFO:     lookahead: 200 | tau: 1 | k: 7
2021-04-13 12:53:30,596:__init__:INFO:     size of histories: torch.Size([784, 7, 1]) | size of futures: torch.Size([784, 201, 1])

2021-04-13 12:53:44,028:<module>:INFO:
 ----------------------- Starting of new script ----------------------- 

2021-04-13 12:53:44,030:<module>:INFO:CreationRNN(
  (rnn): GRU(1, 256, batch_first=True)
  (o2o): Linear(in_features=256, out_features=3, bias=True)
)
2021-04-13 12:53:44,030:<module>:INFO:Net(
  (acti): LeakyReLU(negative_slope=0.01)
  (layer1): Linear(in_features=3, out_features=256, bias=True)
  (layer2): Linear(in_features=256, out_features=256, bias=True)
  (layer3): Linear(in_features=256, out_features=3, bias=True)
)
2021-04-13 12:53:44,049:__init__:INFO:
Constructed 3D Lorenz dataset with: 
2021-04-13 12:53:44,049:__init__:INFO:     lookahead: 200 | tau: 1 | k: 7
2021-04-13 12:53:44,049:__init__:INFO:     size of histories: torch.Size([784, 7, 1]) | size of futures: torch.Size([784, 201, 1])

2021-04-13 12:53:55,228:<module>:INFO:
 ----------------------- Starting of new script ----------------------- 

2021-04-13 12:53:55,231:<module>:INFO:CreationRNN(
  (rnn): GRU(1, 256, batch_first=True)
  (o2o): Linear(in_features=256, out_features=3, bias=True)
)
2021-04-13 12:53:55,232:<module>:INFO:Net(
  (acti): LeakyReLU(negative_slope=0.01)
  (layer1): Linear(in_features=3, out_features=256, bias=True)
  (layer2): Linear(in_features=256, out_features=256, bias=True)
  (layer3): Linear(in_features=256, out_features=3, bias=True)
)
2021-04-13 12:53:55,252:__init__:INFO:
Constructed 3D Lorenz dataset with: 
2021-04-13 12:53:55,252:__init__:INFO:     lookahead: 200 | tau: 1 | k: 7
2021-04-13 12:53:55,252:__init__:INFO:     size of histories: torch.Size([784, 7, 1]) | size of futures: torch.Size([784, 201, 1])

2021-04-13 13:53:41,354:<module>:INFO:
 ----------------------- Starting of new script ----------------------- 

2021-04-13 13:53:41,356:<module>:INFO:CreationRNN(
  (rnn): GRU(1, 100, num_layers=2, batch_first=True)
  (o2o): Linear(in_features=100, out_features=3, bias=True)
)
2021-04-13 13:53:41,356:<module>:INFO:Net(
  (acti): LeakyReLU(negative_slope=0.01)
  (layer1): Linear(in_features=3, out_features=256, bias=True)
  (layer2): Linear(in_features=256, out_features=256, bias=True)
  (layer3): Linear(in_features=256, out_features=3, bias=True)
)
2021-04-13 13:53:41,373:__init__:INFO:
Constructed 3D Lorenz dataset with: 
2021-04-13 13:53:41,373:__init__:INFO:     lookahead: 2 | tau: 1 | k: 7
2021-04-13 13:53:41,373:__init__:INFO:     size of histories: torch.Size([1964, 7, 1]) | size of futures: torch.Size([1964, 3, 1])

2021-04-13 13:53:41,389:__init__:INFO:
Constructed 3D Lorenz dataset with: 
…
2021-04-13 14:27:04,012:<module>:INFO:EPOCH 38 finished with training loss: 0.12838034331798553 | lr: 0.01 | delta time: 111.79500412940979s
2021-04-13 14:29:22,113:<module>:INFO:EPOCH 40 finished with training loss: 0.09039416909217834 | lr: 0.01 | delta time: 138.09683418273926s
2021-04-13 14:31:31,148:<module>:INFO:EPOCH 42 finished with training loss: 0.055816106498241425 | lr: 0.01 | delta time: 129.02963614463806s
2021-04-13 14:49:38,901:<module>:INFO:
 ----------------------- Starting of new script ----------------------- 

2021-04-13 14:49:38,905:<module>:INFO:CreationRNN(
  (rnn): GRU(1, 100, num_layers=2, batch_first=True)
  (o2o): Linear(in_features=100, out_features=3, bias=True)
)
2021-04-13 14:49:38,905:<module>:INFO:Net(
  (acti): LeakyReLU(negative_slope=0.01)
  (layer1): Linear(in_features=3, out_features=256, bias=True)
  (layer2): Linear(in_features=256, out_features=256, bias=True)
  (layer3): Linear(in_features=256, out_features=3, bias=True)
)
2021-04-13 14:49:38,922:__init__:INFO:
Constructed 3D Lorenz dataset with: 
2021-04-13 14:49:38,923:__init__:INFO:     lookahead: 200 | tau: 1 | k: 7
2021-04-13 14:49:38,923:__init__:INFO:     size of histories: torch.Size([784, 7, 1]) | size of futures: torch.Size([784, 201, 1])

2021-04-13 14:49:51,982:<module>:INFO:
 ----------------------- Starting of new script ----------------------- 

2021-04-13 14:49:51,985:<module>:INFO:CreationRNN(
  (rnn): GRU(1, 100, num_layers=2, batch_first=True)
  (o2o): Linear(in_features=100, out_features=3, bias=True)
)
2021-04-13 14:49:51,985:<module>:INFO:Net(
  (acti): LeakyReLU(negative_slope=0.01)
  (layer1): Linear(in_features=3, out_features=256, bias=True)
  (layer2): Linear(in_features=256, out_features=256, bias=True)
  (layer3): Linear(in_features=256, out_features=3, bias=True)
)
2021-04-13 14:49:52,004:__init__:INFO:
Constructed 3D Lorenz dataset with: 
2021-04-13 14:49:52,004:__init__:INFO:     lookahead: 200 | tau: 1 | k: 7
2021-04-13 14:49:52,004:__init__:INFO:     size of histories: torch.Size([784, 7, 1]) | size of futures: torch.Size([784, 201, 1])

2021-04-13 14:50:01,724:<module>:INFO:
 ----------------------- Starting of new script ----------------------- 

2021-04-13 14:50:01,726:<module>:INFO:CreationRNN(
  (rnn): GRU(1, 100, num_layers=2, batch_first=True)
  (o2o): Linear(in_features=100, out_features=3, bias=True)
)
2021-04-13 14:50:01,726:<module>:INFO:Net(
  (acti): LeakyReLU(negative_slope=0.01)
  (layer1): Linear(in_features=3, out_features=256, bias=True)
  (layer2): Linear(in_features=256, out_features=256, bias=True)
  (layer3): Linear(in_features=256, out_features=3, bias=True)
)
2021-04-13 14:50:01,744:__init__:INFO:
Constructed 3D Lorenz dataset with: 
2021-04-13 14:50:01,744:__init__:INFO:     lookahead: 200 | tau: 1 | k: 7
2021-04-13 14:50:01,744:__init__:INFO:     size of histories: torch.Size([784, 7, 1]) | size of futures: torch.Size([784, 201, 1])

2021-04-13 14:50:35,006:<module>:INFO:
 ----------------------- Starting of new script ----------------------- 

2021-04-13 14:50:35,008:<module>:INFO:CreationRNN(
  (rnn): GRU(1, 100, num_layers=2, batch_first=True)
  (o2o): Linear(in_features=100, out_features=3, bias=True)
)
2021-04-13 14:50:35,008:<module>:INFO:Net(
  (acti): LeakyReLU(negative_slope=0.01)
  (layer1): Linear(in_features=3, out_features=256, bias=True)
  (layer2): Linear(in_features=256, out_features=256, bias=True)
  (layer3): Linear(in_features=256, out_features=3, bias=True)
)
2021-04-13 14:50:35,031:__init__:INFO:
Constructed 3D Lorenz dataset with: 
2021-04-13 14:50:35,031:__init__:INFO:     lookahead: 2 | tau: 1 | k: 7
2021-04-13 14:50:35,031:__init__:INFO:     size of histories: torch.Size([1964, 7, 1]) | size of futures: torch.Size([1964, 3, 1])

2021-04-13 14:50:35,047:__init__:INFO:
Constructed 3D Lorenz dataset with: 
…
2021-04-13 16:06:05,290:<module>:INFO:EPOCH 76 finished with training loss: 0.004117544740438461 | lr: 0.001 | delta time: 63.57211709022522s
2021-04-13 16:07:10,570:<module>:INFO:EPOCH 78 finished with training loss: 0.004254346247762442 | lr: 0.001 | delta time: 65.27564215660095s
2021-04-13 16:08:19,148:<module>:INFO:EPOCH 80 finished with training loss: 0.004523441661149263 | lr: 0.001 | delta time: 68.57194185256958s
2021-04-13 16:09:34,021:<module>:INFO:
 ----------------------- Starting of new script ----------------------- 

2021-04-13 16:09:34,023:<module>:INFO:CreationRNN(
  (rnn): GRU(1, 100, num_layers=2, batch_first=True)
  (o2o): Linear(in_features=100, out_features=3, bias=True)
)
2021-04-13 16:09:34,023:<module>:INFO:Net(
  (acti): LeakyReLU(negative_slope=0.01)
  (layer1): Linear(in_features=3, out_features=256, bias=True)
  (layer2): Linear(in_features=256, out_features=256, bias=True)
  (layer3): Linear(in_features=256, out_features=3, bias=True)
)
2021-04-13 16:09:34,046:__init__:INFO:
Constructed 3D Lorenz dataset with: 
2021-04-13 16:09:34,046:__init__:INFO:     lookahead: 200 | tau: 1 | k: 7
2021-04-13 16:09:34,046:__init__:INFO:     size of histories: torch.Size([784, 7, 1]) | size of futures: torch.Size([784, 201, 1])

2021-04-13 16:10:01,797:<module>:INFO:
 ----------------------- Starting of new script ----------------------- 

2021-04-13 16:10:01,799:<module>:INFO:CreationRNN(
  (rnn): GRU(1, 100, num_layers=2, batch_first=True)
  (o2o): Linear(in_features=100, out_features=3, bias=True)
)
2021-04-13 16:10:01,799:<module>:INFO:Net(
  (acti): LeakyReLU(negative_slope=0.01)
  (layer1): Linear(in_features=3, out_features=256, bias=True)
  (layer2): Linear(in_features=256, out_features=256, bias=True)
  (layer3): Linear(in_features=256, out_features=3, bias=True)
)
2021-04-13 16:10:01,816:__init__:INFO:
Constructed 3D Lorenz dataset with: 
2021-04-13 16:10:01,816:__init__:INFO:     lookahead: 100 | tau: 1 | k: 7
2021-04-13 16:10:01,816:__init__:INFO:     size of histories: torch.Size([884, 7, 1]) | size of futures: torch.Size([884, 101, 1])

2021-04-13 16:10:12,776:<module>:INFO:
 ----------------------- Starting of new script ----------------------- 

2021-04-13 16:10:12,778:<module>:INFO:CreationRNN(
  (rnn): GRU(1, 100, num_layers=2, batch_first=True)
  (o2o): Linear(in_features=100, out_features=3, bias=True)
)
2021-04-13 16:10:12,778:<module>:INFO:Net(
  (acti): LeakyReLU(negative_slope=0.01)
  (layer1): Linear(in_features=3, out_features=256, bias=True)
  (layer2): Linear(in_features=256, out_features=256, bias=True)
  (layer3): Linear(in_features=256, out_features=3, bias=True)
)
2021-04-13 16:10:12,796:__init__:INFO:
Constructed 3D Lorenz dataset with: 
2021-04-13 16:10:12,796:__init__:INFO:     lookahead: 100 | tau: 1 | k: 7
2021-04-13 16:10:12,796:__init__:INFO:     size of histories: torch.Size([884, 7, 1]) | size of futures: torch.Size([884, 101, 1])

2021-04-13 16:10:20,730:<module>:INFO:
 ----------------------- Starting of new script ----------------------- 

2021-04-13 16:10:20,732:<module>:INFO:CreationRNN(
  (rnn): GRU(1, 100, num_layers=2, batch_first=True)
  (o2o): Linear(in_features=100, out_features=3, bias=True)
)
2021-04-13 16:10:20,732:<module>:INFO:Net(
  (acti): LeakyReLU(negative_slope=0.01)
  (layer1): Linear(in_features=3, out_features=256, bias=True)
  (layer2): Linear(in_features=256, out_features=256, bias=True)
  (layer3): Linear(in_features=256, out_features=3, bias=True)
)
2021-04-13 16:10:20,753:__init__:INFO:
Constructed 3D Lorenz dataset with: 
2021-04-13 16:10:20,753:__init__:INFO:     lookahead: 100 | tau: 1 | k: 7
2021-04-13 16:10:20,753:__init__:INFO:     size of histories: torch.Size([884, 7, 1]) | size of futures: torch.Size([884, 101, 1])

2021-04-13 16:10:36,516:<module>:INFO:
 ----------------------- Starting of new script ----------------------- 

2021-04-13 16:10:36,518:<module>:INFO:CreationRNN(
  (rnn): GRU(1, 100, num_layers=2, batch_first=True)
  (o2o): Linear(in_features=100, out_features=3, bias=True)
)
2021-04-13 16:10:36,518:<module>:INFO:Net(
  (acti): LeakyReLU(negative_slope=0.01)
  (layer1): Linear(in_features=3, out_features=256, bias=True)
  (layer2): Linear(in_features=256, out_features=256, bias=True)
  (layer3): Linear(in_features=256, out_features=3, bias=True)
)
2021-04-13 16:10:36,535:__init__:INFO:
Constructed 3D Lorenz dataset with: 
2021-04-13 16:10:36,536:__init__:INFO:     lookahead: 200 | tau: 1 | k: 7
2021-04-13 16:10:36,536:__init__:INFO:     size of histories: torch.Size([784, 7, 1]) | size of futures: torch.Size([784, 201, 1])

2021-04-13 16:10:51,121:<module>:INFO:
 ----------------------- Starting of new script ----------------------- 

2021-04-13 16:10:51,124:<module>:INFO:CreationRNN(
  (rnn): GRU(1, 100, num_layers=2, batch_first=True)
  (o2o): Linear(in_features=100, out_features=3, bias=True)
)
2021-04-13 16:10:51,124:<module>:INFO:Net(
  (acti): LeakyReLU(negative_slope=0.01)
  (layer1): Linear(in_features=3, out_features=256, bias=True)
  (layer2): Linear(in_features=256, out_features=256, bias=True)
  (layer3): Linear(in_features=256, out_features=3, bias=True)
)
2021-04-13 16:10:51,143:__init__:INFO:
Constructed 3D Lorenz dataset with: 
2021-04-13 16:10:51,143:__init__:INFO:     lookahead: 200 | tau: 1 | k: 7
2021-04-13 16:10:51,143:__init__:INFO:     size of histories: torch.Size([784, 7, 1]) | size of futures: torch.Size([784, 201, 1])

2021-04-13 16:11:05,820:<module>:INFO:
 ----------------------- Starting of new script ----------------------- 

2021-04-13 16:11:05,823:<module>:INFO:CreationRNN(
  (rnn): GRU(1, 100, num_layers=2, batch_first=True)
  (o2o): Linear(in_features=100, out_features=3, bias=True)
)
2021-04-13 16:11:05,823:<module>:INFO:Net(
  (acti): LeakyReLU(negative_slope=0.01)
  (layer1): Linear(in_features=3, out_features=256, bias=True)
  (layer2): Linear(in_features=256, out_features=256, bias=True)
  (layer3): Linear(in_features=256, out_features=3, bias=True)
)
2021-04-13 16:11:05,849:__init__:INFO:
Constructed 3D Lorenz dataset with: 
2021-04-13 16:11:05,849:__init__:INFO:     lookahead: 200 | tau: 1 | k: 7
2021-04-13 16:11:05,849:__init__:INFO:     size of histories: torch.Size([784, 7, 1]) | size of futures: torch.Size([784, 201, 1])

2021-04-13 16:11:20,769:<module>:INFO:
 ----------------------- Starting of new script ----------------------- 

2021-04-13 16:11:20,771:<module>:INFO:CreationRNN(
  (rnn): GRU(1, 100, num_layers=2, batch_first=True)
  (o2o): Linear(in_features=100, out_features=3, bias=True)
)
2021-04-13 16:11:20,771:<module>:INFO:Net(
  (acti): LeakyReLU(negative_slope=0.01)
  (layer1): Linear(in_features=3, out_features=256, bias=True)
  (layer2): Linear(in_features=256, out_features=256, bias=True)
  (layer3): Linear(in_features=256, out_features=3, bias=True)
)
2021-04-13 16:11:20,788:__init__:INFO:
Constructed 3D Lorenz dataset with: 
2021-04-13 16:11:20,789:__init__:INFO:     lookahead: 200 | tau: 1 | k: 7
2021-04-13 16:11:20,789:__init__:INFO:     size of histories: torch.Size([784, 7, 1]) | size of futures: torch.Size([784, 201, 1])

2021-04-13 16:11:34,388:<module>:INFO:
 ----------------------- Starting of new script ----------------------- 

2021-04-13 16:11:34,390:<module>:INFO:CreationRNN(
  (rnn): GRU(1, 100, num_layers=2, batch_first=True)
  (o2o): Linear(in_features=100, out_features=3, bias=True)
)
2021-04-13 16:11:34,390:<module>:INFO:Net(
  (acti): LeakyReLU(negative_slope=0.01)
  (layer1): Linear(in_features=3, out_features=256, bias=True)
  (layer2): Linear(in_features=256, out_features=256, bias=True)
  (layer3): Linear(in_features=256, out_features=3, bias=True)
)
2021-04-13 16:11:34,415:__init__:INFO:
Constructed 3D Lorenz dataset with: 
2021-04-13 16:11:34,415:__init__:INFO:     lookahead: 200 | tau: 1 | k: 7
2021-04-13 16:11:34,415:__init__:INFO:     size of histories: torch.Size([784, 7, 1]) | size of futures: torch.Size([784, 201, 1])

2021-04-13 16:11:58,305:<module>:INFO:
 ----------------------- Starting of new script ----------------------- 

2021-04-13 16:11:58,307:<module>:INFO:CreationRNN(
  (rnn): GRU(1, 100, num_layers=2, batch_first=True)
  (o2o): Linear(in_features=100, out_features=3, bias=True)
)
2021-04-13 16:11:58,307:<module>:INFO:Net(
  (acti): LeakyReLU(negative_slope=0.01)
  (layer1): Linear(in_features=3, out_features=256, bias=True)
  (layer2): Linear(in_features=256, out_features=256, bias=True)
  (layer3): Linear(in_features=256, out_features=3, bias=True)
)
2021-04-13 16:11:58,325:__init__:INFO:
Constructed 3D Lorenz dataset with: 
2021-04-13 16:11:58,326:__init__:INFO:     lookahead: 50 | tau: 1 | k: 7
2021-04-13 16:11:58,326:__init__:INFO:     size of histories: torch.Size([934, 7, 1]) | size of futures: torch.Size([934, 51, 1])

2021-04-13 16:12:12,660:<module>:INFO:
 ----------------------- Starting of new script ----------------------- 

2021-04-13 16:12:12,662:<module>:INFO:CreationRNN(
  (rnn): GRU(1, 100, num_layers=2, batch_first=True)
  (o2o): Linear(in_features=100, out_features=3, bias=True)
)
2021-04-13 16:12:12,662:<module>:INFO:Net(
  (acti): LeakyReLU(negative_slope=0.01)
  (layer1): Linear(in_features=3, out_features=256, bias=True)
  (layer2): Linear(in_features=256, out_features=256, bias=True)
  (layer3): Linear(in_features=256, out_features=3, bias=True)
)
2021-04-13 16:12:12,681:__init__:INFO:
Constructed 3D Lorenz dataset with: 
2021-04-13 16:12:12,681:__init__:INFO:     lookahead: 50 | tau: 1 | k: 7
2021-04-13 16:12:12,681:__init__:INFO:     size of histories: torch.Size([934, 7, 1]) | size of futures: torch.Size([934, 51, 1])

2021-04-13 16:12:23,901:<module>:INFO:
 ----------------------- Starting of new script ----------------------- 

2021-04-13 16:12:23,904:<module>:INFO:CreationRNN(
  (rnn): GRU(1, 100, num_layers=2, batch_first=True)
  (o2o): Linear(in_features=100, out_features=3, bias=True)
)
2021-04-13 16:12:23,904:<module>:INFO:Net(
  (acti): LeakyReLU(negative_slope=0.01)
  (layer1): Linear(in_features=3, out_features=256, bias=True)
  (layer2): Linear(in_features=256, out_features=256, bias=True)
  (layer3): Linear(in_features=256, out_features=3, bias=True)
)
2021-04-13 16:12:23,926:__init__:INFO:
Constructed 3D Lorenz dataset with: 
2021-04-13 16:12:23,927:__init__:INFO:     lookahead: 50 | tau: 1 | k: 7
2021-04-13 16:12:23,927:__init__:INFO:     size of histories: torch.Size([934, 7, 1]) | size of futures: torch.Size([934, 51, 1])

2021-04-13 16:12:46,049:<module>:INFO:
 ----------------------- Starting of new script ----------------------- 

2021-04-13 16:12:46,051:<module>:INFO:CreationRNN(
  (rnn): GRU(1, 100, num_layers=2, batch_first=True)
  (o2o): Linear(in_features=100, out_features=3, bias=True)
)
2021-04-13 16:12:46,052:<module>:INFO:Net(
  (acti): LeakyReLU(negative_slope=0.01)
  (layer1): Linear(in_features=3, out_features=256, bias=True)
  (layer2): Linear(in_features=256, out_features=256, bias=True)
  (layer3): Linear(in_features=256, out_features=3, bias=True)
)
2021-04-13 16:12:46,069:__init__:INFO:
Constructed 3D Lorenz dataset with: 
2021-04-13 16:12:46,069:__init__:INFO:     lookahead: 2 | tau: 1 | k: 7
2021-04-13 16:12:46,069:__init__:INFO:     size of histories: torch.Size([1964, 7, 1]) | size of futures: torch.Size([1964, 3, 1])

2021-04-13 16:12:46,082:__init__:INFO:
Constructed 3D Lorenz dataset with: 
…
2021-04-13 16:29:36,367:<module>:INFO:EPOCH 32 finished with training loss: 0.0031524179503321648 | lr: 0.0001 | delta time: 57.26563382148743s
2021-04-13 16:30:35,917:<module>:INFO:EPOCH 34 finished with training loss: 0.0031393771059811115 | lr: 0.0001 | delta time: 59.544585943222046s
2021-04-13 16:31:35,795:<module>:INFO:EPOCH 36 finished with training loss: 0.0031191594898700714 | lr: 0.0001 | delta time: 59.87441396713257s
2021-04-13 16:32:17,453:<module>:INFO:
 ----------------------- Starting of new script ----------------------- 

2021-04-13 16:32:17,456:<module>:INFO:CreationRNN(
  (rnn): GRU(1, 100, num_layers=2, batch_first=True)
  (o2o): Linear(in_features=100, out_features=3, bias=True)
)
2021-04-13 16:32:17,456:<module>:INFO:Net(
  (acti): LeakyReLU(negative_slope=0.01)
  (layer1): Linear(in_features=3, out_features=256, bias=True)
  (layer2): Linear(in_features=256, out_features=256, bias=True)
  (layer3): Linear(in_features=256, out_features=3, bias=True)
)
2021-04-13 16:32:44,524:<module>:INFO:
 ----------------------- Starting of new script ----------------------- 

2021-04-13 16:32:44,527:<module>:INFO:CreationRNN(
  (rnn): GRU(1, 100, num_layers=2, batch_first=True)
  (o2o): Linear(in_features=100, out_features=3, bias=True)
)
2021-04-13 16:32:44,527:<module>:INFO:Net(
  (acti): LeakyReLU(negative_slope=0.01)
  (layer1): Linear(in_features=3, out_features=256, bias=True)
  (layer2): Linear(in_features=256, out_features=256, bias=True)
  (layer3): Linear(in_features=256, out_features=3, bias=True)
)
2021-04-13 16:33:01,926:<module>:INFO:
 ----------------------- Starting of new script ----------------------- 

2021-04-13 16:33:01,928:<module>:INFO:CreationRNN(
  (rnn): GRU(1, 100, num_layers=2, batch_first=True)
  (o2o): Linear(in_features=100, out_features=3, bias=True)
)
2021-04-13 16:33:01,928:<module>:INFO:Net(
  (acti): LeakyReLU(negative_slope=0.01)
  (layer1): Linear(in_features=3, out_features=256, bias=True)
  (layer2): Linear(in_features=256, out_features=256, bias=True)
  (layer3): Linear(in_features=256, out_features=3, bias=True)
)
2021-04-13 16:33:13,090:<module>:INFO:
 ----------------------- Starting of new script ----------------------- 

2021-04-13 16:33:13,092:<module>:INFO:CreationRNN(
  (rnn): GRU(1, 100, num_layers=2, batch_first=True)
  (o2o): Linear(in_features=100, out_features=3, bias=True)
)
2021-04-13 16:33:13,092:<module>:INFO:Net(
  (acti): LeakyReLU(negative_slope=0.01)
  (layer1): Linear(in_features=3, out_features=256, bias=True)
  (layer2): Linear(in_features=256, out_features=256, bias=True)
  (layer3): Linear(in_features=256, out_features=3, bias=True)
)
2021-04-13 16:33:38,288:<module>:INFO:
 ----------------------- Starting of new script ----------------------- 

2021-04-13 16:33:38,293:<module>:INFO:CreationRNN(
  (rnn): GRU(1, 100, num_layers=2, batch_first=True)
  (o2o): Linear(in_features=100, out_features=3, bias=True)
)
2021-04-13 16:33:38,293:<module>:INFO:Net(
  (acti): LeakyReLU(negative_slope=0.01)
  (layer1): Linear(in_features=3, out_features=256, bias=True)
  (layer2): Linear(in_features=256, out_features=256, bias=True)
  (layer3): Linear(in_features=256, out_features=3, bias=True)
)
2021-04-13 16:33:38,312:__init__:INFO:
Constructed 3D Lorenz dataset with: 
2021-04-13 16:33:38,312:__init__:INFO:     lookahead: 50 | tau: 1 | k: 7
2021-04-13 16:33:38,312:__init__:INFO:     size of histories: torch.Size([934, 7, 1]) | size of futures: torch.Size([934, 51, 1])

2021-04-13 16:33:54,385:<module>:INFO:
 ----------------------- Starting of new script ----------------------- 

2021-04-13 16:33:54,388:<module>:INFO:CreationRNN(
  (rnn): GRU(1, 100, num_layers=2, batch_first=True)
  (o2o): Linear(in_features=100, out_features=3, bias=True)
)
2021-04-13 16:33:54,388:<module>:INFO:Net(
  (acti): LeakyReLU(negative_slope=0.01)
  (layer1): Linear(in_features=3, out_features=256, bias=True)
  (layer2): Linear(in_features=256, out_features=256, bias=True)
  (layer3): Linear(in_features=256, out_features=3, bias=True)
)
2021-04-13 16:34:12,555:<module>:INFO:
 ----------------------- Starting of new script ----------------------- 

2021-04-13 16:34:12,557:<module>:INFO:CreationRNN(
  (rnn): GRU(1, 100, num_layers=2, batch_first=True)
  (o2o): Linear(in_features=100, out_features=3, bias=True)
)
2021-04-13 16:34:12,558:<module>:INFO:Net(
  (acti): LeakyReLU(negative_slope=0.01)
  (layer1): Linear(in_features=3, out_features=256, bias=True)
  (layer2): Linear(in_features=256, out_features=256, bias=True)
  (layer3): Linear(in_features=256, out_features=3, bias=True)
)
2021-04-13 16:34:12,575:__init__:INFO:
Constructed 3D Lorenz dataset with: 
2021-04-13 16:34:12,575:__init__:INFO:     lookahead: 50 | tau: 1 | k: 7
2021-04-13 16:34:12,575:__init__:INFO:     size of histories: torch.Size([934, 7, 1]) | size of futures: torch.Size([934, 51, 1])

2021-04-13 16:34:38,256:<module>:INFO:
 ----------------------- Starting of new script ----------------------- 

2021-04-13 16:34:38,259:<module>:INFO:CreationRNN(
  (rnn): GRU(1, 100, num_layers=2, batch_first=True)
  (o2o): Linear(in_features=100, out_features=3, bias=True)
)
2021-04-13 16:34:38,259:<module>:INFO:Net(
  (acti): LeakyReLU(negative_slope=0.01)
  (layer1): Linear(in_features=3, out_features=256, bias=True)
  (layer2): Linear(in_features=256, out_features=256, bias=True)
  (layer3): Linear(in_features=256, out_features=3, bias=True)
)
2021-04-13 16:34:38,274:__init__:INFO:
Constructed 3D Lorenz dataset with: 
2021-04-13 16:34:38,275:__init__:INFO:     lookahead: 2 | tau: 1 | k: 7
2021-04-13 16:34:38,275:__init__:INFO:     size of histories: torch.Size([1964, 7, 1]) | size of futures: torch.Size([1964, 3, 1])

2021-04-13 16:34:38,288:__init__:INFO:
Constructed 3D Lorenz dataset with: 
…
2021-04-14 10:27:58,319:<module>:INFO:EPOCH 186 finished with training loss: 0.06682605296373367 | lr: 0.001 | delta time: 1.7741191387176514s
2021-04-14 10:28:00,088:<module>:INFO:EPOCH 188 finished with training loss: 0.06656976044178009 | lr: 0.001 | delta time: 1.7659478187561035s
2021-04-14 10:28:01,894:<module>:INFO:EPOCH 190 finished with training loss: 0.06631423532962799 | lr: 0.001 | delta time: 1.8024249076843262s
2021-04-14 10:28:20,569:<module>:INFO:
 ----------------------- Starting of new script ----------------------- 

2021-04-14 10:28:20,571:<module>:INFO:CreationRNN(
  (rnn): GRU(1, 100, num_layers=2, batch_first=True)
  (o2o): Linear(in_features=100, out_features=6, bias=True)
)
2021-04-14 10:28:20,571:<module>:INFO:Net(
  (acti): LeakyReLU(negative_slope=0.01)
  (layer1): Linear(in_features=6, out_features=256, bias=True)
  (layer3): Linear(in_features=256, out_features=6, bias=True)
)
2021-04-14 10:28:20,587:__init__:INFO:
Constructed 3D Lorenz dataset with: 
2021-04-14 10:28:20,587:__init__:INFO:     lookahead: 50 | tau: 1 | k: 7
2021-04-14 10:28:20,587:__init__:INFO:     size of histories: torch.Size([934, 7, 1]) | size of futures: torch.Size([934, 51, 1])

2021-04-14 10:28:45,105:<module>:INFO:
 ----------------------- Starting of new script ----------------------- 

2021-04-14 10:28:45,107:<module>:INFO:CreationRNN(
  (rnn): GRU(1, 100, num_layers=2, batch_first=True)
  (o2o): Linear(in_features=100, out_features=6, bias=True)
)
2021-04-14 10:28:45,107:<module>:INFO:Net(
  (acti): LeakyReLU(negative_slope=0.01)
  (layer1): Linear(in_features=6, out_features=256, bias=True)
  (layer3): Linear(in_features=256, out_features=6, bias=True)
)
2021-04-14 10:28:45,123:__init__:INFO:
Constructed 3D Lorenz dataset with: 
2021-04-14 10:28:45,124:__init__:INFO:     lookahead: 100 | tau: 1 | k: 7
2021-04-14 10:28:45,124:__init__:INFO:     size of histories: torch.Size([884, 7, 1]) | size of futures: torch.Size([884, 101, 1])

2021-04-14 10:29:07,196:<module>:INFO:
 ----------------------- Starting of new script ----------------------- 

2021-04-14 10:29:07,197:<module>:INFO:CreationRNN(
  (rnn): GRU(1, 100, num_layers=2, batch_first=True)
  (o2o): Linear(in_features=100, out_features=6, bias=True)
)
2021-04-14 10:29:07,198:<module>:INFO:Net(
  (acti): LeakyReLU(negative_slope=0.01)
  (layer1): Linear(in_features=6, out_features=256, bias=True)
  (layer3): Linear(in_features=256, out_features=6, bias=True)
)
2021-04-14 10:29:07,218:__init__:INFO:
Constructed 3D Lorenz dataset with: 
2021-04-14 10:29:07,218:__init__:INFO:     lookahead: 100 | tau: 1 | k: 7
2021-04-14 10:29:07,218:__init__:INFO:     size of histories: torch.Size([884, 7, 1]) | size of futures: torch.Size([884, 101, 1])

2021-04-14 10:29:16,718:<module>:INFO:
 ----------------------- Starting of new script ----------------------- 

2021-04-14 10:29:16,720:<module>:INFO:CreationRNN(
  (rnn): GRU(1, 100, num_layers=2, batch_first=True)
  (o2o): Linear(in_features=100, out_features=6, bias=True)
)
2021-04-14 10:29:16,720:<module>:INFO:Net(
  (acti): LeakyReLU(negative_slope=0.01)
  (layer1): Linear(in_features=6, out_features=256, bias=True)
  (layer3): Linear(in_features=256, out_features=6, bias=True)
)
2021-04-14 10:29:16,737:__init__:INFO:
Constructed 3D Lorenz dataset with: 
2021-04-14 10:29:16,737:__init__:INFO:     lookahead: 100 | tau: 1 | k: 7
2021-04-14 10:29:16,737:__init__:INFO:     size of histories: torch.Size([884, 7, 1]) | size of futures: torch.Size([884, 101, 1])

2021-04-14 10:29:26,153:<module>:INFO:
 ----------------------- Starting of new script ----------------------- 

2021-04-14 10:29:26,155:<module>:INFO:CreationRNN(
  (rnn): GRU(1, 100, num_layers=2, batch_first=True)
  (o2o): Linear(in_features=100, out_features=6, bias=True)
)
2021-04-14 10:29:26,155:<module>:INFO:Net(
  (acti): LeakyReLU(negative_slope=0.01)
  (layer1): Linear(in_features=6, out_features=256, bias=True)
  (layer3): Linear(in_features=256, out_features=6, bias=True)
)
2021-04-14 10:29:26,173:__init__:INFO:
Constructed 3D Lorenz dataset with: 
2021-04-14 10:29:26,173:__init__:INFO:     lookahead: 100 | tau: 1 | k: 7
2021-04-14 10:29:26,173:__init__:INFO:     size of histories: torch.Size([884, 7, 1]) | size of futures: torch.Size([884, 101, 1])

2021-04-14 10:30:22,414:<module>:INFO:
 ----------------------- Starting of new script ----------------------- 

2021-04-14 10:30:22,416:<module>:INFO:CreationRNN(
  (rnn): GRU(1, 100, num_layers=2, batch_first=True)
  (o2o): Linear(in_features=100, out_features=3, bias=True)
)
2021-04-14 10:30:22,416:<module>:INFO:Net(
  (acti): LeakyReLU(negative_slope=0.01)
  (layer1): Linear(in_features=3, out_features=256, bias=True)
  (layer3): Linear(in_features=256, out_features=3, bias=True)
)
2021-04-14 10:30:22,428:__init__:INFO:
Constructed 3D Lorenz dataset with: 
2021-04-14 10:30:22,428:__init__:INFO:     lookahead: 2 | tau: 1 | k: 7
2021-04-14 10:30:22,428:__init__:INFO:     size of histories: torch.Size([982, 7, 1]) | size of futures: torch.Size([982, 3, 1])

2021-04-14 10:30:22,439:__init__:INFO:
Constructed 3D Lorenz dataset with: 
2021-04-14 10:30:22,440:__init__:INFO:     lookahead: 2 | tau: 1 | k: 7
…
2021-04-14 10:33:52,302:<module>:INFO:EPOCH 198 finished with training loss: 0.27482879161834717 | lr: 0.01 | delta time: 3.5831239223480225s
2021-04-14 10:33:54,526:__init__:INFO:
Constructed 3D Lorenz dataset with: 
2021-04-14 10:33:54,526:__init__:INFO:     lookahead: 100 | tau: 1 | k: 7
2021-04-14 10:33:54,526:__init__:INFO:     size of histories: torch.Size([884, 7, 1]) | size of futures: torch.Size([884, 101, 1])

2021-04-14 10:35:00,845:<module>:INFO:
 ----------------------- Starting of new script ----------------------- 

2021-04-14 10:35:00,847:<module>:INFO:CreationRNN(
  (rnn): GRU(1, 100, num_layers=2, batch_first=True)
  (o2o): Linear(in_features=100, out_features=3, bias=True)
)
2021-04-14 10:35:00,847:<module>:INFO:Net(
  (acti): LeakyReLU(negative_slope=0.01)
  (layer1): Linear(in_features=3, out_features=256, bias=True)
  (layer3): Linear(in_features=256, out_features=3, bias=True)
)
2021-04-14 10:35:00,864:__init__:INFO:
Constructed 3D Lorenz dataset with: 
2021-04-14 10:35:00,865:__init__:INFO:     lookahead: 10 | tau: 1 | k: 7
2021-04-14 10:35:00,865:__init__:INFO:     size of histories: torch.Size([974, 7, 1]) | size of futures: torch.Size([974, 11, 1])

2021-04-14 10:35:36,980:<module>:INFO:
 ----------------------- Starting of new script ----------------------- 

2021-04-14 10:35:36,982:<module>:INFO:CreationRNN(
  (rnn): GRU(1, 100, num_layers=2, batch_first=True)
  (o2o): Linear(in_features=100, out_features=3, bias=True)
)
2021-04-14 10:35:36,982:<module>:INFO:Net(
  (acti): LeakyReLU(negative_slope=0.01)
  (layer1): Linear(in_features=3, out_features=256, bias=True)
  (layer3): Linear(in_features=256, out_features=3, bias=True)
)
2021-04-14 10:35:36,996:__init__:INFO:
Constructed 3D Lorenz dataset with: 
2021-04-14 10:35:36,996:__init__:INFO:     lookahead: 2 | tau: 1 | k: 7
2021-04-14 10:35:36,996:__init__:INFO:     size of histories: torch.Size([982, 7, 1]) | size of futures: torch.Size([982, 3, 1])

2021-04-14 10:35:37,007:__init__:INFO:
Constructed 3D Lorenz dataset with: 
2021-04-14 10:35:37,007:__init__:INFO:     lookahead: 2 | tau: 1 | k: 7
…
2021-04-14 11:04:18,154:<module>:INFO:EPOCH 100 finished with training loss: 0.10661830008029938 | lr: 0.01 | delta time: 2.6706602573394775s
2021-04-14 11:04:20,672:<module>:INFO:EPOCH 102 finished with training loss: 0.10830479860305786 | lr: 0.01 | delta time: 2.5145092010498047s
2021-04-14 11:04:23,199:<module>:INFO:EPOCH 104 finished with training loss: 0.09806597232818604 | lr: 0.01 | delta time: 2.522524833679199s
2021-04-14 11:04:28,687:<module>:INFO:
 ----------------------- Starting of new script ----------------------- 

2021-04-14 11:04:28,689:<module>:INFO:CreationRNN(
  (rnn): GRU(1, 100, num_layers=2, batch_first=True)
  (o2o): Linear(in_features=100, out_features=3, bias=True)
)
2021-04-14 11:04:28,689:<module>:INFO:Net(
  (acti): LeakyReLU(negative_slope=0.01)
  (layer1): Linear(in_features=3, out_features=256, bias=True)
  (layer3): Linear(in_features=256, out_features=3, bias=True)
)
2021-04-14 11:04:28,705:__init__:INFO:
Constructed 3D Lorenz dataset with: 
2021-04-14 11:04:28,706:__init__:INFO:     lookahead: 10 | tau: 1 | k: 7
2021-04-14 11:04:28,706:__init__:INFO:     size of histories: torch.Size([974, 7, 1]) | size of futures: torch.Size([974, 11, 1])

2021-04-14 11:04:47,078:<module>:INFO:
 ----------------------- Starting of new script ----------------------- 

2021-04-14 11:04:47,080:<module>:INFO:CreationRNN(
  (rnn): GRU(1, 100, num_layers=2, batch_first=True)
  (o2o): Linear(in_features=100, out_features=3, bias=True)
)
2021-04-14 11:04:47,080:<module>:INFO:Net(
  (acti): LeakyReLU(negative_slope=0.01)
  (layer1): Linear(in_features=3, out_features=256, bias=True)
  (layer3): Linear(in_features=256, out_features=3, bias=True)
)
2021-04-14 11:04:47,098:__init__:INFO:
Constructed 3D Lorenz dataset with: 
2021-04-14 11:04:47,098:__init__:INFO:     lookahead: 10 | tau: 1 | k: 7
2021-04-14 11:04:47,098:__init__:INFO:     size of histories: torch.Size([974, 7, 1]) | size of futures: torch.Size([974, 11, 1])

2021-04-14 11:05:00,625:<module>:INFO:
 ----------------------- Starting of new script ----------------------- 

2021-04-14 11:05:00,627:<module>:INFO:CreationRNN(
  (rnn): GRU(1, 100, num_layers=2, batch_first=True)
  (o2o): Linear(in_features=100, out_features=3, bias=True)
)
2021-04-14 11:05:00,627:<module>:INFO:Net(
  (acti): LeakyReLU(negative_slope=0.01)
  (layer1): Linear(in_features=3, out_features=256, bias=True)
  (layer3): Linear(in_features=256, out_features=3, bias=True)
)
2021-04-14 11:05:00,644:__init__:INFO:
Constructed 3D Lorenz dataset with: 
2021-04-14 11:05:00,644:__init__:INFO:     lookahead: 100 | tau: 1 | k: 7
2021-04-14 11:05:00,644:__init__:INFO:     size of histories: torch.Size([884, 7, 1]) | size of futures: torch.Size([884, 101, 1])

2021-04-14 11:05:20,786:<module>:INFO:
 ----------------------- Starting of new script ----------------------- 

2021-04-14 11:05:20,788:<module>:INFO:CreationRNN(
  (rnn): GRU(1, 100, num_layers=2, batch_first=True)
  (o2o): Linear(in_features=100, out_features=3, bias=True)
)
2021-04-14 11:05:20,788:<module>:INFO:Net(
  (acti): LeakyReLU(negative_slope=0.01)
  (layer1): Linear(in_features=3, out_features=256, bias=True)
  (layer3): Linear(in_features=256, out_features=3, bias=True)
)
2021-04-14 11:05:20,804:__init__:INFO:
Constructed 3D Lorenz dataset with: 
2021-04-14 11:05:20,805:__init__:INFO:     lookahead: 2 | tau: 1 | k: 7
2021-04-14 11:05:20,805:__init__:INFO:     size of histories: torch.Size([982, 7, 1]) | size of futures: torch.Size([982, 3, 1])

2021-04-14 11:05:20,815:__init__:INFO:
Constructed 3D Lorenz dataset with: 
2021-04-14 11:05:20,815:__init__:INFO:     lookahead: 2 | tau: 1 | k: 7
…
2021-04-14 11:06:48,697:<module>:INFO:EPOCH 78 finished with training loss: 0.05820781737565994 | lr: 0.01 | delta time: 2.2009382247924805s
2021-04-14 11:06:50,893:<module>:INFO:EPOCH 80 finished with training loss: 0.05789443477988243 | lr: 0.01 | delta time: 2.191973924636841s
2021-04-14 11:06:53,177:<module>:INFO:EPOCH 82 finished with training loss: 0.057580143213272095 | lr: 0.01 | delta time: 2.2799811363220215s
2021-04-14 11:07:00,275:<module>:INFO:
 ----------------------- Starting of new script ----------------------- 

2021-04-14 11:07:00,276:<module>:INFO:CreationRNN(
  (rnn): GRU(1, 100, num_layers=2, batch_first=True)
  (o2o): Linear(in_features=100, out_features=3, bias=True)
)
2021-04-14 11:07:00,276:<module>:INFO:Net(
  (acti): LeakyReLU(negative_slope=0.01)
  (layer1): Linear(in_features=3, out_features=256, bias=True)
  (layer3): Linear(in_features=256, out_features=3, bias=True)
)
2021-04-14 11:07:00,293:__init__:INFO:
Constructed 3D Lorenz dataset with: 
2021-04-14 11:07:00,293:__init__:INFO:     lookahead: 100 | tau: 1 | k: 7
2021-04-14 11:07:00,294:__init__:INFO:     size of histories: torch.Size([884, 7, 1]) | size of futures: torch.Size([884, 101, 1])

2021-04-14 11:07:13,951:<module>:INFO:
 ----------------------- Starting of new script ----------------------- 

2021-04-14 11:07:13,955:<module>:INFO:CreationRNN(
  (rnn): GRU(1, 100, num_layers=2, batch_first=True)
  (o2o): Linear(in_features=100, out_features=3, bias=True)
)
2021-04-14 11:07:13,956:<module>:INFO:Net(
  (acti): LeakyReLU(negative_slope=0.01)
  (layer1): Linear(in_features=3, out_features=256, bias=True)
  (layer3): Linear(in_features=256, out_features=3, bias=True)
)
2021-04-14 11:07:13,986:__init__:INFO:
Constructed 3D Lorenz dataset with: 
2021-04-14 11:07:13,987:__init__:INFO:     lookahead: 100 | tau: 1 | k: 7
2021-04-14 11:07:13,987:__init__:INFO:     size of histories: torch.Size([884, 7, 1]) | size of futures: torch.Size([884, 101, 1])

2021-04-14 11:07:23,152:<module>:INFO:
 ----------------------- Starting of new script ----------------------- 

2021-04-14 11:07:23,154:<module>:INFO:CreationRNN(
  (rnn): GRU(1, 100, num_layers=2, batch_first=True)
  (o2o): Linear(in_features=100, out_features=3, bias=True)
)
2021-04-14 11:07:23,154:<module>:INFO:Net(
  (acti): LeakyReLU(negative_slope=0.01)
  (layer1): Linear(in_features=3, out_features=256, bias=True)
  (layer3): Linear(in_features=256, out_features=3, bias=True)
)
2021-04-14 11:07:23,178:__init__:INFO:
Constructed 3D Lorenz dataset with: 
2021-04-14 11:07:23,178:__init__:INFO:     lookahead: 100 | tau: 1 | k: 7
2021-04-14 11:07:23,178:__init__:INFO:     size of histories: torch.Size([884, 7, 1]) | size of futures: torch.Size([884, 101, 1])

2021-04-14 11:07:41,692:<module>:INFO:
 ----------------------- Starting of new script ----------------------- 

2021-04-14 11:07:41,694:<module>:INFO:CreationRNN(
  (rnn): GRU(1, 100, num_layers=2, batch_first=True)
  (o2o): Linear(in_features=100, out_features=3, bias=True)
)
2021-04-14 11:07:41,694:<module>:INFO:Net(
  (acti): LeakyReLU(negative_slope=0.01)
  (layer1): Linear(in_features=3, out_features=256, bias=True)
  (layer3): Linear(in_features=256, out_features=3, bias=True)
)
2021-04-14 11:07:41,711:__init__:INFO:
Constructed 3D Lorenz dataset with: 
2021-04-14 11:07:41,711:__init__:INFO:     lookahead: 100 | tau: 1 | k: 7
2021-04-14 11:07:41,711:__init__:INFO:     size of histories: torch.Size([884, 7, 1]) | size of futures: torch.Size([884, 101, 1])

2021-04-14 11:07:56,136:<module>:INFO:
 ----------------------- Starting of new script ----------------------- 

2021-04-14 11:07:56,138:<module>:INFO:CreationRNN(
  (rnn): GRU(1, 100, num_layers=2, batch_first=True)
  (o2o): Linear(in_features=100, out_features=3, bias=True)
)
2021-04-14 11:07:56,139:<module>:INFO:Net(
  (acti): LeakyReLU(negative_slope=0.01)
  (layer1): Linear(in_features=3, out_features=256, bias=True)
  (layer3): Linear(in_features=256, out_features=3, bias=True)
)
2021-04-14 11:07:56,156:__init__:INFO:
Constructed 3D Lorenz dataset with: 
2021-04-14 11:07:56,156:__init__:INFO:     lookahead: 2 | tau: 1 | k: 7
2021-04-14 11:07:56,156:__init__:INFO:     size of histories: torch.Size([982, 7, 1]) | size of futures: torch.Size([982, 3, 1])

2021-04-14 11:07:56,168:__init__:INFO:
Constructed 3D Lorenz dataset with: 
2021-04-14 11:07:56,168:__init__:INFO:     lookahead: 2 | tau: 1 | k: 7
…
2021-04-14 11:17:28,440:<module>:INFO:EPOCH 398 finished with training loss: 0.030675919726490974 | lr: 0.001 | delta time: 2.131593942642212s
2021-04-14 11:17:29,821:__init__:INFO:
Constructed 3D Lorenz dataset with: 
2021-04-14 11:17:29,821:__init__:INFO:     lookahead: 100 | tau: 1 | k: 7
2021-04-14 11:17:29,821:__init__:INFO:     size of histories: torch.Size([884, 7, 1]) | size of futures: torch.Size([884, 101, 1])

2021-04-14 11:17:51,318:<module>:INFO:
 ----------------------- Starting of new script ----------------------- 

2021-04-14 11:17:51,320:<module>:INFO:CreationRNN(
  (rnn): GRU(1, 100, num_layers=2, batch_first=True)
  (o2o): Linear(in_features=100, out_features=3, bias=True)
)
2021-04-14 11:17:51,320:<module>:INFO:Net(
  (acti): LeakyReLU(negative_slope=0.01)
  (layer1): Linear(in_features=3, out_features=256, bias=True)
  (layer3): Linear(in_features=256, out_features=3, bias=True)
)
2021-04-14 11:17:51,337:__init__:INFO:
Constructed 3D Lorenz dataset with: 
2021-04-14 11:17:51,337:__init__:INFO:     lookahead: 100 | tau: 1 | k: 7
2021-04-14 11:17:51,337:__init__:INFO:     size of histories: torch.Size([884, 7, 1]) | size of futures: torch.Size([884, 101, 1])

2021-04-14 11:17:59,662:<module>:INFO:
 ----------------------- Starting of new script ----------------------- 

2021-04-14 11:17:59,665:<module>:INFO:CreationRNN(
  (rnn): GRU(1, 100, num_layers=2, batch_first=True)
  (o2o): Linear(in_features=100, out_features=3, bias=True)
)
2021-04-14 11:17:59,665:<module>:INFO:Net(
  (acti): LeakyReLU(negative_slope=0.01)
  (layer1): Linear(in_features=3, out_features=256, bias=True)
  (layer3): Linear(in_features=256, out_features=3, bias=True)
)
2021-04-14 11:17:59,683:__init__:INFO:
Constructed 3D Lorenz dataset with: 
2021-04-14 11:17:59,683:__init__:INFO:     lookahead: 100 | tau: 1 | k: 7
2021-04-14 11:17:59,683:__init__:INFO:     size of histories: torch.Size([884, 7, 1]) | size of futures: torch.Size([884, 101, 1])

2021-04-14 11:18:09,445:<module>:INFO:
 ----------------------- Starting of new script ----------------------- 

2021-04-14 11:18:09,449:<module>:INFO:CreationRNN(
  (rnn): GRU(1, 100, num_layers=2, batch_first=True)
  (o2o): Linear(in_features=100, out_features=3, bias=True)
)
2021-04-14 11:18:09,449:<module>:INFO:Net(
  (acti): LeakyReLU(negative_slope=0.01)
  (layer1): Linear(in_features=3, out_features=256, bias=True)
  (layer3): Linear(in_features=256, out_features=3, bias=True)
)
2021-04-14 11:18:09,472:__init__:INFO:
Constructed 3D Lorenz dataset with: 
2021-04-14 11:18:09,472:__init__:INFO:     lookahead: 100 | tau: 1 | k: 7
2021-04-14 11:18:09,472:__init__:INFO:     size of histories: torch.Size([884, 7, 1]) | size of futures: torch.Size([884, 101, 1])

2021-04-14 11:19:01,494:<module>:INFO:
 ----------------------- Starting of new script ----------------------- 

2021-04-14 11:19:01,499:<module>:INFO:CreationRNN(
  (rnn): GRU(1, 200, num_layers=2, batch_first=True)
  (o2o): Linear(in_features=200, out_features=3, bias=True)
)
2021-04-14 11:19:01,499:<module>:INFO:Net(
  (acti): LeakyReLU(negative_slope=0.01)
  (layer1): Linear(in_features=3, out_features=256, bias=True)
  (layer2): Linear(in_features=256, out_features=256, bias=True)
  (layer3): Linear(in_features=256, out_features=3, bias=True)
)
2021-04-14 11:19:01,514:__init__:INFO:
Constructed 3D Lorenz dataset with: 
2021-04-14 11:19:01,514:__init__:INFO:     lookahead: 2 | tau: 1 | k: 7
2021-04-14 11:19:01,514:__init__:INFO:     size of histories: torch.Size([982, 7, 1]) | size of futures: torch.Size([982, 3, 1])

2021-04-14 11:19:01,528:__init__:INFO:
Constructed 3D Lorenz dataset with: 
2021-04-14 11:19:01,528:__init__:INFO:     lookahead: 2 | tau: 1 | k: 7
…
2021-04-14 11:21:45,332:<module>:INFO:EPOCH 90 finished with training loss: 2.087059497833252 | lr: 0.01 | delta time: 11.408015012741089s
2021-04-14 11:22:00,656:<module>:INFO:EPOCH 92 finished with training loss: 1.5360592603683472 | lr: 0.01 | delta time: 15.316499948501587s
2021-04-14 11:22:13,321:<module>:INFO:EPOCH 94 finished with training loss: 1.5668925046920776 | lr: 0.01 | delta time: 12.65755009651184s
2021-04-14 11:22:23,125:<module>:INFO:
 ----------------------- Starting of new script ----------------------- 

2021-04-14 11:22:23,130:<module>:INFO:CreationRNN(
  (rnn): GRU(1, 200, num_layers=2, batch_first=True)
  (o2o): Linear(in_features=200, out_features=3, bias=True)
)
2021-04-14 11:22:23,130:<module>:INFO:Net(
  (acti): LeakyReLU(negative_slope=0.01)
  (layer1): Linear(in_features=3, out_features=256, bias=True)
  (layer2): Linear(in_features=256, out_features=256, bias=True)
  (layer3): Linear(in_features=256, out_features=3, bias=True)
)
2021-04-14 11:22:23,151:__init__:INFO:
Constructed 3D Lorenz dataset with: 
2021-04-14 11:22:23,151:__init__:INFO:     lookahead: 100 | tau: 1 | k: 7
2021-04-14 11:22:23,151:__init__:INFO:     size of histories: torch.Size([884, 7, 1]) | size of futures: torch.Size([884, 101, 1])

2021-04-14 11:22:49,701:<module>:INFO:
 ----------------------- Starting of new script ----------------------- 

2021-04-14 11:22:49,706:<module>:INFO:CreationRNN(
  (rnn): GRU(1, 200, num_layers=2, batch_first=True)
  (o2o): Linear(in_features=200, out_features=3, bias=True)
)
2021-04-14 11:22:49,706:<module>:INFO:Net(
  (acti): LeakyReLU(negative_slope=0.01)
  (layer1): Linear(in_features=3, out_features=256, bias=True)
  (layer2): Linear(in_features=256, out_features=256, bias=True)
  (layer3): Linear(in_features=256, out_features=3, bias=True)
)
2021-04-14 11:22:49,722:__init__:INFO:
Constructed 3D Lorenz dataset with: 
2021-04-14 11:22:49,722:__init__:INFO:     lookahead: 2 | tau: 1 | k: 7
2021-04-14 11:22:49,722:__init__:INFO:     size of histories: torch.Size([982, 7, 1]) | size of futures: torch.Size([982, 3, 1])

2021-04-14 11:22:49,733:__init__:INFO:
Constructed 3D Lorenz dataset with: 
2021-04-14 11:22:49,733:__init__:INFO:     lookahead: 2 | tau: 1 | k: 7
…
